trained_params/MNIST-SVHN-cnst-LR_1000_model_last.pth (torch, 843111 bytes, 34 tensors)

feature.0.weight f4 [32, 3, 5, 5]
000000 40 a9 b5 bc 17 1f f3 3c b7 b3 e1 bc e1 63 cd 3d
       -0.022175431 0.02967791 -0.027551515 0.10028816
000010 af 81 09 3e b3 2c 09 be 27 70 e7 bd 20 87 a5 3d
       0.13428377 -0.13395958 -0.11300688 0.08082414
000020 2d e4 a5 bd 1d 60 a9 3d 4e c2 17 3d e4 5b 1e 3d
       -0.08100162 0.08270285 0.037050538 0.038661852
000030 6c 4a 9a bd d4 64 90 bd a0 72 92 3d 89 ec 70 3d
       -0.07533726 -0.070504814 0.07150769 0.058819328
000040 6b a0 02 bb 5d e7 e4 bd 2d ce 21 bd 2a e2 0a bd
       -0.0019932042 -0.111769415 -0.039503265 -0.033907093
000050 92 2f d4 bd c2 f3 30 bd 1f ef 71 3d 4f 0a 8d 3d
       -0.10360636 -0.043201216 0.059065934 0.06886732
000060 b9 cf 20 3d 17 17 09 be 1a 10 df bc b1 3e d3 bd
       0.0392606 -0.13387714 -0.027229358 -0.10314692
000070 57 80 29 bd 21 92 17 3e 1c bb 85 bd 26 6a 89 3d
       -0.04138216 0.14801838 -0.06529829 0.06709699
000080 78 7a 20 3e 02 a4 b0 3b f7 c2 55 3d 4f f5 0c bd
       0.15671718 0.005390645 0.052187886 -0.034413632
000090 83 6f f8 3d 84 a8 07 3d 61 da a0 3d e4 5c 48 3c
       0.12130644 0.033119693 0.078541525 0.012229178
0000a0 f8 11 69 bd 0d 80 74 bd 01 6c 2f bd 13 0c a0 bd
       -0.056901902 -0.05969243 -0.04282761 -0.07814803
0000b0 a3 f8 f6 bc 02 e3 2b be 88 d6 1a be 32 1b 11 be
       -0.030147856 -0.16785815 -0.151209 -0.1417053
0000c0 6b 00 e3 bc ed 90 83 bd b2 bf d0 3c 65 e7 50 3d
       -0.02771016 -0.06424127 0.025482032 0.051001925
0000d0 64 53 7e 3d 1a 33 16 bc de 60 14 3e d8 4e c4 bc
       0.062091246 -0.009167457 0.14490077 -0.023963377
0000e0 d3 e8 f6 bd 54 38 e7 3d 5c 7d 80 bb 88 59 fa 3d
       -0.120561264 0.112900406 -0.003921194 0.12224108
0000f0 2c c2 30 bc 95 35 28 bd 50 4a 97 3d 19 4a 18 bd
       -0.010788482 -0.041066725 0.07387221 -0.03718004
000100 50 40 97 bd bf 2c 65 3d fc 4d 60 bd 19 79 c8 bd
       -0.073853135 0.055950876 -0.05476187 -0.097887225
000110 cf 1a f6 bd a6 0f c0 3d 21 5f 4d be 02 e5 34 ba
       -0.12016832 0.09377985 -0.2005582 -0.000690058
000120 c2 3a 0d 3d 46 e2 ef bc 67 43 b2 3c 2f 64 ac bd
       0.034479864 -0.0292827 0.021760656 -0.08417546
000130 4b c2 0a 3d 07 b7 4b 3d 65 c9 21 3d 40 5e 87 bc
       0.0338767 0.049735095 0.039498705 -0.016524434
000140 97 c1 e9 3c 2e c5 e3 bc 30 15 11 be 30 72 06 be
       0.028534694 -0.027803984 -0.14168239 -0.13129497
000150 e9 79 b7 3c 4d db 3a bd 87 64 bf bd 10 31 80 3d
       0.022396998 -0.045619298 -0.09345346 0.06259358
000160 5b 22 89 3d 1a 11 ae 3d 6d 45 22 bd c1 bd b2 3d
       0.06696006 0.084993556 -0.03961699 0.08727599
000170 f2 d1 ce 3c ab 91 10 3d 87 25 91 3c e6 51 20 be
       0.025246594 0.03529517 0.01771809 -0.15656242
000180 13 c4 5a 3c 6b 47 f3 bd 69 fd 6e 3d ba 46 f6 bc
       0.013352412 -0.11878856 0.05834714 -0.030063022
000190 b8 42 d7 bd 86 08 6c 3d 97 9e ed 3d 6f 10 38 3e
       -0.105107725 0.057625316 0.11602514 0.17975019
0001a0 b3 73 a8 bc 5e ca e9 3c f7 0e 9e 3d 05 8f 1a be
       -0.020562982 0.028538879 0.07717698 -0.1509362
0001b0 43 26 f3 bd 93 98 e3 bc 00 6b 09 be 2b 1f 9b 3c
       -0.11872532 -0.027782714 -0.13419724 0.01893576
0001c0 96 65 13 3d df 49 90 bd 10 ea 9c bd 59 8f 0f 3e
       0.03598555 -0.0704534 -0.076618314 0.14019527
0001d0 dc 03 bc 3d b5 34 63 bd e1 5d d2 3d 19 64 71 bb
       0.091804236 -0.055470187 0.10271812 -0.0036833344
0001e0 59 29 7d ba 8a 44 52 bd 8f c3 e5 3a 78 ca ec bd
       -0.00096573454 -0.051334895 0.0017529594 -0.11562055
0001f0 79 cb bc bc ed d7 c8 bc c5 2d 03 be 89 38 63 bd
       -0.023046242 -0.024517024 -0.12810428 -0.055473838
000200 50 9f de bc 77 b2 97 bd e3 33 85 bd 53 87 09 be
       -0.027175575 -0.07407086 -0.06504037 -0.13430528
000210 21 59 20 be 8e 59 1d be cb 82 85 bd 52 19 28 bd
       -0.15659 -0.15366194 -0.065190874 -0.041039772
000220 0d c9 11 bd c4 94 04 3e 83 82 d2 3d 34 f9 e0 3d
       -0.035592128 0.12947375 0.102787994 0.10985032
000230 aa 73 bb 3d a3 20 d1 3d 16 e2 2a 3e aa e2 8a 3b
       0.091529205 0.10211303 0.16687807 0.0042384462
000240 07 4d a4 3d f9 7b dc bd b3 d0 29 be 46 20 f0 bd
       0.08022504 -0.107658334 -0.16583519 -0.11724906
000250 24 70 92 bd 6f db a8 3d 6b bd 9d 3d b9 ed c1 bd
       -0.071502954 0.08244979 0.07702144 -0.0946917
000260 35 0c a8 bd d3 42 01 3d 08 79 09 be c6 22 2a 3e
       -0.08205453 0.03155787 -0.13425076 0.16614828
000270 7d c9 c1 3d eb af d3 bd 8d cf 41 bd 5d f5 e9 bc
       0.09462259 -0.10336288 -0.047317076 -0.028559381
000280 7f 39 30 3c 4f 6c ea bd 60 0e a6 bd 23 fc c1 3d
       0.010755896 -0.114464395 -0.081082106 0.094719194
000290 34 c4 73 3d 47 5a 4c bd a9 ef 47 bd ad 39 81 bd
       0.059513286 -0.049890783 -0.048812542 -0.06309829
0002a0 8e 82 03 3e 0f ee 85 3c 2c 6f aa bc 99 14 58 3d
       0.12842771 0.016348867 -0.020804964 0.05275402
0002b0 16 06 80 3c f3 4c ca bd 2e 6c fd 3c 3d 15 d4 bd
       0.015627902 -0.09877958 0.030935373 -0.103556134
0002c0 ec 76 3d 3d 6a 7e 1d bd 22 95 fa bd 6d a2 d8 3c
       0.04625599 -0.038450636 -0.12235476 0.026444638
0002d0 c5 14 f4 3d 8f b9 b4 3d 63 97 86 3d 25 2b 0f be
       0.11918024 0.08824455 0.065718435 -0.13981302
0002e0 e5 85 72 bd 54 66 df 3d a0 76 ce bd df 78 eb bd
       -0.059209723 0.109081894 -0.1008122 -0.11497664
0002f0 1d b0 20 3c df d5 f4 3d a4 a6 03 bd c8 00 de bd
       0.009807614 0.11954855 -0.032141343 -0.10839993
000300 73 fd 96 bd 9d 41 42 3d e7 da 05 3e 95 de 54 3d
       -0.0737256 0.047425855 0.13071786 0.051970083
000310 0f 02 d3 3d 6b 3d 88 3d 2f a2 8e bd 1c 22 99 bd
       0.10303127 0.066523395 -0.06964528 -0.07477209
000320 98 55 1a bd 7c f1 ad 3d 51 8a 57 3c 9a 6a e5 bc
       -0.037679285 0.08493325 0.013155536 -0.028004933
000330 9a 21 1e bd 65 2f 1b 3d 93 2b d0 3d cc b3 cb bd
       -0.038606264 0.037886996 0.10164561 -0.09946403
000340 e1 4b 23 be 4e c0 80 3d 18 19 bc 3c a7 9e d0 3b
       -0.15946914 0.06286679 0.022961184 0.006366569
000350 1d 0f 01 bd 40 d3 88 bd b4 54 f3 bb 6f cf f6 bd
       -0.031508554 -0.06680918 -0.007425869 -0.120512836
000360 e0 9b e4 bd 55 2c 8c bd e8 6e 37 3d 7b 8c 32 3d
       -0.11162543 -0.06844393 0.044783503 0.043591004
000370 7e 27 00 be 7a f7 97 bc 16 5f 86 3d 0a 05 00 be
       -0.12515065 -0.018550623 0.06561105 -0.12501922
000380 2a 54 31 be ed cc 64 bd d1 7c da 3d 96 6c e5 3b
       -0.17317262 -0.055859495 0.10668338 0.00700147
000390 c9 54 1a bd 78 c7 8d 3c 75 a6 79 bd c1 59 c7 bd
       -0.037678514 0.017307028 -0.06094976 -0.09733916
0003a0 7f 1b 11 3e 36 d5 b8 3d a3 06 48 3d 4c b7 81 bc
       0.14170645 0.09025042 0.048834454 -0.015834473
0003b0 9e 22 00 be 37 4d 05 bd 10 bd 80 3d 2b a3 f7 3d
       -0.12513205 -0.03254434 0.06286061 0.12091669
0003c0 e6 68 82 3d 6e 18 d5 bd 0c 85 09 bd d9 72 38 bc
       0.06367664 -0.1040505 -0.03357415 -0.011257851
0003d0 43 bc 27 3c ad 0b 1b 3c b6 61 6e 3d e5 86 96 bd
       0.010237756 0.009463233 0.058198653 -0.07349948
0003e0 ef 30 c7 bd 88 e5 90 3d 0b c7 e1 bd 78 73 88 bc
       -0.0972613 0.070750296 -0.110242926 -0.016656622
0003f0 60 14 d7 3b bd c3 1f 3c 6b 31 f6 3d 34 d1 93 bd
       0.006563708 0.0097512575 0.120211445 -0.07217637

feature.0.bias f4 [32]
000000 e3 a2 06 3c 80 79 6e 3d b4 0a cc 3d d0 3e ab bd
       0.008217546 0.05822134 0.09962979 -0.0836159
000010 ae b2 d5 3d fa eb df 3b d4 7c 29 bd fc f7 b2 bd
       0.10434471 0.0068335505 -0.04137881 -0.087387055
000020 f0 28 c2 3d 0c c3 9f bd 1f 36 99 bb f3 74 a8 3c
       0.094804645 -0.07800874 -0.004675641 0.020563578
000030 49 4f 74 bd af 65 d2 3c 4b 03 74 bd de 4b d5 bc
       -0.059645925 0.025683252 -0.059573453 -0.026037153
000040 dc 8a 5f 3d 0e fd a7 3d 1a 4b 56 bd 73 72 a8 3c
       0.054575786 0.08202563 -0.052317716 0.020562386
000050 56 5c d7 bb 71 9c ca bd 7b 7f 5b 3c c8 0e 28 3d
       -0.0065722866 -0.0989312 0.013397093 0.04102972
000060 4c bc c3 3d b8 5b 03 3d d8 c9 a9 3d e5 aa 7f 3c
       0.09557399 0.03206989 0.08290452 0.015604709
000070 8c 55 8c bc 14 f8 56 bc b2 87 82 bd 5e 26 b0 bc
       -0.017130636 -0.01312067 -0.06373538 -0.02150267

feature.1.weight f4 [32]
000000 c4 ac 7b 3f d7 3b 8c 3f bc 2a 89 3f d3 19 80 3f
       0.98310494 1.0955762 1.0716166 1.0007881
000010 76 e4 86 3f c2 9a 81 3f e7 a8 90 3f 29 e7 87 3f
       1.0538471 1.0125353 1.1301545 1.061742
000020 31 03 87 3f 22 25 83 3f 4a 50 87 3f de 80 55 3f
       1.0547849 1.0245707 1.0571377 0.8339976
000030 4c 5f 77 3f 11 6d 7f 3f 8b 3d 82 3f 42 f4 81 3f
       0.96629786 0.997758 1.0175031 1.0152667
000040 32 05 89 3f bc 22 66 3f d9 a9 51 3f c5 df 60 3f
       1.070471 0.8989675 0.8189979 0.87841445
000050 07 18 95 3f 33 5c 5e 3f 2f bc 46 3f 46 94 6b 3f
       1.1647958 0.86859435 0.77630895 0.9202312
000060 ee ea 71 3f 46 73 84 3f 9d 7b 80 3f f1 6a 93 3f
       0.944991 1.0347679 1.0037724 1.1517011
000070 96 09 4e 3f c3 78 60 3f 2d d2 72 3f 61 26 84 3f
       0.80483377 0.8768427 0.9485195 1.0324212

feature.1.bias f4 [32]
000000 5e 64 24 be 0b 1a 33 be eb cf 57 bd d8 00 00 be
       -0.16053912 -0.17490403 -0.05268852 -0.12500322
000010 ec 97 fe bd 0d b9 80 bd a3 89 18 be 49 4b 03 be
       -0.124313205 -0.06285296 -0.14896254 -0.12821688
000020 2e 9e 95 bd 2c 74 95 bd 42 da 4e bd db a9 1b be
       -0.07305561 -0.07297549 -0.050501116 -0.15201513
000030 c1 72 dd bd 07 ab c4 bd f0 11 ee bd a9 92 34 be
       -0.10812903 -0.096029334 -0.11624515 -0.17634071
000040 5b e0 91 bd ca 00 99 bd 31 8c 29 be 36 78 74 be
       -0.071228705 -0.074708536 -0.16557385 -0.23873982
000050 1b 6c 0e be 31 22 35 be a3 a8 4a be 8d ab aa bd
       -0.13908426 -0.17688824 -0.19790892 -0.08333502
000060 43 67 75 be 71 fd 8c bd ab ba ce bd 9c 41 4c be
       -0.23965172 -0.068842776 -0.10094198 -0.19946903
000070 2e d9 3a be ab e4 15 be 8e c0 bb bd 83 d7 85 bd
       -0.1824691 -0.14638011 -0.09167586 -0.06535246

feature.1.running_mean f4 [32]
000000 92 d1 7c 3e 32 09 bf 3e 03 24 e6 3e c6 95 6e 3e
       0.2468932 0.37311703 0.4494935 0.23299322
000010 6d 0d ff 3e c2 9a 92 3e 95 37 e6 3e d4 17 32 3e
       0.4981493 0.28633696 0.4496428 0.17391902
000020 19 71 b4 3e 3b ff 05 3e ec 63 01 3f 4b 55 b6 3c
       0.35242537 0.13085644 0.50543094 0.022257468
000030 54 1f 2c 3e 05 8c ae 3e d9 90 c9 3e 1f a8 c6 3e
       0.16808826 0.340912 0.39368322 0.3880014
000040 ba bd 0a 3f 3a 12 aa 3e 93 31 ce bd 84 ff a3 3b
       0.5419575 0.3321703 -0.10068049 0.005004825
000050 76 ec bf 3e 90 b2 2b 3c a3 03 07 bf 3d ce 7a 3e
       0.37485093 0.010479584 -0.52739924 0.24492736
000060 c0 47 7e 3d 48 55 f5 3e 92 a9 9c 3e dd 89 f4 3e
       0.062080145 0.47916627 0.30598122 0.4776143
000070 ff 98 dd bd 6d 6c a7 bd 6c 30 de 3d 99 fb 5f 3e
       -0.10820197 -0.081749775 0.108490795 0.2187332

feature.1.running_var f4 [32]
000000 5d 28 ab 3e b3 40 3e 3e 31 55 94 3e 16 46 fd 3e
       0.33429232 0.18579368 0.28971246 0.49467534
000010 f4 55 a3 3e 1e a4 b9 3e 3d 4a b7 3e ef 9d d1 3e
       0.31901515 0.36258024 0.35798827 0.40940806
000020 f1 c7 13 3e 1d 7d 0b 3e 98 d3 bd 3e b0 ed 07 3e
       0.1443174 0.13621946 0.37075496 0.13274264
000030 ff df 56 3e 0f 92 66 3e ee 76 a8 3e b5 86 d8 3e
       0.20983885 0.22516654 0.32903236 0.42290273
000040 a5 9d bb 3e d9 8b 77 3e 81 cd 32 3e 67 af d4 3e
       0.3664371 0.24174441 0.17461206 0.4154007
000050 d9 ad a4 3e c4 84 87 3e 4a e0 ae 3e 1d 20 8d 3e
       0.32163885 0.2646848 0.34155494 0.27563563
000060 20 34 eb 3e 47 62 95 3e 6b 5c c1 3e b9 27 b9 3e
       0.45938206 0.29176542 0.37765822 0.36163118
000070 c5 9f 15 3e 64 4e ea 3e 9c 86 43 3e d3 e3 0e 3e
       0.14611728 0.45762932 0.19094318 0.13954096

feature.4.weight f4 [48, 32, 5, 5]
000000 a9 79 0b bd d5 df 6b 3d 4f 1b ea bc e4 64 09 bc
       -0.03405157 0.05758651 -0.028577475 -0.008385871
000010 48 4a 90 bb a2 e7 9d 3b e7 3a a2 3d c4 e8 4f 3d
       -0.0044033863 0.0048188725 0.07921391 0.050759092
000020 bf 70 18 3d 9f 2c 07 bd 04 b2 3a 3c 40 09 4b 3d
       0.037216898 -0.03300154 0.011394981 0.04956937
000030 01 01 88 3c 96 d8 36 3c af e7 ad 3c 8d 67 1c 3d
       0.016602041 0.011160037 0.02122864 0.03818469
000040 d3 bc e8 bc b2 76 61 3d 89 31 20 3d 34 dd 95 3c
       -0.02841035 0.055044837 0.03910974 0.018293954
000050 de eb 4e 3c 3e 73 d0 bb 98 29 10 bd 7a 65 2b bc
       0.012629477 -0.006361394 -0.035195917 -0.010461206
000060 7d 6b 9c bc 92 d0 55 bc 93 6e 83 bb d3 52 62 bc
       -0.019094223 -0.013050215 -0.004010984 -0.013813692
000070 f9 78 05 3d 3e 67 1d 3d 66 12 ab 3c 08 d2 9d bc
       0.03258607 0.038428538 0.020882796 -0.01926519
000080 c5 22 19 bc f0 ac 03 3d 73 6d 88 bc 32 d2 a9 3c
       -0.009346669 0.032147348 -0.016653752 0.020730112
000090 a2 98 01 3d 77 93 66 3c 97 e8 c0 bc 35 5d 4b bd
       0.031639703 0.014073244 -0.023548407 -0.049649436
0000a0 bf ae 2a 3c 0e f2 3d 3d 29 67 89 bb 11 15 c8 3c
       0.010417639 0.04637342 -0.004193206 0.024424108
0000b0 84 39 6f bc c8 0e a8 3c cb fb 0d 3d 9a 59 28 3d
       -0.014601115 0.02051486 0.034663957 0.041101076
0000c0 00 60 8f bb 95 51 67 ba 11 48 c1 3b 5e ed 0f 3d
       -0.0043754578 -0.00088241074 0.0058984836 0.03513848
0000d0 58 4a 93 3d 16 1c 16 3d af 2a 13 3d 85 5c 5d 3d
       0.07191914 0.03664788 0.035929378 0.05404331
0000e0 8f a2 bd 3c a1 b9 ac bc 24 d5 f2 bc ce c7 37 bd
       0.023148803 -0.021084609 -0.029642649 -0.044868283
0000f0 84 c4 17 3d d5 db 60 bc dc 15 0a bd 10 e3 29 3c
       0.037052646 -0.013724287 -0.033712253 0.010369077
000100 5b cf 2d bc 1a b0 06 3d d5 a6 da 3b 50 08 e3 3b
       -0.010608519 0.032882787 0.00667272 0.006928481
000110 3f 9c b4 bb f9 e1 e2 3c e4 e2 48 3b 97 58 1e 3d
       -0.00551179 0.027695643 0.0030652815 0.038658705
000120 c9 d2 1b 3d cf b5 16 3d 61 6a c7 ba e1 fe 5e bd
       0.038042817 0.03679448 -0.0015214199 -0.05444229
000130 87 2d 37 bc df 36 f6 bc 62 88 9b 39 f6 88 8f 3c
       -0.011180288 -0.030055461 0.00029665517 0.017521363
000140 5f 0c 97 bc ce 50 d8 3b 0a 0e 17 bd 63 7c 45 bb
       -0.018438516 0.0066014295 -0.036878623 -0.0030133955
000150 1d 9d 67 3b e2 d6 63 3c d0 d5 f4 bc 59 12 8d bd
       0.003534145 0.0139062125 -0.02988711 -0.06888265
000160 83 43 52 bb e7 55 38 3d f5 ba 33 3c 84 a9 95 bc
       -0.0032083697 0.045003798 0.010969867 -0.018269308
000170 8a ce 88 3c 3c 47 38 3c 3a 1a 36 3d 08 95 29 bd
       0.016700048 0.011247452 0.044458605 -0.041401893
000180 53 9f 70 3d d5 2a f7 3c 81 80 94 bd 4b 5e 36 3d
       0.058745693 0.030171791 -0.07251073 0.04452352
000190 d8 16 8f bc 09 0a 38 bb db 15 4d 3c b5 1f 26 bc
       -0.017466947 -0.0028082153 0.012517418 -0.0101393955
0001a0 e5 5b fc bc 1b 22 02 bd 99 84 d8 bc c1 97 91 bd
       -0.030805537 -0.031770807 -0.026430415 -0.07109023
0001b0 7a aa 60 bd c9 47 1d 3c 27 1b 26 3d a7 b4 cd bc
       -0.05485008 0.009599634 0.04055324 -0.025110556
0001c0 d2 49 a3 3c 1d b0 ec ba 25 bc 7f bd db 1a 22 bd
       0.019932661 -0.0018057857 -0.062435288 -0.039576393
0001d0 16 35 a4 bc 84 4c 95 3d f2 4b 70 3d 30 77 59 bd
       -0.020044845 0.07289985 0.058666177 -0.05309218
0001e0 b9 e5 92 bc f0 47 c0 3b 1a ce cf 3c 5b e5 36 3d
       -0.017931806 0.0058679506 0.025366832 0.044652324
0001f0 8f a9 22 bc 16 a2 dd bd 2e a6 8e bd 32 66 2c 3d
       -0.009928121 -0.10821931 -0.0696529 0.04208965
000200 43 5b bb 3c bf a7 2b bd c6 66 a0 bd e7 bd c4 bc
       0.022870665 -0.041908022 -0.078321025 -0.024016334
000210 72 17 4a 3c 0a 85 d6 bb 71 a7 a6 3c 20 27 95 3c
       0.012334691 -0.006546621 0.020343514 0.018207133
000220 2a 70 3a 3a 3f 13 d0 3c d5 b0 14 bc 5c 4a ca bc
       0.00071120507 0.025399802 -0.009075363 -0.02469366
000230 cf 47 eb ba b0 80 58 3c ba db 3c 3d 08 0b c6 ba
       -0.0017950478 0.013214275 0.046107985 -0.0015109489
000240 25 ba f0 3c 1a 67 3d bd 03 03 61 3c ae fc 20 bc
       0.029385636 -0.046240903 0.013733628 -0.0098258685
000250 e8 c0 3e bc ff fb 8d 3c fd f1 86 3c 99 d3 2c 3d
       -0.011642672 0.017332075 0.01647281 0.042193983
000260 69 93 3a 3b 05 8c d1 bb 0f 7f 88 bc 73 3c 62 bd
       0.002846921 -0.0063948655 -0.016662149 -0.05523343
000270 bc 3c 78 3d d7 ee 0e bc d8 8c bb bc 0a 8b 69 3c
       0.060604796 -0.008723936 -0.022894308 0.014254341
000280 1b f6 95 bb 8c 69 f1 bc 9e 2d bd 3c 26 d9 af 3c
       -0.004576457 -0.029469274 0.023093041 0.02146585
000290 c6 0a 40 3c 97 b6 20 bd 92 c7 0b bc 77 22 e5 3b
       0.011721319 -0.03923663 -0.008531468 0.006992634
0002a0 33 72 df 3c 4b 0f d4 3b 27 20 d2 bc c4 93 3d 3c
       0.027276134 0.0064715496 -0.025650097 0.011570875
0002b0 5e b6 78 3b 2e 6d ad 3c d5 4d a8 3c ad ee 04 bc
       0.0037950496 0.021170225 0.020544926 -0.008113545
0002c0 cf 79 6c bc 51 54 bf bc 1b 02 fe bc 29 d3 d6 bb
       -0.014433338 -0.023355635 -0.031006863 -0.006555934
0002d0 bf b3 6f 3a d6 04 38 3d c1 e6 81 bd 86 0a 48 bd
       0.0009143911 0.044926487 -0.06342841 -0.04883816
0002e0 6e aa 71 bd b8 ff 7f b9 9c 44 9f bc e1 01 13 bd
       -0.059000425 -0.00024413958 -0.019441895 -0.035890464
0002f0 eb 56 71 bc f6 1f f7 3a 70 13 12 bd dc 66 10 bd
       -0.0147301955 0.001885413 -0.03566307 -0.035254344
000300 29 20 56 bd 15 32 73 bb 0d cd 06 3d 0c 3d 52 bd
       -0.052276764 -0.0037108709 0.032910395 -0.05132775
000310 77 6a 05 ba 85 de 1b 3d a5 3f c4 3c 75 31 bb 3b
       -0.0005089412 0.038054008 0.02395613 0.005712683
000320 cf ce 26 3b 83 b3 16 3d 58 d5 b9 3a a2 2f 26 bd
       0.0025452857 0.03679229 0.0014177961 -0.04057277
000330 a2 02 25 bd 6f 57 c4 3c 8c 1a 15 3d af 2d 79 bd
       -0.040285714 0.023967473 0.03640227 -0.060834583
000340 51 ef fe bb 92 54 23 bd 6c 3b a1 3c f8 40 97 ba
       -0.0077799936 -0.039875574 0.019681655 -0.0011539748
000350 d6 11 80 bc 9f 82 c0 3d b5 18 c0 3c c1 2b 04 3d
       -0.015633505 0.09399914 0.023449281 0.03226829
000360 31 12 84 bc 92 5e cd bc ca fd 52 3d 35 37 97 3c
       -0.016121956 -0.025069509 0.051511563 0.018458942
000370 5f 5b 44 bd 4b 22 d5 bc 10 aa 10 bd a1 57 92 3b
       -0.0479387 -0.026017329 -0.035318434 0.0044660126
000380 74 d0 26 3c 75 e2 32 bc 5a c3 02 3d 5c 7d 3d bc
       0.010181535 -0.010918249 0.031924583 -0.011565533
000390 ec c4 a2 bb 88 c1 ce 3b 2e ee f8 3a 7c 32 6e b7
       -0.0049673226 0.006309692 0.0018991882 -1.419766e-05
0003a0 d4 cb d0 3c 83 3e 36 3c df ce b4 3c 70 28 1f bd
       0.025487818 0.011123302 0.0220713 -0.038856924
0003b0 01 e5 f0 bb 3b 64 de 3b c9 95 29 3b fb 41 7b 3b
       -0.007351518 0.0067868507 0.0025876632 0.0038338888
0003c0 1c 2d 4a 3d 70 e4 9b 3c 1a 6f 65 3c dc 14 0b 3d
       0.049359426 0.019029826 0.014003539 0.03395544
0003d0 07 d8 8e bd 24 d9 87 bc 46 00 9e 3c 95 b2 67 bb
       -0.06974798 -0.016583033 0.01928724 -0.0035354246
0003e0 70 0a 04 3d be 7c 4a 3c 09 6d 19 3b 99 ff 01 bd
       0.032236516 0.012358842 0.0023410937 -0.031737898
0003f0 e1 32 de 3a 39 4e 72 bc fd 6d 82 3a 73 92 70 3c
       0.0016952419 -0.014789158 0.0009950992 0.014683354

feature.4.bias f4 [48]
000000 3d 86 0b bd 0c 64 9d bb c0 83 7a 3b fd a7 00 3d
       -0.034063566 -0.0048031863 0.0038225502 0.031410206
000010 70 a3 7b 3b a6 25 e4 3c 59 7a a4 ba 03 80 05 3d
       0.0038396977 0.027849983 -0.001254867 0.032592785
000020 66 fb c0 bc 80 dc d5 3c e6 f9 ac bc 5f f6 c5 bc
       -0.023557376 0.02610612 -0.021115255 -0.02416533
000030 cb 2e ad bc f0 be fd 3b a6 af 89 bc 04 1e da bc
       -0.021140477 0.007743709 -0.016807389 -0.02662564
000040 d3 29 01 3d 58 56 fb bb 90 a3 1d 3c 1c b2 bc bc
       0.031534027 -0.007670205 0.009621516 -0.023034148
000050 15 ae 10 bd 88 f3 d8 3c e4 f7 72 3c 48 f7 04 bd
       -0.035322268 0.026483312 0.01482961 -0.03246239
000060 b8 2f 50 bc d8 1a 25 3c c3 1c 58 3b 80 47 dc 3c
       -0.01270669 0.010077201 0.0032976128 0.026889563
000070 6b 0c 07 3d 24 d0 b0 bb f8 d1 3a bc b6 96 55 bc
       0.032970827 -0.005395906 -0.0114025995 -0.013036421
000080 70 4e a8 bc 97 15 fe bc fc 86 13 3c 9e 24 a5 bc
       -0.020545214 -0.031016154 0.009004351 -0.020159062
000090 33 b2 b6 ba b8 a4 8e 3b 96 f0 0c bc 8b 82 96 bc
       -0.0013938606 0.004353132 -0.008602282 -0.018372795
0000a0 b7 6a 02 3d 0b 77 00 bd df 3f 01 3d 5d 0b 07 3d
       0.031840052 -0.03136353 0.031555053 0.03296982
0000b0 5f 10 cb bc 06 9d c3 bc b0 49 ea 3b c5 18 94 bc
       -0.02478808 -0.023878586 0.0071498975 -0.018078217

feature.5.weight f4 [48]
000000 ea 84 68 3f ac 05 81 3f 5c 41 7b 3f 5f 91 83 3f
       0.9082781 1.0079856 0.98146605 1.0278739
000010 fe 1b 77 3f 47 8e 7d 3f 7f 5d 82 3f 63 1e 83 3f
       0.9652709 0.99045223 1.0184783 1.0243648
000020 a5 24 81 3f 6f ac 81 3f c1 dd 87 3f 05 3a 85 3f
       1.0089308 1.0130748 1.0614549 1.0408331
000030 7d 9c 82 3f d2 73 82 3f b6 b6 7b 3f 1b 12 75 3f
       1.0204006 1.0191596 0.9832567 0.9573075
000040 3b e4 80 3f 6f cc 7f 3f af fe 80 3f 7b 2c 6b 3f
       1.006965 0.99921316 1.0077723 0.91864747
000050 97 51 6d 3f 9a 33 37 3f 7d b9 85 3f 41 14 81 3f
       0.9270262 0.7156311 1.0447232 1.0084306
000060 52 0c 7e 3f 3a 14 7d 3f 63 c1 66 3f 01 0a 82 3f
       0.9923755 0.9885899 0.90138835 1.0159303
000070 6b 6c 6f 3f 24 fd 81 3f 66 39 70 3f 9e 06 82 3f
       0.9352481 1.0155377 0.93837583 1.015827
000080 34 cd 81 3f 5b 39 80 3f 29 14 7c 3f a2 0f 5d 3f
       1.0140748 1.0017503 0.9846826 0.8635198
000090 0e 25 83 3f fa 52 7e 3f 20 ca 43 3f 68 cf 86 3f
       1.0245683 0.9934536 0.76480293 1.0532045
0000a0 ee 30 7b 3f 2d f5 83 3f f0 c7 84 3f 0a ca 82 3f
       0.98121536 1.0309197 1.0373516 1.0217907
0000b0 84 f3 83 3f 6f 34 81 3f d0 4a 83 3f b0 84 86 3f
       1.030869 1.0094126 1.0257206 1.0509243

feature.5.bias f4 [48]
000000 66 58 92 be 0e e2 d7 bd 96 42 f4 bd 2b 7f 95 bd
       -0.28583068 -0.105411634 -0.11926763 -0.07299646
000010 cb 5b 48 be 19 c3 c7 bd 6d 58 63 bd 5f b5 d8 bd
       -0.19566266 -0.09754009 -0.05550425 -0.10581469
000020 c3 36 a3 bd f6 71 30 bd f8 1a 10 be c1 98 d5 bd
       -0.07969429 -0.04307743 -0.14072788 -0.10429526
000030 53 dd ad bd d9 b2 b7 bd 4e c9 32 be b1 a9 01 be
       -0.0848948 -0.08969659 -0.17459604 -0.12662388
000040 6d 52 ba bd e0 6b 37 bd 51 01 9e bd 7b b1 44 be
       -0.09097753 -0.044780612 -0.07715095 -0.19208328
000050 d9 46 68 be 74 de cd be 62 bc bb bd bb 80 ce bd
       -0.22683276 -0.4020878 -0.091667905 -0.10083147
000060 93 b3 13 be 63 3a 3f be 41 af 63 be 84 38 e8 bd
       -0.14423971 -0.18674617 -0.22234823 -0.113389045
000070 d6 9f f1 bd be 93 d2 bd dd c7 50 be 3e a8 70 bd
       -0.117980644 -0.10282086 -0.20388742 -0.0587542
000080 43 87 7a bd 4c 2b 04 be e6 19 f1 bd 04 49 5d be
       -0.061164152 -0.12907141 -0.11772518 -0.21609885
000090 9f fd 1c be fe 09 74 bd 3f 89 d9 be 65 4f 78 bd
       -0.15331124 -0.05957984 -0.42487523 -0.06062259
0000a0 18 26 97 bd ba 28 ce bd 66 95 fe bd 50 8a f1 bd
       -0.07380313 -0.10066362 -0.12430839 -0.11793959
0000b0 7d 34 e7 bd 11 9c 00 be c4 9b d7 bd 76 9c 8f bd
       -0.11289308 -0.12559535 -0.10527757 -0.070122644

feature.5.running_mean f4 [48]
000000 b5 9b 84 be 87 80 1a be 48 6a 9d be 42 c2 82 bf
       -0.25900045 -0.15088092 -0.3074515 -1.0215533
000010 71 33 f5 be a6 14 5a be d3 2d 9a be f4 54 7b be
       -0.4789081 -0.21296939 -0.30113086 -0.24544126
000020 9e 9d 6d bf c7 12 4d bf ed 83 46 be 22 db 4b bf
       -0.9281863 -0.80106777 -0.19386263 -0.79631245
000030 a2 9f 67 be 6b 41 1b be d6 86 d9 be a8 24 aa be
       -0.22619489 -0.15161674 -0.42485684 -0.33231091
000040 03 36 76 be 55 fe a1 be d6 63 8d bf 28 43 93 be
       -0.24044041 -0.31639352 -1.1046093 -0.28762174
000050 9a 68 55 be 27 e2 09 bf 6c 6a 09 be ca 44 9f be
       -0.20840684 -0.53860706 -0.13419503 -0.3110717
000060 14 dd 48 be a5 f8 26 bf 38 f4 0b bf 30 51 fb be
       -0.19615585 -0.6522315 -0.54669523 -0.4908538
000070 49 bb 01 be b9 25 c5 bd 40 78 75 be 0a ef 1a bf
       -0.126691 -0.09626336 -0.23971653 -0.60520995
000080 a4 b1 f6 be b6 38 fd be 31 66 58 be d0 32 bd be
       -0.48182404 -0.4945733 -0.21132733 -0.3695283
000090 06 4c af bd a4 32 1d bf 34 f1 e2 be 88 c7 69 bf
       -0.08559422 -0.61405396 -0.44324648 -0.91320086
0000a0 64 8e 0f bf c3 53 16 bf 18 27 a7 be 3b 90 e2 be
       -0.56076646 -0.5872156 -0.32647014 -0.44250664
0000b0 33 83 6a be a8 53 18 bf fd ef 12 bf 14 ec 58 bf
       -0.22901611 -0.5950265 -0.57397443 -0.84735227

feature.5.running_var f4 [48]
000000 0a 6a e3 3e 9f 2d f5 3e 96 c7 d9 3e ae b5 36 3f
       0.4441684 0.4788637 0.42535084 0.7137097
000010 57 fe df 3e cd fc cc 3e fc 96 b7 3e c7 79 0e 3f
       0.43748733 0.40036622 0.3585738 0.5565457
000020 21 9e 26 3f 33 f6 0c 3f 61 e4 01 3f 07 14 10 3f
       0.65085036 0.5506317 0.50739104 0.5628056
000030 07 b3 d4 3e d7 f0 e9 3e 3e 92 ff 3e 41 a9 e0 3e
       0.41542837 0.4569156 0.4991626 0.4387913
000040 43 34 fd 3e 17 d0 ef 3e 7f 8a 13 3f 1a ff ae 3e
       0.49453935 0.46838447 0.57633203 0.34179002
000050 40 03 dc 3e 39 d3 13 3f 23 60 0e 3f 51 f3 f5 3e
       0.4297123 0.57744175 0.55615443 0.48037198
000060 c7 7b e7 3e 7c ac f3 3e b3 f5 e4 3e 53 0a 12 3f
       0.45211622 0.47592533 0.44718704 0.57047004
000070 6f b7 d6 3e b7 3f ff 3e 5d f4 e3 3e ad 23 13 3f
       0.41936824 0.49853298 0.44522372 0.5747631
000080 45 6a c8 3e e9 38 d7 3e 7e 6e 01 3f 76 bf dd 3e
       0.39143577 0.42035607 0.5055922 0.43310136
000090 21 74 04 3f 77 99 4a 3f 41 12 af 3e a5 6d 0c 3f
       0.517397 0.7914042 0.34193614 0.54854804
0000a0 33 c6 15 3f 38 99 10 3f f2 7c f6 3e 02 78 0b 3f
       0.58505553 0.56483793 0.481422 0.5447999
0000b0 a7 bb ff 3e 62 ef c5 3e 08 b0 f7 3e c3 9a 1d 3f
       0.49947855 0.38659197 0.4837649 0.6156427

classifier.0.weight f4 [100, 768]
000000 df 11 09 3c d5 d2 19 bd ad 89 ca bc d5 36 bc 3b
       0.008366077 -0.03755458 -0.024723852 0.005743841
000010 83 75 fd 3b 5c 12 22 bc 0e 36 3c 3d dc 08 1c 3c
       0.0077349558 -0.0098920725 0.045949988 0.009523597
000020 d4 82 82 3c 31 3f ba bb c7 29 05 3c 4d b8 05 bc
       0.015931524 -0.0056838025 0.008127636 -0.0081616165
000030 a4 df 2e 3d 35 7f 0d bd fa 29 e8 bc f8 aa 80 bc
       0.04269375 -0.034545142 -0.028340328 -0.015706524
000040 22 8b d5 3c d7 36 97 bc 02 90 62 ba de 71 2f 3c
       0.02606732 -0.018458767 -0.00086426747 0.0107083
000050 29 3e d1 bc c1 1d 97 bb 25 02 71 bc a5 9b 70 3c
       -0.025542336 -0.0046117012 -0.014709984 0.014685546
000060 39 19 b0 3c 13 19 b9 bb 0b 69 cc bc 7a 6a 03 bc
       0.021496402 -0.005648741 -0.024952432 -0.008020991
000070 c0 46 52 ba fe 5d 09 3d 1a ba 6c bc d1 61 0f bd
       -0.0008021407 0.033536904 -0.014448667 -0.035005394
000080 26 0f 4c 3d a1 87 4a 3c c8 46 1e 3c 78 7d 98 3b
       0.049819134 0.012361438 0.00966043 0.004653629
000090 9f 15 b3 bb 8f 0c 5d 3d 15 f5 8f 3b 96 cd 0a 3c
       -0.005465224 0.053967055 0.0043932297 0.008471867
0000a0 d3 06 cc bb 4f 92 db bc 29 d8 08 bd b5 4a 8f bc
       -0.0062263994 -0.026803164 -0.03340927 -0.017491678
0000b0 7f 46 59 3d 56 29 a7 bc fc 8b 9a 3c 00 b0 8a bb
       0.053045746 -0.020405453 0.018865578 -0.0042324066
0000c0 a7 49 d1 3b 20 43 61 bc cf 6b a8 bc 7f c0 1d bc
       0.006386954 -0.013748914 -0.02055922 -0.009628414
0000d0 df 3a 1a 3b e0 a9 2b bd 72 7b 93 bb 46 ed e5 3c
       0.0023533625 -0.041910052 -0.0045008 0.028067242
0000e0 f1 03 5b 3c 1c 09 40 3b 53 92 c9 3c 3a 00 0f 3c
       0.013367639 0.0029302305 0.024605906 0.008728081
0000f0 c6 90 8b bc d2 76 89 bc 32 01 9c 3c f3 12 be 3b
       -0.017036807 -0.01678029 0.019043539 0.0058005988
000100 a4 91 01 3d 4e 23 27 bc 6c d2 77 bc 8b 1d 59 3d
       0.031633034 -0.010201288 -0.015125852 0.05300669
000110 16 14 a3 bc 7c ed db 3b 74 39 41 ba db 08 84 3c
       -0.019907039 0.00671166 -0.0007370927 0.016117504
000120 67 d9 d2 bc 3a 06 7e 3c f4 cb 7d bb 43 38 4f 3d
       -0.025738431 0.015504414 -0.0038726302 0.050590765
000130 06 88 69 bd dc 72 50 3d 05 fe 8c bc 8a 60 2d bb
       -0.057014488 0.05089079 -0.01721097 -0.0026455247
000140 4f a6 43 3d 4f 03 d1 3b 33 5f e6 ba d0 dc 52 3d
       0.047766026 0.0063785682 -0.0017575979 0.051480114
000150 42 6f ae 3c 9b b3 13 bd d7 6e 89 3c 04 a8 12 bd
       0.021293286 -0.036059957 0.016776485 -0.035804763
000160 69 d6 19 bc b7 52 74 3d 0b c1 6d bd 2e 66 d8 bb
       -0.009389498 0.059649196 -0.05804543 -0.0066039776
000170 b3 aa b7 3c 14 71 49 bc 09 36 b7 3c b9 dc 79 bc
       0.022420263 -0.012295026 0.022364633 -0.015250378
000180 f9 91 ff 3c cb 1c 2f bd b0 d2 2d bc a6 c3 80 bd
       0.031197535 -0.04275207 -0.010609314 -0.06287317
000190 5a c3 23 ba 82 30 99 bc 71 95 46 bd e1 78 be 3b
       -0.0006247066 -0.018699888 -0.048482362 0.0058127497
0001a0 6f 8d 96 3b 90 e7 f8 bc 8a ab c2 3c c3 c4 8f 3c
       0.004594497 -0.030383855 0.023763437 0.017549878
0001b0 74 52 9c 3c 93 be 1a 3d a4 bc 93 ba 2c 04 e1 3b
       0.019082285 0.037779402 -0.0011271429 0.0068669524
0001c0 99 d8 2e bc 7e d6 aa 3c 27 2d b3 3c 1b 9c ae 3c
       -0.010671758 0.020854231 0.021872116 0.021314671
0001d0 55 91 5d 3d 51 54 a2 bc 91 4f dc bc 9c 58 ba 3c
       0.054093678 -0.019815596 -0.026893409 0.02274733
0001e0 ef 39 84 3c 5e 2a 76 38 53 d5 03 bd b7 53 8b 3d
       0.016140906 5.8690428e-05 -0.032185864 0.06803077
0001f0 ff 62 9f bc b3 b7 99 bb fb 9a 48 3c 03 a5 15 3d
       -0.019456385 -0.004691088 0.0122439815 0.03653432
000200 f9 85 01 3d ac 91 0e 3c 6d fb 90 3c 3f 53 b7 3b
       0.031621907 0.008701723 0.017698014 0.0055946405
000210 5f ab 26 3c 58 a5 68 3c e7 f4 ca ba 0b 48 8d bd
       0.010172694 0.014199577 -0.0015484364 -0.06898507
000220 d8 74 5e bc 3c a5 85 3c 88 2b 70 3c ed 92 17 bd
       -0.013577662 0.016314141 0.014658816 -0.037005354
000230 32 eb 1f bd da 63 3a 3d 58 20 86 3c 7d 03 4a 3d
       -0.03904266 0.045505382 0.016372845 0.049319733
000240 8b 40 fe 3b 47 d5 20 3c 01 bc 38 3d 69 17 36 3c
       0.007759159 0.009816474 0.04510117 0.01111398
000250 ab 2a e3 bc ab 56 f6 bc 8b ee 88 bb 74 49 3e bd
       -0.027730307 -0.030070623 -0.004178827 -0.04645677
000260 82 d0 90 bd fd a0 27 bc a0 44 40 bc cc 1a 22 3d
       -0.0707102 -0.010231254 -0.0117351115 0.039576337
000270 f3 00 68 3c 17 81 48 3c fe 28 bc 3b 77 d1 3e 3b
       0.014160383 0.012237809 0.0057421913 0.002911655
000280 e4 16 24 bd cd 7e 98 39 4b eb c3 3b 1f 39 2d 3c
       -0.040060893 0.00029086173 0.005978977 0.010572701
000290 a5 f2 e5 bc 34 4d cb bc 11 08 1f 3d 7d b8 91 bc
       -0.028069803 -0.024817087 0.038826052 -0.017788166
0002a0 a4 71 92 3c 93 9f f9 bc c3 45 0b 3d 8b 55 55 3d
       0.017876454 -0.030471599 0.034002077 0.052083533
0002b0 c9 2c f5 3b dc a0 75 bd eb fb 62 3c 79 ed 0f 3b
       0.0074821454 -0.05996786 0.013854007 0.0021961613
0002c0 a3 dc 28 3c f3 e0 58 bc 77 bf be 3a 4e 35 d5 bc
       0.01030651 -0.013237226 0.001455291 -0.026026394
0002d0 29 00 9b 3b be 10 93 bc de f9 0c 3c 76 ae 06 3d
       0.0047302437 -0.01795232 0.008604495 0.032881223
0002e0 80 c9 78 3c 65 92 0a 3d db 09 ab 3c ea be af bc
       0.01518476 0.03383102 0.020878723 -0.02145334
0002f0 c6 bb d6 bc 54 b1 ea bb 14 42 7d bc 3f fe ac bc
       -0.026212584 -0.0071622524 -0.015457649 -0.021117328
000300 83 9f 4f bc 7b d0 56 bc 06 a5 3f bd 53 25 2d bd
       -0.012672308 -0.013111229 -0.046788238 -0.042271923
000310 c8 2e 1a 3b 92 d0 ad 3c 8b 2a b5 3c d9 de db 3c
       0.002352642 0.021217618 0.022115013 0.02683966
000320 de c7 32 bd cc 8b 85 3b ad b4 47 3d 50 2a d4 bc
       -0.04364764 0.004075503 0.04875629 -0.025899082
000330 4c 94 06 3b 72 ed 1d bd 92 22 e3 bc 55 19 5c 3c
       0.002053517 -0.038556524 -0.027726445 0.013433774
000340 03 38 15 bc f4 05 5e bd 29 2a ce bc e2 dc 86 bc
       -0.0091075925 -0.054204896 -0.025166588 -0.016462747
000350 55 c6 fc bb 9c 23 12 3d 5a 14 08 3c 05 b5 76 bb
       -0.0077140727 0.03567849 0.008305633 -0.0037644517
000360 7c 17 b6 3b 69 59 08 3c 8d 22 a3 3c 08 ae 5a 3d
       0.005556999 0.008322098 0.019913936 0.053388625
000370 82 33 3b bb 75 2d 42 3d 7d 08 b2 bc 4a 95 9e bb
       -0.0028564637 0.047406632 -0.021732563 -0.004839574
000380 07 5c 24 3d 1e 7c 8d bc 6b 83 34 3c a6 85 46 bd
       0.040126827 -0.017271098 0.011017661 -0.0484673
000390 7c f3 45 3c 89 45 60 bc ff 4c fc 3b 07 8f 15 bd
       0.012081977 -0.0136884535 0.0076996083 -0.036513355
0003a0 7e b8 f6 bc fd 00 37 bd 7b fe 9d 3c 12 92 90 bc
       -0.03011727 -0.044678677 0.019286385 -0.017647777
0003b0 dd 6e 23 3c c5 08 8b 3c 61 9b a0 3c ef 9e b0 bc
       0.009975162 0.016971955 0.01960534 -0.02156016
0003c0 3c 2a 00 3c 61 f4 ca 3b d6 ca 54 3c 40 5c 52 bc
       0.007822569 0.006193683 0.012987813 -0.012839377
0003d0 fc 06 b4 3c a0 7a 68 bc 7b a6 0d bd d9 69 55 bc
       0.021975987 -0.014189392 -0.034582596 -0.013025724
0003e0 05 8c 50 3c 19 b4 d4 bc 18 dc 48 bd 36 9a 2b 3d
       0.012728696 -0.025964784 -0.049038023 0.041895114
0003f0 4e 51 87 3b 78 8d 92 bc 4e 7b 0d bd c4 b6 f0 bc
       0.0041295653 -0.017889723 -0.03454142 -0.029384024

classifier.0.bias f4 [100]
000000 30 d6 dd 3c 24 76 a8 bc 42 74 2e bc b0 ba 81 3b
       0.027079672 -0.020564146 -0.010647835 0.0039590225
000010 79 98 86 bc 28 2c dd bc f8 25 89 bb 74 7b 2d 3c
       -0.016430127 -0.026998594 -0.0041854344 0.010588516
000020 0a a9 1d bc 00 70 2d 3c 16 42 05 bd 44 5d 91 3c
       -0.009622822 0.010585785 -0.032533728 0.017744668
000030 c0 57 e3 3c 26 51 12 bd c0 ea 07 bc 81 2b dc bc
       0.027751803 -0.03572192 -0.008295715 -0.026876213
000040 e4 96 f8 3c a0 d1 25 3b f6 05 87 bc e0 d4 c6 bc
       0.030345388 0.0025301948 -0.016482335 -0.024271429
000050 a2 4d 42 bc ec 7c 0f 3d 34 61 df 3c 36 6f 13 3d
       -0.011859329 0.035031244 0.02726803 0.03599473
000060 f0 f8 84 bb 74 6e c2 bb 12 55 a4 3c 80 5a b8 3a
       -0.004057996 -0.005933577 0.020060096 0.0014065057
000070 01 2d af bc 20 6f 41 3b 24 6d b4 bb 30 a1 e1 bc
       -0.021383764 0.0029515699 -0.0055061746 -0.02754268
000080 e6 f9 49 bc 0f 7c 00 bd d3 d1 f4 bc e2 91 5a bc
       -0.012327647 -0.03136831 -0.029885208 -0.013340445
000090 e6 4c 0a bd 67 7c b2 bc 35 60 08 bd da 79 87 3c
       -0.033764742 -0.021787835 -0.033294875 0.016537596
0000a0 d2 5f 7a bc ae de 80 3c 62 7e b6 bc 6c 60 85 bc
       -0.015281634 0.015731182 -0.02227706 -0.01628133
0000b0 6c 94 72 3c 32 15 2a bc 27 35 0c bd dd 2d d8 bc
       0.014805894 -0.01038103 -0.034230378 -0.026389057
0000c0 2c 89 a5 3c f4 9a 39 bc 60 21 67 bb 30 79 8a bb
       0.02020701 -0.011328448 -0.0035267696 -0.0042258725
0000d0 50 20 03 bb 94 a7 f1 bb 9a ed 6a bc cc e6 cc bc
       -0.0020008273 -0.007374713 -0.014338875 -0.025012396
0000e0 86 14 9c 3c 30 1b 4c 3c 24 74 06 bc a0 7e 61 bb
       0.019052755 0.012457654 -0.008206401 -0.003440775
0000f0 d8 7a f3 bc ec 0a 05 3d 88 cb 92 3c 54 9c b7 bb
       -0.029721662 0.03248112 0.017919317 -0.0056033526
000100 78 a1 c3 3b 03 78 20 b9 6c f7 00 bd 90 22 f8 3c
       0.0059701763 -0.00015303497 -0.03148596 0.030289918
000110 54 b6 de bc ac bb 90 3c 3c d4 04 bc 80 e5 c4 bc
       -0.02718655 0.017667614 -0.008107241 -0.024035215
000120 a8 cb f0 3c df 3d 85 bc 36 24 a6 3c da 30 8e bc
       0.029393986 -0.016264854 0.020280939 -0.017357279
000130 91 09 f6 bc dc cb 66 bc 26 0e 08 bc c0 18 ad bc
       -0.030033858 -0.01408669 -0.0083041545 -0.021129966
000140 46 48 0b 3d e4 b4 7e 3c 6c 22 c3 3c 7c e4 ba bc
       0.034004472 0.015546057 0.023820125 -0.022814028
000150 08 f2 49 bc 6e 82 6c bc 00 a1 13 3d 40 9b d3 3c
       -0.012325771 -0.014435394 0.036042213 0.025830865
000160 46 56 28 bc 18 d3 c0 bb 68 5d 4e bc 8c bb 90 3c
       -0.010274475 -0.0058845393 -0.012595512 0.017667554
000170 44 10 8b bc c0 86 42 bb 78 e0 ff bb a2 d6 a6 bc
       -0.01697553 -0.0029682368 -0.007808741 -0.020366017
000180 40 83 f5 3c 50 a4 08 bd e8 da a5 bc a2 90 11 3d
       0.029969811 -0.033359826 -0.020245984 0.035538323

classifier.1.weight f4 [100]
000000 2c 45 7c 3f ae 51 7a 3f 46 47 81 3f 54 98 81 3f
       0.9854305 0.97780883 1.0099876 1.0124612
000010 d1 6f 86 3f 8f 40 78 3f c6 82 80 3f 0a c0 7b 3f
       1.0502874 0.9697351 1.0039909 0.98339903
000020 54 b1 85 3f df 25 80 3f 55 f8 80 3f 4b 12 81 3f
       1.0444741 1.0011557 1.0075785 1.0083708
000030 4b e8 82 3f 00 81 83 3f ed c0 7d 3f 61 1b 82 3f
       1.022714 1.0273743 0.99122506 1.0164605
000040 12 cd 82 3f 78 d3 83 3f d0 43 82 3f 61 99 7e 3f
       1.0218832 1.029891 1.0176945 0.9945279
000050 0a 4c 83 3f a9 c6 7f 3f d5 bd 80 3f 0c 76 7d 3f
       1.025758 0.99912506 1.0057932 0.9900825
000060 71 34 76 3f 57 2a 82 3f 05 f1 7c 3f b4 90 7f 3f
       0.9617377 1.0169171 0.98805267 0.99830174
000070 77 e6 7f 3f 80 68 7d 3f 97 38 82 3f 97 ef 82 3f
       0.99961036 0.9898758 1.017352 1.0229367
000080 d0 d4 81 3f 23 17 81 3f 48 6b 7c 3f 23 12 82 3f
       1.014307 1.0085186 0.986012 1.0161785
000090 ed a3 76 3f 42 71 77 3f 19 78 7d 3f a3 3d 83 3f
       0.9634388 0.9665719 0.9901138 1.0253185
0000a0 e9 7a 81 3f 85 11 80 3f 3c 8a 7a 3f bb ab 7a 3f
       1.0115634 1.0005347 0.9786718 0.9791829
0000b0 4f 6f 80 3f f2 55 7d 3f e8 75 7b 3f a5 ce 7b 3f
       1.0033969 0.9895927 0.98226786 0.9836219
0000c0 bf 08 77 3f 3b 89 7c 3f f2 a1 7e 3f 74 cb 84 3f
       0.9649772 0.986469 0.9946586 1.0374589
0000d0 ab 79 7d 3f 07 d3 84 3f 82 49 7f 3f 15 d4 7e 3f
       0.99013776 1.03769 0.9972154 0.9954236
0000e0 9c 2d 80 3f 7c 7a 7a 3f 75 7a 77 3f 39 4a 82 3f
       1.0013919 0.97843146 0.9667123 1.0178901
0000f0 2d 7f 7d 3f 3f 79 7d 3f 09 1f 85 3f ed 14 7b 3f
       0.9902218 0.9901313 1.0400096 0.98078805
000100 03 0d 78 3f d2 12 7a 3f 78 e0 7b 3f 8b b6 81 3f
       0.96894854 0.9768497 0.9838939 1.0133833
000110 80 ab 81 3f 40 ab 81 3f 37 25 7c 3f 2b ef 78 3f
       1.0130463 1.0130386 0.98494285 0.9723994
000120 28 80 80 3f e5 ca 78 3f 68 37 82 3f 2b 15 7f 3f
       1.003911 0.9718459 1.0173159 0.99641675
000130 e2 fc 7a 3f 5c 7f 83 3f 90 fa 82 3f 74 5b 76 3f
       0.9804212 1.0273242 1.0232716 0.96233296
000140 e6 cb 7b 3f df fb 76 3f 79 0b 82 3f 4d 0c 79 3f
       0.98358 0.96478075 1.0159751 0.97284395
000150 af b4 84 3f 80 81 76 3f ce 8f 7d 3f 4b 54 81 3f
       1.036764 0.9629135 0.99047554 1.0103849
000160 e1 f8 79 3f fe e7 7f 3f da a0 7e 3f e5 ec 8b 3f
       0.97645384 0.99963367 0.9946419 1.093167
000170 cf ad 7b 3f 34 4f 72 3f f5 ac 7f 3f 1f 3b 7d 3f
       0.98312086 0.94652104 0.99873286 0.98918337
000180 42 d7 7f 3f a6 ef 80 3f 61 d2 7d 3f 57 c4 7b 3f
       0.9993783 1.0073135 0.9914914 0.98346466

classifier.1.bias f4 [100]
000000 10 92 89 bc b6 36 f2 bc 08 f2 29 ba fb cd dd bc
       -0.01679328 -0.029567104 -0.0006482904 -0.027075758
000010 2f 2f ea bc 8f 9f fd bc c7 61 16 bd 7c 00 01 bd
       -0.028586952 -0.030959873 -0.03671434 -0.031494603
000020 3f 4b 42 bd 22 62 8a bd 1e 9c 05 bd 23 6c 6b bd
       -0.04743504 -0.067569986 -0.032619588 -0.057476174
000030 ac dc 47 bd 4a 0c 5b bd 54 eb 39 bd 50 f9 48 bd
       -0.048794433 -0.053478517 -0.045390442 -0.049065888
000040 21 a9 8b bd 47 dd 04 bd 9e db 23 bd d4 63 00 bd
       -0.06819368 -0.03243759 -0.040004365 -0.031345204
000050 cd 45 e1 bc 89 7f 74 bd b7 93 ad bd 41 f7 14 bd
       -0.027499104 -0.05969194 -0.0847544 -0.036368612
000060 5b c4 69 bc c1 18 88 bc 8d 55 40 bd 48 65 22 bd
       -0.014268006 -0.016613366 -0.046956588 -0.03964737
000070 7c 33 d8 bc 2b b5 3e bd be 4d 27 bd 76 84 c7 bd
       -0.026391737 -0.046559494 -0.040845625 -0.09742062
000080 56 9d 55 bb af 89 21 bd 53 e6 89 bd bc 17 da bc
       -0.0032595 -0.039437946 -0.06733384 -0.026622646
000090 db 3c 4d bd bf 8a b0 bb 0a 93 4b bc 6a 3e 0b bd
       -0.050106864 -0.0053876336 -0.012425194 -0.03399507
0000a0 21 23 38 bc 60 04 07 be 1f 36 dc bc f8 14 f1 bd
       -0.011238844 -0.13185263 -0.026881276 -0.117715776
0000b0 ad 90 20 bd f2 84 12 bd 6b 15 8c bc ce df 0a bd
       -0.039200474 -0.035771318 -0.017100057 -0.033904843
0000c0 73 87 03 bd 36 5f f6 bc ce c7 9b bd 2d e4 07 bd
       -0.032111596 -0.030074697 -0.07606469 -0.03317659
0000d0 d9 54 ee bc bd ad af bd 46 f3 c8 bd f0 b7 42 bd
       -0.029093193 -0.0857806 -0.09812026 -0.047538698
0000e0 ed 9d af bd 94 ff 07 bd 7c 6c 86 bd c4 d1 83 bd
       -0.08575044 -0.033202723 -0.065636605 -0.06436494
0000f0 f3 28 5d bd c0 08 4a bd 83 0f 10 bd e2 e1 ec bc
       -0.05399413 -0.04932475 -0.035171043 -0.028916303
000100 df a4 87 bd 61 a4 88 bc b2 70 f3 bc fc 13 83 bd
       -0.066232435 -0.016679944 -0.029716823 -0.06400296
000110 83 64 b2 bc 15 c3 c5 bd 44 83 89 bd 00 0e 8b bd
       -0.021776443 -0.096563496 -0.0671449 -0.0678978
000120 2b 69 24 bd 19 f7 0b bd 63 a3 1e bd e9 02 a9 3b
       -0.04013936 -0.034171198 -0.038730036 0.0051578176
000130 32 d7 0a bd e7 52 83 bd a4 1e 30 bd ab 50 84 bd
       -0.033896632 -0.06412297 -0.04299797 -0.06460699
000140 23 73 20 bd ab 90 b1 bd 37 25 2a bc 68 4d 03 bd
       -0.039172303 -0.08670171 -0.010384849 -0.032056242
000150 a7 7e 69 bc 17 77 80 bd ab e6 80 bd aa 90 b6 bd
       -0.014251388 -0.062727146 -0.062939964 -0.08914311
000160 85 ee cf bc c4 7b 87 bd 97 a0 5a bc ea 36 a6 bd
       -0.02538229 -0.06615403 -0.013343952 -0.08115943
000170 be d5 13 3b db e9 3b bd 15 61 91 bc 0d 65 22 bd
       0.002255782 -0.04587732 -0.017746488 -0.03964715
000180 85 4c 2e bd 39 2a 9b bd c5 9a 6b bd 8c db f3 bc
       -0.042553443 -0.07576413 -0.057520647 -0.029767774

classifier.1.running_mean f4 [100]
000000 cc a9 a0 be 09 fc 57 be fa 35 c2 be 97 d3 91 bf
       -0.31379545 -0.21092238 -0.37931806 -1.1392697
000010 0c 74 48 bf ed 7c 99 bf 43 8e 92 bf 3f bc 2c bf
       -0.78302073 -1.1991249 -1.1449665 -0.6747474
000020 14 f2 64 be 48 f6 18 bf 73 59 80 bf e5 eb 28 3e
       -0.2235797 -0.59750795 -1.0027298 0.16496237
000030 d4 01 9d bf a1 2f 20 bf fe 60 53 bf 38 0a b9 be
       -1.2266183 -0.62572676 -0.82569873 -0.3614061
000040 b3 a0 f5 be c7 77 61 be 7d 11 db be 71 ff 92 be
       -0.47974166 -0.22018348 -0.4278678 -0.2871051
000050 51 2f 84 bf e1 df 87 be b7 bb de bf c8 1a 52 bf
       -1.032694 -0.26537994 -1.7401036 -0.82072115
000060 8b a2 13 bf 64 fb 8a bf 2f ec 81 bf 09 e7 44 bf
       -0.57669896 -1.0857968 -1.0150203 -0.7691503
000070 f2 74 3e bf 6f 15 5f bf f6 d4 da be 10 89 5d bf
       -0.74397194 -0.8714208 -0.427406 -0.86537266
000080 a3 68 25 3f 58 bc 86 bf fd 09 93 bf 8e e9 0d bf
       0.6461279 -1.0526228 -1.1487423 -0.554345
000090 97 7c 6e bf 7e 8c 36 bf d8 5b 8c bf 83 1b 92 bf
       -0.9315886 -0.71308124 -1.0965528 -1.1414646
0000a0 3e 10 48 bf a0 6c 90 bd 88 98 6a bf 1b b3 09 bf
       -0.78149784 -0.070519686 -0.91638994 -0.5378892
0000b0 47 a6 e4 bf 54 e9 e9 bf 47 b8 6b be 7c 53 f3 be
       -1.7863244 -1.8274331 -0.23019515 -0.4752463
0000c0 af 30 a1 3e 68 61 8c bf 5a 4f cb be 9b 1d 0b be
       0.31482455 -1.0967226 -0.39708978 -0.13585512
0000d0 63 c4 c9 bf 14 da a3 bf 18 a1 2b bf 0d b3 31 be
       -1.5763057 -1.2800927 -0.67042685 -0.17353459
0000e0 9f 64 b7 bf cb d6 4f bf 10 9b 28 bf fc 49 ba bf
       -1.4327582 -0.81187123 -0.65861607 -1.4553828
0000f0 f5 16 52 bf 69 7e e2 bf b0 05 1a bf 66 6e 36 bf
       -0.8206628 -1.7694827 -0.6016493 -0.71262205
000100 dd ca f3 bd 43 24 84 bf ba 2b d6 bf 96 f3 4a be
       -0.119039275 -1.0323566 -1.6732094 -0.19819483
000110 c7 a6 2f bf 33 d3 69 be 37 6d cf be 16 7e 2e bf
       -0.6861386 -0.22834472 -0.40513012 -0.6816114
000120 ae 99 65 be fc 7a 2a bf eb 07 ac be 5f 65 87 bf
       -0.22421905 -0.6659391 -0.3359979 -1.0577811
000130 c0 3c 48 bf 82 e2 04 bd 12 f3 ad be 40 f2 c4 bf
       -0.782177 -0.032442577 -0.3397451 -1.5386429
000140 a6 0d e8 bd 15 6b 42 bf e8 89 f2 be 2a 29 dc bf
       -0.11330728 -0.75944644 -0.4737084 -1.7200062
000150 71 28 46 bf ee 5c c7 be 5c 13 bd bf ae 57 4f bf
       -0.7740546 -0.38938087 -1.4771533 -0.80993164
000160 44 b6 a5 bf 0c 1a ec be 51 0f 93 bf bd 6c 8c bf
       -1.2946248 -0.46113622 -1.1489049 -1.0970684
000170 ac 61 d2 be 65 2b 57 bd 3d 4e fd be 52 9c b3 bf
       -0.41090143 -0.05253162 -0.49473754 -1.403208
000180 7d 5e 6e bf 73 bb 70 bf 52 bc 0b bf 81 21 5a bf
       -0.9311293 -0.94036025 -0.5458423 -0.8520737

classifier.1.running_var f4 [100]
000000 65 49 92 3f 67 56 cc 3f 57 26 eb 3f 8f 7b 25 40
       1.1428648 1.5963868 1.8371075 2.5856664
000010 4a 17 ec 3f 46 1a da 3f d8 6f 14 40 98 ac 06 40
       1.8444607 1.7039268 2.3193264 2.1042843
000020 a9 76 1d 40 1a 85 f4 3f bc 2b f7 3f ef 2b df 3f
       2.4603674 1.9103119 1.9310222 1.7435282
000030 64 eb fb 3f fd 88 0c 40 b4 b9 bd 3f 9b cf ee 3f
       1.968121 2.195861 1.4822297 1.8657106
000040 0f 7f ed 3f ba ea ed 3f 45 4e 0b 40 d3 7d f0 3f
       1.85544 1.8587258 2.1766522 1.8788399
000050 3c 41 16 40 b9 5d 33 40 cb d1 11 40 9c cf d7 3f
       2.3477316 2.8025954 2.2784297 1.6860232
000060 8d ee aa 3f 43 38 09 40 ae 28 db 3f 0b bb 27 40
       1.335405 2.144059 1.712179 2.6207912
000070 62 ec da 3f e3 af c8 3f 69 4c 2f 40 9b fc 12 40
       1.7103388 1.5678676 2.7390387 2.2966678
000080 e5 74 0d 40 19 66 c9 3f d5 05 0e 40 82 6d f3 3f
       2.2102597 1.5734283 2.219106 1.9017794
000090 96 c3 c8 3f e5 86 01 40 47 4d 17 40 87 a9 1d 40
       1.5684688 2.0238583 2.3640916 2.4634721
0000a0 9b b4 06 40 ad 05 e0 3f 90 2b 01 40 e6 4d c2 3f
       2.1047733 1.7501732 2.0182838 1.5180023
0000b0 c8 73 19 40 03 f8 27 40 94 f8 e4 3f 64 e5 e9 3f
       2.3976917 2.6245124 1.788836 1.827313
0000c0 7c cc 9a 3f ef 7b b4 3f c2 08 c3 3f 6f 1f 03 40
       1.2093654 1.4100322 1.5237048 2.0487936
0000d0 63 b8 e1 3f 86 4b 46 40 0d f7 e9 3f e2 09 0c 40
       1.7634395 3.0983596 1.8278519 2.1881032
0000e0 2f 4b 1f 40 f5 66 ec 3f 5f 1f e1 3f c0 39 1f 40
       2.4889638 1.846892 1.7587699 2.4878998
0000f0 8a 27 c0 3f 94 67 f9 3f ab 0f fa 3f a5 fa dc 3f
       1.5012066 1.9484735 1.9536031 1.7263991
000100 3a dc 95 3f 12 58 e6 3f 78 3c 06 40 9c 47 04 40
       1.1707833 1.7995627 2.0974407 2.0668707
000110 c2 41 01 40 e6 c8 48 40 75 b6 a4 3f 8b 76 8f 3f
       2.0196385 3.1372619 1.2868181 1.1208051
000120 c8 4e e1 3f 47 2c e9 3f 47 f8 12 40 46 36 cf 3f
       1.7602167 1.8216637 2.2964036 1.6188438
000130 27 72 df 3f 21 a2 e3 3f 0d ab b8 3f 60 33 09 40
       1.7456712 1.7783853 1.44272 2.1437607
000140 14 e7 91 3f aa 96 d8 3f 64 a9 ef 3f 18 10 c0 3f
       1.1398644 1.6920979 1.8723569 1.5004911
000150 f7 bd 34 40 79 8c cc 3f 86 a2 06 40 e7 95 f6 3f
       2.8240945 1.5980369 2.1036696 1.9264497
000160 3b d7 c0 3f f6 60 02 40 87 07 02 40 87 ca 34 40
       1.5065683 2.037168 2.0317094 2.8248613
000170 c7 90 d5 3f 6c 45 99 3f d6 f4 e4 3f 5c 6e c1 3f
       1.6684808 1.1974311 1.7887218 1.5111804
000180 55 9b 1b 40 b5 7b ed 3f 0f 64 ee 3f 04 a6 0b 40
       2.4313557 1.8553377 1.8624285 2.1820078
