trained_params/MNIST-cnst-LR_100_model_last.pth (torch, 843111 bytes, 34 tensors)

feature.0.weight f4 [32, 3, 5, 5]
-0.08017499 -0.030508919 0.049143855 0.01467766 -0.008805434 0.05893199 -0.03210923 0.09725713
-0.036333002 -0.11732019 0.0042692744 -0.049552433 0.081205115 -0.09503751 -0.13829765 -0.13363001
0.029207326 0.16395605 0.027566286 -0.09747864 -0.11048138 -0.055614803 -0.022072474 0.048471782
0.075414486 -0.033286676 -0.025457628 -0.12428548 -0.13532521 0.13439327 -0.029527903 -0.040934492
0.015083533 -0.06349451 0.02634021 0.014533923 0.07706353 0.00033524822 -0.039377306 -0.077178806
-0.043684874 0.03798842 0.09777709 0.08614786 -0.023518777 -0.13496889 -0.089318685 0.013971571
-0.0068580927 0.063378766 0.093825914 0.105749376 0.08507927 -0.11462362 0.04493605 -0.09606854
0.128329 0.06102703 0.04264797 -0.10238444 -0.011739207 -0.04301293 0.0105520915 -0.119163536
0.07434403 -0.004954937 0.06254136 0.06792667 -0.060416833 0.021193925 0.03739452 -0.11249445
0.1011349 0.0801676 -0.086138666 -0.12235531 -0.07517937 -0.10332188 0.05336879 0.07361086
-0.065701514 -0.09494715 0.07530371 0.009279014 0.06326805 0.05440817 0.083321996 -0.082713634
0.015751658 0.008628324 0.052851595 -0.08836289 0.049345803 -0.09461391 -0.06858452 -0.023001453
-0.05163757 -0.072191715 0.03433043 -0.0947304 0.059713185 0.07404965 -0.029410511 -0.013236036
-0.010642019 0.015462505 0.03302423 -0.07260204 0.057917707 0.11809622 0.01585647 0.07728887
0.04017211 -0.09233108 0.060222458 -0.02603724 0.017663112 -0.09917293 -0.055160787 0.0174815
-0.063453116 0.0472469 -0.08464128 -0.05617456 -0.04124551 -0.124066964 -0.0034218677 -0.040172197
0.08550733 0.076133326 -0.0732499 -0.11469852 -0.045275576 -0.014150667 0.051906202 -0.03361068
0.011380445 -0.112607 -0.11468132 -0.10470212 -0.021051016 -0.010642236 -0.0013998698 0.003941965
-0.1442368 -0.10012562 0.088677354 0.050777763 0.026730321 0.108151264 0.02405614 -0.02650843
-0.05948898 0.034785356 -0.12011673 -0.02214039 0.047564227 0.12221687 0.051519215 0.047111176
-0.0635177 0.10263377 0.035902455 -0.023611851 0.096295096 -0.010187479 0.036479663 0.0729765
-0.06404021 0.032630216 -0.091085255 -0.10816123 0.0088072745 -0.13611779 0.015317203 0.08387591
0.03237303 0.01232656 -0.1069771 -0.101758644 0.09247094 -0.030503297 -0.08469846 0.059649818
0.037007805 -0.067170426 0.018738978 0.07747109 0.06967006 0.02537034 -0.088581994 -0.023841647
0.0889407 -0.00096855697 -0.0025411318 -0.109207004 -0.09713055 -0.11826924 -0.017753989 -0.061555017
-0.049665727 -0.1194772 -0.044478375 0.023773925 -0.0024057378 0.074442826 0.021023886 -0.09278269
0.008481181 -0.10568163 0.03669424 0.13775678 0.03683394 0.12788334 0.11930052 -0.03485812
-0.090995185 -0.09521534 0.053837273 0.033868328 0.07006186 -0.07838988 -0.12646967 -0.05823496
-0.1314423 0.09547067 0.09592643 0.07681579 -0.061606854 0.09879539 0.003696139 0.0469326
-0.06787221 -0.013786892 -0.0025577939 -0.07662308 0.1086956 0.07883605 -0.051490303 0.030313188
0.00028943282 -0.050061893 0.004967755 -0.07753015 0.045351774 -0.03214075 -0.08270557 0.032158338
-0.011240946 0.031021124 0.056800067 -0.09621708 0.13876604 0.09691434 -0.021226894 0.020332078
00000000: c932 a4bd d7ed f9bc 114b 493d 917a 703c
00000010: ab44 10bc ac62 713d f884 03bd bf2e c73d
00000020: ead1 14bd 9145 f0bd 45e5 8b3b 7ef7 4abd
00000030: de4e a63d 07a3 c2bd e69d 0dbe 4ed6 08be
00000040: 3444 ef3c 18e4 273e b1d2 e13c e2a2 c7bd
00000050: 1044 e2bd 59cc 63bd 55d1 b4bc 598a 463d
00000060: e972 9a3d 9c57 08bd 848c d0bc 6389 febd
00000070: b192 0abe 649e 093e 80e4 f1bc edaa 27bd
00000080: ec20 773c 6909 82bd 6dc7 d73c b11f 6e3c
00000090: 7cd3 9d3d 41c4 af39 194a 21bd ec0f 9ebd
000000a0: e9ee 32bd bf99 1b3d 5b3f c83d 4a6e b03d
000000b0: 73aa c0bc 4935 0abe b7ec b6bd 04e9 643c
000000c0: dab9 e0bb bacc 813d cd27 c03d 2193 d83d
000000d0: 0a3e ae3d cabf eabd dd0e 383d 95bf c4bd
000000e0: ad68 033e 7bf7 793d a3af 2e3d efae d1bd
000000f0: ce55 40bc 532e 30bd aee2 2c3c 030c f4bd
00000100: af41 983d 065d a2bb af15 803d 231d 8b3d
00000110: a477 77bd e29e ad3c ff2a 193d 7d63 e6bd
00000120: d01f cf3d e92e a43d 7869 b0bd 6c95 fabd
00000130: a4f7 99bd 6c9a d3bd 3b99 5a3d 4ac1 963d
00000140: 848e 86bd a773 c2bd d538 9a3d 0107 183c
00000150: ae92 813d 1adb 5e3d b9a4 aa3d c465 a9bd
00000160: 9f09 813c d05d 0d3c ea7a 583d 9af7 b4bd
00000170: d31e 4a3d f0c4 c1bd 0a76 8cbd 8b6d bcbc
00000180: eb81 53bd 40d9 93bd 119e 0c3d 0302 c2bd
00000190: d095 743d 58a7 973d 50ee f0bc f5db 58bc
000001a0: dd5b 2ebc 7256 7d3c 6a44 073d 61b0 94bd
000001b0: 1e3b 6d3d 6edc f13d 6ee5 813c a149 9e3d
000001c0: 838b 243d 1418 bdbd d3ab 763d 0d4c d5bc
000001d0: 3bb2 903c 2d1b cbbd 47f0 61bd 5d35 8f3c
000001e0: b5f3 81bd f785 413d 6858 adbd 4c17 66bd
000001f0: 0df1 28bd d216 febd 6a41 60bb 9a8b 24bd
00000200: 781e af3d caeb 9b3d 0b04 96bd 0fe7 eabd
00000210: e272 39bd 33d8 67bc 999b 543d 5aab 09bd
00000220: 0c75 3a3c 809e e6bd 0ade eabd 116e d6bd
00000230: 2e73 acbc c65c 2ebc d67b b7ba 992b 813b
00000240: d0b2 13be a90e cdbd 799c b53d 58fc 4f3d
00000250: 8cf9 da3c 697e dd3d 6211 c53c 3528 d9bc
00000260: b7aa 73bd 177b 0e3d c3ff f5bd c35f b5bc
00000270: b5d2 423d d74c fa3d d005 533d a6f7 403d
00000280: 9115 82bd a731 d23d 740e 133d a46d c1bc
00000290: 5d36 c53d 62e9 26bc b36b 153d b474 953d
000002a0: 8327 83bd 43a7 053d e88a babd a383 ddbd
000002b0: 634c 103c 7662 0bbe 01f5 7a3c 22c7 ab3d
000002c0: 9599 043d 57f5 493c cf16 dbbd d666 d0bd
000002d0: 6761 bd3d 0de2 f9bc 6376 adbd 5e53 743d
000002e0: 7f95 173d a690 89bd 7c82 993c 2aa9 9e3d
000002f0: 2daf 8e3d 76d5 cf3c 7a6a b5bd 8f4f c3bc
00000300: 8b26 b63d c2e6 7dba 1e89 26bb eca7 dfbd
00000310: 62ec c6bd 2537 f2bd d070 91bc 1d21 7cbd
00000320: 4a6e 4bbd 76b0 f4bd f52e 36bd 89c1 c23c
00000330: 95a9 1dbb 7b75 983d 493a ac3c da04 bebd
00000340: a7f4 0a3c 9c6f d8bd b34c 163d 1d10 0d3e
00000350: 2fdf 163d daf3 023e d553 f43d 63c7 0ebd
00000360: af5b babd 4300 c3bd 7984 5c3d 84b9 0a3d
00000370: 987c 8f3d e08a a0bd 4481 01be c887 6ebd
00000380: cf98 06be 2086 c33d 1375 c43d 9951 9d3d
00000390: 7857 7cbd 3d55 ca3d ec3a 723b 663c 403d
000003a0: 9600 8bbd 6be2 61bc a9a0 27bb 90ec 9cbd
000003b0: cc9b de3d cc74 a13d 7fe7 52bd 5d53 f83c
000003c0: 04bf 9739 b30d 4dbd 8dc8 a23b 21c8 9ebd
000003d0: c8c2 393d 05a6 03bd 8a61 a9bd 76b8 033d
000003e0: f22b 38bc 0320 fe3c 30a7 683d 760d c5bd
000003f0: af18 0e3e 077b c63d 06e4 adbc 758f a63c

feature.0.bias f4 [32]
-0.08078301 -0.09224246 -0.11167881 -0.019327983 0.1029959 -0.028190609 -0.045815393 -0.026082695
-0.07542093 -0.013721463 -0.021440415 0.068299145 0.02448456 -0.060496364 -0.048968077 -0.052940253
0.024067737 0.06107296 0.036505982 0.08248375 -0.05262329 -0.059403192 0.04897511 -0.08661097
-0.05260984 -0.0881571 -0.029059038 0.010713803 0.09841876 0.061381117 -0.0549575 0.04684058
00000000: 9071 a5bd 9de9 bcbd dcb7 e4bd b855 9ebc
00000010: 84ef d23d feef e6bc eca8 3bbd 60ab d5bc
00000020: 4a76 9abd fdcf 60bc cfa3 afbc 6ce0 8b3d
00000030: d893 c83c 09cb 77bd c092 48bd e1d7 58bd
00000040: b429 c53c a427 7a3d 4c87 153d 3eed a83d
00000050: 858b 57bd c350 73bd 209a 483d 1861 b1bd
00000060: 6a7d 57bd b68b b4bd 380d eebc f288 2f3c
00000070: c68f c93d c46a 7b3d 1e1b 61bd e8db 3f3d

feature.1.weight f4 [32]
0.98949784 1.0387298 1.049129 0.9790424 1.027056 1.0367016 1.0475352 1.011484
0.9385615 0.8957769 0.94843894 1.0321783 1.0266885 1.0127586 0.9955321 1.009354
0.9095376 1.0588213 1.0172628 1.0178872 0.9901744 0.91264755 1.0211067 1.0023997
1.0170738 1.0117354 1.0246288 1.0088192 0.9753233 0.93935645 0.9486821 1.060307
00000000: bb4f 7d3f 19f5 843f dc49 863f 86a2 7a3f
00000010: 9276 833f a3b2 843f a215 863f 4f78 813f
00000020: 9145 703f a351 653f e5cc 723f 6b1e 843f
00000030: 876a 833f 13a2 813f 31db 7e3f 8332 813f
00000040: 75d7 683f 7587 873f ab35 823f 214a 823f
00000050: 127c 7d3f 45a3 693f a0b3 823f a24e 803f
00000060: 792f 823f 8c80 813f 0927 833f fd20 813f
00000070: caae 793f aa79 703f d5dc 723f 24b8 873f

feature.1.bias f4 [32]
-0.033799052 -0.028701851 -0.046152234 -0.03413025 -0.04498083 -0.035860308 -0.022073444 -0.011478209
-0.017412586 -0.051901735 -0.011281229 -0.028850725 -0.038177736 -0.007922222 -0.015210788 -0.025502903
-0.046562426 -0.018888496 -0.020631284 -0.023039283 -0.04702282 -0.038582355 -0.022700079 -0.005258985
-0.015694242 -0.037863173 -0.020004652 -0.038252465 -0.067875914 -0.04605632 -0.065235436 -0.044882838
00000000: e070 0abd 2520 ebbc 200a 3dbd 29cc 0bbd
00000010: d23d 38bd 42e2 12bd 5ed3 b4bc 190f 3cbc
00000020: d7a4 8ebc ea96 54bd e7d4 38bc 5b58 ecbc
00000030: 4260 1cbd 35cc 01bc ab36 79bc 77eb d0bc
00000040: 3eb8 3ebd 0cbc 9abc f002 a9bc e1bc bcbc
00000050: 009b 40bd 8808 1ebd 84f5 b9bc 9053 acbb
00000060: 3691 80bc 6a16 1bbd cce0 a3bc 9eae 1cbd
00000070: 8702 8bbd 8da5 3cbd 289a 85bd 11d7 37bd

feature.1.running_mean f4 [32]
0.21624982 0.5619324 0.30150568 0.2372289 0.49422306 0.33368695 0.3642578 0.41922808
0.108063504 -0.27409434 0.06430394 0.5049821 0.12022887 0.3150344 0.86245227 0.23173718
-0.4965854 0.3768937 0.3616189 0.41438308 -0.007695432 -0.13489659 0.5543444 0.034520987
0.08868672 0.07177285 0.47643793 0.04068885 0.25719 -0.2957679 -0.32004243 0.31694952
00000000: 9870 5d3e cdda 0f3f f45e 9a3e 22ec 723e
00000010: ce0a fd3e 04d9 aa3e 0080 ba3e 10a5 d63e
00000020: 6650 dd3d 1856 8cbe c9b1 833d 8246 013f
00000030: 8e3a f63d 304c a13e acc9 5c3f 834c 6d3e
00000040: 7140 febe 36f8 c03e 1d26 b93e 052a d43e
00000050: f629 fcbb 5522 0abe 84e9 0d3f e165 0d3d
00000060: 62a1 b53d a5fd 923d acef f33e 5aa9 263d
00000070: 68ae 833e e46e 97be 9adc a3be 3547 a23e

feature.1.running_var f4 [32]
0.13672262 0.32299027 0.28753304 0.3112987 0.27560604 0.38421154 0.23871297 0.20596513
0.18273199 0.13743079 0.1156257 0.40300986 0.21947242 0.13462202 0.40595043 0.27790487
0.34953701 0.44649598 0.50915736 0.29306066 0.16741492 0.1432801 0.2672351 0.13190602
0.13010785 0.32432115 0.33960286 0.40023205 0.16886353 0.19702376 0.40410694 0.24099611
00000000: 0401 0c3e fb5e a53e 8837 933e 8b62 9f3e
00000010: 3c1c 8d3e 60b7 c43e 2c71 743e 86e8 523e
00000020: 181e 3b3e a8ba 0c3e 2bcd ec3d 4f57 ce3e
00000030: 61bd 603e 5bda 093e bcd8 cf3e 8c49 8e3e
00000040: 84f6 b23e 1f9b e43e 2358 023f 0c0c 963e
00000050: d16e 2b3e 05b8 123e 0ad3 883e 5f12 073e
00000060: fe3a 053e 6c0d a63e 6de0 ad3e 37eb cc3e
00000070: 90ea 2c3e 99c0 493e 1be7 ce3e afc7 763e

feature.4.weight f4 [48, 32, 5, 5]
-0.038736537 -0.008521566 -0.002834401 0.038706444 -0.038973283 0.01914534 -0.010550868 0.010197279
0.016387207 0.02521156 -0.002128379 -0.046280917 -0.04292857 0.02969416 0.0047807437 0.007907281
-0.042823974 -0.031333793 -0.033299495 0.046249785 -0.031156205 -0.010190096 0.0015276431 -0.011939222
0.023905015 -0.008008755 0.031606838 0.038044754 -0.008446391 0.008395189 -0.0022071176 0.0021145525
-0.009847573 0.010531538 0.0121408105 -0.01535302 0.009353146 0.013778591 -0.0035956532 -0.014242772
0.036198583 -0.032799017 -0.080142274 -0.00058879016 0.016438661 -0.0012747234 -0.041871518 -0.013198796
0.0006083474 0.019260101 0.023955096 0.035733063 0.017777301 -0.00066577893 0.018705659 -0.011991616
-0.007483382 0.024736874 0.0106187435 0.0020052458 0.024641788 -0.017701978 0.014643632 0.0025995453
0.04064482 0.039325465 -0.013260706 -0.022465965 0.04419324 0.027681112 0.038926423 0.0052442304
-0.00953768 0.042761188 -0.009894909 0.03417491 0.0031421212 -0.014840695 0.024437468 0.016276034
0.019233786 0.0048093693 -0.0012091161 0.0030568726 0.03659649 0.02673417 0.02106964 -0.014423651
-0.01033352 -0.008888057 0.023598626 -0.022687135 -0.021539709 0.024176067 -0.018632218 0.0064511327
-0.018936547 -0.027320279 0.0055822367 0.026807055 -0.035653066 0.0016801304 -0.004296468 -0.016086169
0.013025424 0.005361692 -0.029650755 -0.023400476 -0.0047594276 0.03806671 0.01992951 0.01303307
0.026619999 0.015502216 0.042562183 0.0411576 0.05172516 0.017972203 0.03050118 -0.0130060315
0.0010711004 -0.033088196 -0.045463637 0.008398239 0.008605237 -0.0027291938 -0.004096294 0.00558482
0.015213105 -0.018776333 0.025343115 0.026194569 -0.026363663 -0.032096326 0.00015434025 0.008405238
0.0024992432 0.0076431576 -0.009404281 -0.03660561 0.04359044 -0.015736835 0.005980012 0.021121686
0.00074981694 -0.034937408 0.045477837 0.033779107 -0.018367035 0.016776407 0.038502634 0.019792354
0.03237057 0.0116378255 -0.00037872206 0.03939589 -0.00828316 -0.021679351 -0.035838936 -0.052786015
-0.025003236 -0.03190624 -0.027984088 -0.022368308 -0.021539329 0.0058748494 0.020738935 -0.015972968
-0.055447735 -0.01987279 0.036153924 0.014214455 -0.02572007 -0.021026524 -0.0022772066 -0.037143644
-0.022714328 -0.01811118 -0.044923164 -0.02961553 -0.03298084 0.01263807 -0.040304214 -0.0044764658
-0.033658322 -0.018844334 -0.0024484359 0.017725253 -0.01151614 -0.022375247 -0.032139476 -0.015338066
-0.014399874 0.04631959 -0.033545084 -0.030092187 0.003915421 -0.025327763 -0.040309347 0.010084545
0.018321466 -0.03718541 -0.025266372 0.0016527177 0.0050691315 0.0012957617 -0.00709919 -0.024695033
-0.016168268 -0.006808198 -0.012462291 0.015272857 0.012606492 0.022242736 0.016005196 -0.025014222
0.009072781 0.017059786 -0.0072314143 0.0066612083 -0.012254394 0.012990276 0.01356617 -0.012597764
-0.049162734 -0.02520378 -0.018489575 -0.025086574 0.03179204 -0.013675933 -0.030344298 0.009994321
-0.024102585 -0.014694543 0.027140206 -0.0016871688 -0.031746916 0.015440044 0.0015442582 0.017557465
-0.032148737 0.02919064 0.029878646 0.033194464 0.009910225 0.028562412 0.024618408 -0.01577955
0.022555975 -0.048606545 0.0007265086 -0.052177902 -0.014370381 -0.036113948 0.009604937 -0.0073817903
00000000: 34aa 1ebd 0a9e 0bbc 5cc1 39bb a68a 1e3d
00000010: 73a2 1fbd b0d6 9c3c 8cdd 2cbc 7d12 273c
00000020: 773e 863c 7988 ce3c 467c 0bbb 0f91 3dbd
00000030: ded5 2fbd 2b41 f33c c9a7 9c3b 8a8d 013c
00000040: 3168 2fbd dd57 00bd 0d65 08bd 6a70 3d3d
00000050: 4c3b ffbc 5cf4 26bc 323b c83a ba9c 43bc
00000060: 73d4 c33c 2737 03bc 2c76 013d d1d4 1b3d
00000070: bb62 0abc fa8b 093c 4aa5 10bb 4e94 0a3b
00000080: b757 21bc 798c 2c3c 40ea 463c 3c8b 7bbc
00000090: f03d 193c 99bf 613c 0da5 6bbb 845a 69bc
000000a0: f744 143d 4358 06bd a221 a4bd 0a59 1aba
000000b0: 5faa 863c 9f14 a7ba 7881 2bbd c33f 58bc
000000c0: 8179 1f3a 5cc7 9d3c 7a3d c43c d55c 123d
000000d0: b4a1 913c ab87 2eba 9c3c 993c 7c78 44bc
000000e0: 2837 f5bb fca4 ca3c 3dfa 2d3c 716a 033b
000000f0: 93dd c93c bd03 91bc d8eb 6f3c 225d 2a3b
00000100: 2f7b 263d bd13 213d 6f43 59bc 8b0a b8bc
00000110: f903 353d 80c3 e23c 5071 1f3d cbd7 ab3b
00000120: ee43 1cbc 5b26 2f3d 421e 22bc fefa 0b3d
00000130: 0cec 4d3b 6326 73bc 1631 c83c 5155 853c
00000140: 2c90 9d3c ea97 9d3b 347b 9eba d055 483b
00000150: 33e6 153d 9e01 db3c 3d9a ac3c 2d51 6cbc
00000160: ed4d 29bc 379f 11bc e851 c13c 5fda b9bc
00000170: 0b74 b0bc e30c c63c 98a2 98bc 0664 d33b
00000180: d120 9bbc c7ce dfbc 32eb b63b 789a db3c
00000190: f308 12bd d237 dc3a 63c9 8cbb 24c7 83bc
000001a0: 9768 553c 22b1 af3b 24e6 f2bc 5bb2 bfbc
000001b0: f9f4 9bbb d7eb 1b3d 3643 a33c a888 553c
000001c0: 2f12 da3c 02fd 7d3c af55 2e3d df94 283d
000001d0: c3dd 533d 713a 933c 9cdd f93c 4017 55bc
000001e0: 2a64 8c3a 7d87 07bd 1438 3abd c498 093c
000001f0: fbfc 0c3c 46dc 32bb 343a 86bb de00 b73b
00000200: 6340 793c d3d0 99bc 5d9c cf3c fe95 d63c
00000210: 9cf8 d7bc 7077 03bd 65d6 2139 20b6 093c
00000220: 58ca 233b 7473 fa3b 6a14 1abc c4ef 15bd
00000230: e48b 323d 89ea 80bc faf3 c33b 6307 ad3c
00000240: 5d8f 443a 871a 0fbd f846 3a3d f65b 0a3d
00000250: 7776 96bc ad6e 893c f0b4 1d3d 9323 a23c
00000260: 0197 043d 94ac 3e3c 378f c6b9 965d 213d
00000270: 17b6 07bc e598 b1bc d9cb 12bd 2636 58bd
00000280: 96d3 ccbc 1eb0 02bd e33e e5bc be3d b7bc
00000290: 3f73 b0bc cf81 c03b b3e4 a93c bed9 82bc
000002a0: 2a1d 63bd 43cc a2bc 2316 143d bfe3 683c
000002b0: e5b2 d2bc d13f acbc 303d 15bb ef23 18bd
000002c0: 6613 babc e65d 94bc 5a01 38bd 459c f2bc
000002d0: eb16 07bd e80f 4f3c 0816 25bd 51af 92bb
000002e0: 4fdd 09bd 6f5f 9abc f075 20bb 8d34 913c
000002f0: 31ae 3cbc 4b4c b7bc afa4 03bd 834c 7bbc
00000300: 73ed 6bbc 9cb9 3d3d 9266 09bd e483 f6bc
00000310: ef4c 803b 2b7c cfbc 6a1b 25bd a639 253c
00000320: e616 963c ba4f 18bd 6cfb cebc 01a0 d83a
00000330: f51a a63b 8cd6 a93a 52a0 e8bb 3d4d cabc
00000340: 5173 84bc 4e17 dfbb a32e 4cbc 013b 7a3c
00000350: 768b 4e3c 6636 b63c 541d 833c a0ea ccbc
00000360: 00a6 143c f7c0 8b3c 80f5 ecbb 4446 da3b
00000370: a7c6 48bc 2bd5 543c a444 5e3c da66 4ebc
00000380: dd5e 49bd 2878 cebc 7377 97bc 5c82 cdbc
00000390: 5f38 023d 0511 60bc 9b94 f8bc 38bf 233c
000003a0: c972 c5bc 61c1 70bc 2355 de3c fe23 ddba
000003b0: 0e09 02bd 3df8 7c3c b568 ca3a acd4 8f3c
000003c0: 65ae 03bd 3621 ef3c 10c4 f43c ebf6 073d
000003d0: 7f5e 223c b8fb e93c 8bac c93c 1d44 81bc
000003e0: 4fc7 b83c a817 47bd 2b73 3e3a 7fb8 55bd
000003f0: bf71 6bbc 38ec 13bd 075e 1d3c f2e2 f1bb

feature.4.bias f4 [48]
-0.0027557872 0.007271163 0.007699162 0.017572388 -0.0040441044 0.033324737 0.021413289 0.034150157
-0.034653727 -0.0041261 -0.014001697 0.007228978 0.007857617 -0.0015044359 0.0010571844 0.028825548
-0.001402359 0.012704462 0.018193722 0.030583989 -0.012556419 -0.0050944034 0.01984153 -0.028963901
0.029878814 -0.00403589 0.012000717 -0.018915595 0.030893762 -0.005607251 0.001273571 -0.028186858
-0.0022252277 0.0225585 0.012126118 0.0026058953 0.016435869 0.021208256 -0.030016772 0.014690913
0.014657896 -0.006908564 -0.023550114 0.020457946 -0.02730044 -0.03288113 0.032816168 -0.0042627994
00000000: 709a 34bb f042 ee3b 4049 fc3b f8f3 8f3c
00000010: 6884 84bb 857f 083d ec6a af3c 09e1 0b3d
00000020: 11f1 0dbd 3c34 87bb 6067 65bc 10e1 ec3b
00000030: 3cbd 003c 7e30 c5ba 3991 8a3a 8e23 ec3c
00000040: 5ccf b7ba 6026 503c 000b 953c 468b fa3c
00000050: 70b9 4dbc f4ee a6bb b48a a23c b445 edbc
00000060: 6ac4 f43c 803f 84bb a89e 443c e1f4 9abc
00000070: ea14 fd3c 08bd b7bb f4ed a63a 20e8 e6bc
00000080: 20d5 11bb 9acc b83c a0ac 463c abc7 2a3b
00000090: 84a4 863c f0bc ad3c bce5 f5bc 28b2 703c
000000a0: ac27 703c 3c61 e2bb 2bec c0bc 6c97 a73c
000000b0: 2ca5 dfbc 5dae 06bd 3f6a 063d f4ae 8bbb

feature.5.weight f4 [48]
1.0071423 1.0008451 1.0192745 1.018808 1.000905 0.99458444 1.0130441 0.98310256
0.9780508 1.0165949 0.9993343 1.0046961 0.97421885 1.0187749 1.0092208 0.9862272
0.9793993 0.9933134 1.0127525 1.0133862 0.9745491 1.0184746 1.0012089 1.001416
1.015203 0.9776984 0.97847295 0.9847186 1.03921 0.9967169 0.9918095 1.0052308
0.9875075 0.97254646 0.99587625 0.9899222 0.99025714 0.97194684 1.031405 1.0065562
1.0187197 1.0092713 0.97854614 1.0079615 0.98794717 0.9813551 0.9903781 1.0140375
00000000: 0aea 803f b11b 803f 9677 823f 4d68 823f
00000010: a81d 803f 169d 7e3f 6eab 813f 9cac 7b3f
00000020: 8a61 7a3f c81f 823f 5fd4 7f3f e299 803f
00000030: 6866 793f 3767 823f 262e 813f 6379 7c3f
00000040: eab9 7a3f c949 7e3f e0a1 813f a4b6 813f
00000050: 0d7c 793f 605d 823f 9d27 803f 662e 803f
00000060: 2cf2 813f 714a 7a3f 347d 7a3f 8516 7c3f
00000070: d504 853f d728 7f3f 3ae7 7d3f 67ab 803f
00000080: 4bcd 7c3f cef8 783f bff1 7e3f 8b6b 7d3f
00000090: 7e81 7d3f 82d1 783f 1405 843f d5d6 803f
000000a0: 6865 823f cd2f 813f 0082 7a3f e204 813f
000000b0: 1bea 7c3f 163a 7b3f 6b89 7d3f fbcb 813f

feature.5.bias f4 [48]
-0.045548785 -0.036010005 -0.05334187 -0.035447832 -0.066899285 -0.030654091 -0.050173685 -0.072059065
-0.053331677 -0.051490806 -0.06699396 -0.0299277 -0.04583361 -0.03882544 -0.008745451 -0.05270744
-0.060849495 -0.05159886 -0.055163782 -0.05015844 -0.043046173 -0.014899643 -0.03201023 -0.038008746
-0.040545166 -0.038143557 -0.06398138 -0.055201486 -0.050179552 -0.05172532 -0.04401451 -0.034232855
-0.025631206 -0.029063724 -0.028846666 -0.07603376 -0.047732048 -0.06576236 -0.026889725 -0.04355768
-0.044595182 -0.0556677 -0.057450358 -0.055027645 -0.062994085 -0.04456468 -0.06030183 -0.037230812
00000000: 5d91 3abd 3a7f 13bd 017d 5abd bf31 11bd
00000010: 7e02 89bd 4a1e fbbc ec82 4dbd b493 93bd
00000020: 5172 5abd 06e8 52bd 2134 89bd f02a f5bc
00000030: 06bc 3bbd 6d07 1fbd 1549 0fbc c2e3 57bd
00000040: 523d 79bd 5459 53bd 6bf3 61bd f072 4dbd
00000050: 2f51 30bd a21d 74bc 291d 03bd 0faf 1bbd
00000060: b012 26bd 6b3c 1cbd ab08 83bd f41a 62bd
00000070: 1389 4dbd eedd 53bd 8f48 34bd c037 0cbd
00000080: 89f8 d1bc 0c17 eebc d84f ecbc 97b7 9bbd
00000090: ae82 43bd 6bae 86bd d747 dcbc 8a69 32bd
000000a0: 70a9 36bd d003 64bd 1151 6bbd ab64 61bd
000000b0: 0b03 81bd 7489 36bd 0dff 76bd 567f 18bd

feature.5.running_mean f4 [48]
-0.3353844 0.7527779 -0.001385979 -1.2077466 0.14185019 -0.64396924 0.11863245 0.3034004
0.108473346 -0.14771213 0.5962722 0.11820553 0.43027782 0.22875611 -0.42086 -0.1903456
0.33403522 0.77895814 0.5924485 -0.85127985 0.061094437 -0.32699472 0.43542716 -0.5187019
-0.8058577 0.11463824 -0.046675786 -1.1036457 -0.16954443 0.27374452 0.41530424 -1.0865695
-0.64142245 1.2353764 -0.9036592 0.6727425 -0.0024281768 1.2726575 -1.705821 -0.04781724
0.8679581 0.6122279 0.42960456 0.23600727 0.58749 -0.28074235 -0.027613739 -0.99901396
00000000: 81b7 abbe 0db6 403f bda9 b5ba 7197 9abf
00000010: 2d41 113e 2bdb 24bf 92f5 f23d 4c57 9b3e
00000020: 4627 de3d d941 17be 4ba5 183f be15 f23d
00000030: 604d dc3e 0b3f 6a3e f67a d7be f5e9 42be
00000040: aa06 ab3e cd69 473f b4aa 173f 7aed 59bf
00000050: 293e 7a3d da6b a7be 4ff0 de3e a6c9 04bf
00000060: b14c 4ebf 74c7 ea3d 1c2f 3fbd 4344 8dbf
00000070: 0e9d 2dbe 3e28 8c3e c2a2 d43e b614 8bbf
00000080: 4334 24bf d020 9e3f 3656 67bf da38 2c3f
00000090: 0c22 1fbb 71e6 a23f 5858 dabf 03dc 43bd
000000a0: 8132 5e3f f8ba 1c3f 21f5 db3e e4ab 713e
000000b0: bf65 163f 76bd 8fbe 3536 e2bc 61bf 7fbf

feature.5.running_var f4 [48]
0.55675936 0.7002709 0.67700297 0.80885106 0.69663525 0.9097004 0.89478385 0.6570338
0.72919464 0.7177341 0.79865617 0.5805649 0.58957106 0.7961721 0.54570055 0.67898667
0.71804696 0.647812 0.80218214 0.61971235 0.6642323 0.7637152 0.7148618 0.64028114
0.69240564 0.75789356 0.61730427 0.67601204 0.7763062 0.62427664 0.67180336 0.67887384
0.5408648 0.72325295 0.7826104 0.88849497 0.6193537 0.7464132 0.7402959 0.6348712
0.6458914 0.69797534 0.67354685 0.7654764 0.7579993 0.6735602 0.5662446 0.6956417
00000000: c887 0e3f f444 333f 1150 2d3f dd10 4f3f
00000010: b056 323f 20e2 683f 8e10 653f 5e33 283f
00000020: 80ac 3a3f 6cbd 373f bb74 4c3f e79f 143f
00000030: 21ee 163f efd1 4b3f 08b3 0b3f 12d2 2d3f
00000040: edd1 373f 02d7 253f cf5b 4d3f 78a5 1e3f
00000050: 210b 2a3f d782 433f 2f01 373f 77e9 233f
00000060: 7f41 313f 5005 423f a707 1e3f 200f 2d3f
00000070: 01bc 463f 98d0 1f3f 4efb 2b3f adca 2d3f
00000080: 1e76 0a3f 1b27 393f 2859 483f 6874 633f
00000090: f78d 1e3f ef14 3f3f 0884 3d3f eb86 223f
000000a0: 2459 253f 83ae 323f 916d 2c3f 43f6 433f
000000b0: 3e0c 423f 716e 2c3f 68f5 103f 9315 323f

classifier.0.weight f4 [100, 768]
0.0292113 0.022840396 0.011716745 0.005821444 0.0024178196 0.020858344 -0.020636456 0.024207016
-0.051157553 -0.03276786 -0.016082006 -0.025896732 -0.04312802 -0.011240278 -0.002795051 -0.024087522
-0.036998615 0.027559748 0.0038660192 -0.019685378 -0.008415265 -0.029166099 -0.033842005 -0.025018709
0.00862869 0.0165436 -0.002685032 0.026309386 -0.011005629 -0.007922534 0.017026907 0.0019235924
-0.02556444 -0.026373606 -0.00087686087 0.016910756 -0.015947465 -0.035918444 0.009675524 0.04606312
-0.020990469 -0.004825464 0.0010797641 -0.03909451 -0.009845489 0.029050075 -0.056847762 -0.017253796
-0.046860773 -0.020577684 0.0012068866 -0.011542952 0.04063185 0.03389806 -0.030982401 0.023399275
0.050735474 0.044546816 -0.022792835 0.0049146125 -0.036121342 -0.0073169656 0.037368145 -0.043182813
-0.000592887 0.0063138595 0.035187732 0.0077405456 0.004742433 0.0001627809 0.016240433 0.022331825
0.0035407331 -0.012591641 0.016230896 -0.02452117 0.029530331 0.009590367 -0.045627877 0.0011625426
0.021104345 -0.0034153357 -0.04420979 -0.031130344 -0.023098541 -0.0024938819 0.01923009 -0.021567337
-0.026870433 -0.019396402 0.0005962607 0.0018987164 0.019378437 -0.0205998 0.05144969 -0.0224599
-0.032488853 -0.025822977 0.024454989 0.0043424168 -0.020026073 -0.018718831 -0.024917787 -0.015119264
0.009137989 0.026476294 0.013618541 0.0012849547 -0.06017248 -0.024660818 -0.0046606753 -0.0030468698
0.013859125 0.042613957 -0.019844843 -0.018912233 0.013982459 0.020044222 0.019686189 0.020285914
-0.045330085 0.021523053 -0.008488625 0.0019051158 -0.032881875 -0.016832057 -0.0026287679 -0.042813458
-0.000549655 -0.0065086707 -0.012438886 -0.016078802 -0.03768655 -0.0067005074 0.020331305 -0.018505622
0.015620847 0.0071336473 -0.003086036 -0.02229255 0.02406454 0.04414849 -0.030623635 -0.022442186
-0.045684516 0.01406403 -0.013754642 -0.014509278 -0.009218392 0.021844076 -0.026457692 0.0015479054
-0.018052869 0.025329974 -0.028193714 -0.012426352 0.03864617 -0.00013119269 0.015990099 -0.011443024
0.00040675336 0.03937603 -0.010424257 0.018499104 0.04456041 0.023020878 -0.026379595 -0.006883064
-0.006792723 0.017008169 -0.060045164 -0.007334551 -0.021282142 -0.015043793 -0.027830848 0.0020296273
-0.03737603 0.013118008 -0.02960526 0.040615857 0.016767068 -1.5774918e-05 -0.013346588 0.010686906
0.02410974 0.03863589 -0.0032234085 -0.06457118 -0.024957746 0.0026312547 -0.0344958 -0.0126574095
-0.037076592 0.02010111 0.020489886 -0.02700403 0.009124196 -0.024633478 0.011442055 0.0014706568
-0.019131826 0.06545811 -0.027458465 0.0034456209 0.032083713 0.009768678 -0.050675962 0.0008366296
0.008687426 0.011466484 -0.03164638 -0.05774379 0.009389583 -0.018354984 0.021535046 -0.017019825
-0.019886611 -0.034888517 0.0084985765 0.0023764898 -0.016322128 0.002293962 -0.012713329 0.024616372
0.0028285568 0.015947219 -0.04170585 -0.0012215733 -0.028352885 0.006162185 -0.029340252 -0.027518546
0.04450314 -0.035390966 0.010390883 -0.016293563 -0.019857882 0.0055024605 0.0060586752 0.020854827
0.035289854 -0.006265238 -0.03792414 0.014592215 -0.0059134876 0.012006361 -0.0056901868 0.015457345
-0.03470001 0.013660117 -0.019592494 0.0073636128 -0.026261594 0.012719555 0.00035594124 -0.02436211
00000000: 894c ef3c c81b bb3c 97f7 3f3c d0c1 be3b
00000010: 4874 1e3b 1edf aa3c c90d a9bc cb4d c63c
00000020: 958a 51bd 9737 06bd 69be 83bc 6225 d4bc
00000030: 02a7 30bd 2529 38bc 2d2d 37bb 3253 c5bc
00000040: dc8b 17bd fbc4 e13c 0a5d 7d3b 3b43 a1bc
00000050: 2ee0 09bc beed eebc ea9d 0abd 09f4 ccbc
00000060: 595f 0d3c 7286 873c 5df7 2fbb c886 d73c
00000070: f450 34bc 84cd 01bc 037c 8b3c 0d21 fc3a
00000080: 846c d1bc 760d d8bc 23dd 65ba 6d88 8a3c
00000090: 42a4 82bc 381f 13bd 1786 1e3c afac 3c3d
000000a0: 34f4 abbc ed1e 9ebb df86 8d3a 9121 20bd
000000b0: f94e 21bc 6cfa ed3c 33d9 68bd d557 8dbc
000000c0: 15f1 3fbd 8892 a8bc 6530 9e3a a61e 3dbc
000000d0: 956d 263d b1d8 0a3d cece fdbc d6af bf3c
000000e0: 00d0 4f3d b976 363d 0ab8 babc c20a a13b
000000f0: f9f3 13bd 28c3 efbb 570f 193d 76e0 30bd
00000100: f96b 1bba 7ee4 ce3b 0321 103d 67a4 fd3b
00000110: 6966 9b3b 2ab0 2a39 a80a 853c 3bf1 b63c
00000120: a50b 683b 2c4d 4ebc a8f6 843c 9fe0 c8bc
00000130: 98e9 f13c ea20 1d3c 4ce4 3abd 7560 983a
00000140: 05e3 ac3c d3d3 5fbb 5315 35bd 1005 ffbc
00000150: 2739 bdbc 6570 23bb 6c88 9d3c fcad b0bc
00000160: 621f dcbc 34e5 9ebc 614e 1c3a 5ade f83a
00000170: 87bf 9e3c e9c0 a8bc e9bc 523d d3fd b7bc
00000180: 0813 05bd b58a d3bc d455 c83c d54a 8e3b
00000190: b80d a4bc 3c58 99bc 6320 ccbc cab6 77bc
000001a0: 81b7 153c d0e4 d83c 4d20 5f3c ed6b a83a
000001b0: 6b77 76bd 7c05 cabc 94b8 98bb fead 47bb
000001c0: 6211 633c f98b 2e3d a791 a2bc d4ed 9abc
000001d0: af16 653c c833 a43c ee44 a13c a52e a63c
000001e0: 0aac 39bd 1d51 b03c e013 0bbc 14b5 f93a
000001f0: 25af 06bd 62e3 89bc 6847 2cbb 2a5d 2fbd
00000200: b916 10ba b046 d5bb 78cc 4bbc b1b7 83bc
00000210: 365d 1abd ee8f dbbb d68d a63c 1a99 97bc
00000220: 95ee 7f3c 5fc1 e93b 183f 4abb de9e b6bc
00000230: 0023 c53c 0cd5 343d 6bde fabc add8 b7bc
00000240: b01f 3bbd d16c 663c 265b 61bc 53b8 6dbc
00000250: bd08 17bc 59f2 b23c cdbd d8bc 16e3 ca3a
00000260: 9ce3 93bc ce80 cf3c 81f6 e6bc e697 4bbc
00000270: 724b 1e3d c590 09b9 abfd 823c 857b 3bbc
00000280: 8341 d539 c348 213d 81ca 2abc 6f8b 973c
00000290: fa84 363d 4896 bc3c 051a d8bc 538b e1bb
000002a0: 7e95 debb b754 8b3c ebf1 75bd ac56 f0bb
000002b0: e357 aebc 3e7a 76bc 85fd e3bc 7f03 053b
000002c0: 9c17 19bd eaec 563c bb86 f2bc d05c 263d
000002d0: 175b 893c 6154 84b7 a6ab 5abc 2218 2f3c
000002e0: ca81 c53c ab40 1e3d d23f 53bb e53d 84bd
000002f0: 3074 ccbc 2171 2c3b 784b 0dbd 0661 4fbc
00000300: a0dd 17bd 15ab a43c 68da a73c 8e37 ddbc
00000310: a77d 153c 26cc c9bc 7577 3b3c 0ec3 c03a
00000320: 59ba 9cbc e70e 863d 93f0 e0bc edcf 613b
00000330: 366a 033d ce0c 203c 9991 4fbd 4351 5b3a
00000340: b555 0e3c ebdd 3b3c a29f 01bd c184 6cbd
00000350: c4d6 193c 315d 96bc 446a b03c 296d 8bbc
00000360: 3fe9 a2bc 43e7 0ebd 9d3d 0b3c e2be 1b3b
00000370: fcb5 85bc 4c56 163b 914b 50bc 46a8 c93c
00000380: 4f5f 393b bea3 823c c1d3 2abd 331d a0ba
00000390: 4f44 e8bc 28ec c93b f85a f0bc 936e e1bc
000003a0: ed48 363d 1ef6 10bd 863e 2a3c 147a 85bc
000003b0: ffac a2bc fc4d b43b da87 c63b bed7 aa3c
000003c0: 188c 103d a04c cdbb 5856 1bbd 3014 6f3c
000003d0: eec5 c1bb 54b6 443c bf74 babb ce40 7d3c
000003e0: 9921 0ebd afce 5f3c 7080 a0bc 764a f13b
000003f0: 8e22 d7bc ae65 503c a09d ba39 0c93 c7bc

classifier.0.bias f4 [100]
0.0045479946 -0.01653198 -0.014013529 -0.0052383915 0.009754609 0.023553446 0.007060338 -0.003272429
0.03364273 -0.0045749173 -0.014223967 0.025546353 -0.034112446 0.035067648 0.016444989 -0.031534385
-0.0056468286 0.0046512783 0.01608074 0.014125567 0.0031862073 0.007399909 0.00024347306 -0.03186656
0.023276445 -0.019375741 0.0077763014 -0.0031307302 0.027200691 0.029177792 0.020488117 0.026375312
0.011951458 -0.010866731 -0.024217483 -0.033660732 0.0018596612 0.006919861 -0.019552283 0.010609746
0.017587654 -0.03352732 0.0021624975 0.031824395 0.01276163 -0.026877843 0.0021819696 -0.026661765
0.007829957 0.019949105 0.027452484 0.020187892 -0.031565424 0.0016107783 -0.019265242 -0.016324293
0.03566967 0.006133374 -0.03565826 -0.008443983 0.025050346 -0.027652353 -0.035595126 0.033913314
0.027282722 0.030284494 0.009697355 -0.0007601012 0.0022531077 0.027733184 -0.0057823416 -0.024939548
-0.01875595 -0.009613439 -0.014343698 -0.011097826 -0.0075780414 0.00838162 -0.0067945533 -0.0075722653
-0.0354877 0.016613495 0.0044687465 -0.018393274 0.023796275 0.027611867 -0.021219065 0.0076963454
0.024553757 -0.0059801377 0.02589282 -0.020274254 -0.028726827 0.008079968 -0.013532292 0.029238187
-0.009656809 -0.018211503 -0.03458404 -0.008663744
00000000: 5807 953b 136e 87bc 0099 65bc d0a6 abbb
00000010: ccd1 1f3c 28f3 c03c 685a e73b 4076 56bb
00000020: f6cc 093d 30e9 95bb a40b 69bc 9646 d13c
00000030: 7eb9 0bbd 18a3 0f3d a4b7 863c 332a 01bd
00000040: 0809 b9bb c069 983b c2bb 833c ec6e 673c
00000050: b0cf 503b f07a f23b cd4c 7f39 8386 02bd
00000060: 3eae be3c e0b9 9ebc 58d0 fe3b f02c 4dbb
00000070: fcd3 de3c 4406 ef3c b2d6 a73c 0a11 d83c
00000080: 0cd0 433c 600a 32bc be63 c6bc d6df 09bd
00000090: e0bf f33a 00c0 e23b 1c2c a0bc 80d4 2d3c
000000a0: fc13 903c f153 09bd b0b8 0d3b 4c5a 023d
000000b0: 2816 513c ec2e dcbc 60ff 0e3b c669 dabc
000000c0: 3849 003c 4e6c a33c 08e4 e03c 1461 a53c
000000d0: bf4a 01bd c020 d33a 24d2 9dbc 86ba 85bc
000000e0: 5c1a 123d 78fa c83b 650e 12bd a258 0abc
000000f0: 6236 cd3c 3087 e2bc 32cc 11bd b0e8 0a3d
00000100: 0480 df3c 3017 f83c a8e1 1e3c 8741 47ba
00000110: e0a8 133b b430 e33c cc79 bdbb 064e ccbc
00000120: 14a6 99bc b081 1dbc d401 6bbc a8d3 35bc
00000130: 3851 f8bb 1053 093c d8a4 debb c420 f8bb
00000140: 8d5b 11bd 0619 883c 906e 923b 7ead 96bc
00000150: 68f0 c23c 4832 e23c 9bd3 adbc a031 fc3b
00000160: f624 c93c 08f5 c3bb 2e1d d43c 3116 a6bc
00000170: 8654 ebbc d861 043c 8cb6 5dbc ec84 ef3c
00000180: 9837 1ebc 4a30 95bc ffa7 0dbd 60f2 0dbc

classifier.1.weight f4 [100]
1.0024661 1.0263321 0.99710715 1.0277085 0.97524077 0.9788281 0.99226105 1.0139897
0.98871607 0.9882384 0.9750585 1.031425 1.0081767 0.9883588 0.9890272 1.0055345
1.0216765 0.999196 0.99429876 0.968831 0.98437256 1.0236309 1.0069885 0.9866121
1.010695 0.99978423 1.0178089 1.0093334 0.9749807 1.0239073 0.9792583 1.0004159
1.0316834 1.0163034 0.98738927 0.9967696 0.9900391 0.99206173 0.9924529 1.0223315
0.9798012 1.0057895 1.0340557 0.9794245 0.9799254 0.9845681 1.0246509 1.007962
0.98680425 1.0006636 0.9686968 1.0103978 0.9742387 0.9826353 0.99728006 1.0125715
1.0186634 0.9913675 1.0199813 0.99177754 1.0045412 1.007539 0.96210426 1.0025378
0.9996211 1.0040398 1.0001905 0.9935472 0.9964143 0.9915596 1.0025709 1.0011775
1.0132923 0.9931794 0.98031104 1.0198456 1.0102074 0.9953884 1.0123333 1.0132103
0.981475 1.0125331 1.0208123 0.9735616 1.0019101 1.0008448 0.9865306 0.99639404
1.029909 0.9856769 1.0254868 0.9746869 1.0020516 0.9949236 1.0128267 0.98865366
1.0022342 1.0335139 0.97462285 1.0110568
00000000: cf50 803f da5e 833f 6a42 7f3f f48b 833f
00000010: 61a9 793f 7a94 7a3f d204 7e3f 6aca 813f
00000020: 7f1c 7d3f 31fd 7c3f 6f9d 793f bc05 843f
00000030: ef0b 813f 1505 7d3f e330 7d3f 5bb5 803f
00000040: 4cc6 823f 4fcb 7f3f 5d8a 7e3f 4f05 783f
00000050: d7ff 7b3f 5606 833f 00e5 803f 9c92 7c3f
00000060: 745e 813f dcf1 7f3f 9047 823f d631 813f
00000070: 5698 793f 650f 833f acb0 7a3f a10d 803f
00000080: 340e 843f 3b16 823f 8bc5 7c3f 4b2c 7f3f
00000090: 3473 7d3f c2f7 7d3f 6511 7e3f c2db 823f
000000a0: 40d4 7a3f b6bd 803f f05b 843f 90bb 7a3f
000000b0: 64dc 7a3f a80c 7c3f c327 833f e604 813f
000000c0: 349f 7c3f bf15 803f 83fc 773f b754 813f
000000d0: b567 793f fd8d 7b3f bf4d 7f3f f19b 813f
000000e0: 9063 823f 43ca 7d3f bf8e 823f 22e5 7d3f
000000f0: ce94 803f 0af7 803f 774c 763f 2953 803f
00000100: 2be7 7f3f 6084 803f 3e06 803f 1c59 7e3f
00000110: 0215 7f3f dad6 7d3f 3e54 803f 9626 803f
00000120: 90b3 813f 0141 7e3f aaf5 7a3f 4d8a 823f
00000130: 7a4e 813f c6d1 7e3f 2394 813f e0b0 813f
00000140: f241 7b3f af9a 813f faa9 823f 553b 793f
00000150: 973e 803f af1b 803f 458d 7c3f ae13 7f3f
00000160: 0fd4 833f 5255 7c3f 2743 833f 1585 793f
00000170: 3a43 803f 50b3 7e3f 4ea4 813f 6818 7d3f
00000180: 3649 803f 2f4a 843f e280 793f 4f6a 813f

classifier.1.bias f4 [100]
0.014780284 0.0053020264 0.014968668 0.007152387 -0.025324259 -0.01624467 -0.011081094 0.017230315
-0.009616114 0.0066776793 -0.021437267 -0.02126767 -0.009168386 -0.014637491 -0.008559386 -0.020346168
0.0044383225 -0.00097161613 -0.0066016275 -0.013147072 0.006305237 0.018963428 -0.012866615 -0.007384113
-0.007798425 -0.008909757 -0.0004039198 0.015750984 -0.0184749 0.002042111 -0.023886072 0.011350539
-0.0143476175 0.0021966838 -0.0035239824 -0.013926467 -0.004121178 -0.0014163421 -0.009794781 0.013877937
-0.013685605 0.012743548 -0.01516651 -0.004406946 -0.0068520443 0.008121081 -0.010988398 0.0017174702
-0.018669255 0.00561975 -0.009846576 -0.018429885 0.00036788543 -0.026189424 -0.0058343266 -0.0016861887
-0.009572832 -0.0034051863 -0.0019714753 -0.02240614 0.025566896 0.020526523 -0.015302385 -0.00060778734
0.0008742934 -0.014571237 0.0012621535 -0.012600041 0.0138621805 0.011524375 -0.017073287 -0.012607574
0.02767884 -0.014725517 -0.009636216 0.002255841 -0.0024680283 -0.0041763596 0.007748041 -0.0045731915
-0.016550252 0.00043252946 -0.016071338 -0.01874285 -0.01223524 -0.01094567 -0.014314887 -0.015132851
0.017766962 -0.019307248 0.016166026 -0.030406235 0.004884586 0.024112988 0.02126636 -0.0072504836
0.012768894 -0.0131757315 -0.007132209 0.003982108
00000000: 0129 723c 9fbc ad3b 253f 753c 925e ea3b
00000010: d274 cfbc 8b13 85bc 7a8d 35bc 9726 8d3c
00000020: e88c 1dbc 6fd0 da3b 359d afbc 8939 aebc
00000030: 0037 16bc 16d2 6fbc ab3c 0cbc 02ad a6bc
00000040: 596f 913b 0eb4 7eba 7752 d8bb d166 57bc
00000050: 299c ce3b 3159 9b3c 7fce 52bc 6ef6 f1bb
00000060: ee89 ffbb 3bfa 11bc 33c5 d3b9 3508 813c
00000070: ac58 97bc f0d4 053b b9ac c3bc 9cf7 393c
00000080: 4512 6bbc 3df6 0f3b 9df2 66bb d62b 64bc
00000090: f20a 87bb 8ea4 b9ba 4a7a 20bc 4960 633c
000000a0: 9639 60bc 50ca 503c f47c 78bc 2468 90bb
000000b0: 1d87 e0bb 480e 053c af08 34bc bd1c e13a
000000c0: 44f0 98bc e125 b83b 8853 21bc 45fa 96bc
000000d0: bfe0 c039 348b d6bc e12d bfbb 1b03 ddba
000000e0: 5ed7 1cbc 8c29 5fbb de33 01bb 158d b7bc
000000f0: ab71 d13c 3d27 a83c dbb6 7abc eb53 1fba
00000100: d630 653a 33bc 6ebc d86e a53a 6770 4ebc
00000110: 331e 633c bbd0 3c3c 47dd 8bbc 0090 4ebc
00000120: bcbe e23c 4b43 71bc 38e1 1dbc bbd6 133b
00000130: a5be 21bb d8d9 88bb 47e3 fd3b b6da 95bb
00000140: 6594 87bc 1fc5 e239 0aa8 83bc 9b8a 99bc
00000150: 5176 48bc 7855 33bc fd88 6abc c7ef 77bc
00000160: 058c 913c 3c2a 9ebc 9d6e 843c 7f16 f9bc
00000170: e10e a03b 9a88 c53c ca36 ae3c 7795 edbb
00000180: a034 513c 06df 57bc 4eb5 e9bb 587c 823b

classifier.1.running_mean f4 [100]
-0.9865453 -1.696153 -1.6325208 -1.5719042 -0.43939847 -2.0422425 -1.9260113 -0.56844825
-0.6088628 -0.6538689 -0.11355136 -1.1085033 -1.0124267 -0.7717334 -0.25964013 -0.58988464
-1.4922216 -0.94341874 -1.1439148 -0.45040256 -1.4780735 -0.83413476 -1.38455 -1.1020808
-0.7390254 -1.3856934 -1.0275693 -1.9961478 -1.5521243 -2.6385436 0.06666 0.4546365
-1.8602536 -0.76024723 -1.0770154 -0.8558884 -2.0224495 -1.5961614 -1.2299559 -0.9843916
-1.2638606 -0.33554256 -0.98254114 -1.3055147 -0.72581357 -2.042035 -0.59693676 -0.6882936
-1.7553587 -0.9825389 -1.5166117 -1.4654294 -0.3258781 -1.9947138 -1.2320529 -0.6119609
-1.6334443 -1.1300678 -0.3958688 -0.46483955 -0.36627236 -1.6370853 -0.5576752 -0.793535
-1.7582854 -0.47719738 -1.5595999 -0.8110583 -0.16990247 -0.9521433 -1.7877613 -1.6573325
-0.9532366 -1.4044191 -1.3027229 -1.2822262 -1.8127637 -1.3040172 -1.4981856 -1.4958603
-0.8226432 -1.227718 -2.02084 -1.0197825 -1.053236 -2.0304422 -0.9172442 -0.8748129
-2.2112215 -1.4995191 -1.1701685 -1.3560591 -1.4311813 -1.1753519 -1.0509259 -1.5397047
-0.79144466 -0.6756726 -2.2554727 -1.249184
00000000: 3c8e 7cbf 8b1b d9bf 71f6 d0bf 2834 c9bf
00000010: d6f8 e0be 1ab4 02c0 8a87 f6bf d385 11bf
00000020: 6fde 1bbf f463 27bf 9e8d e8bd 70e3 8dbf
00000030: 3397 81bf 5290 45bf 8def 84be ae02 17bf
00000040: 1e01 bfbf e483 71bf cd6b 92bf 2a9b e6be
00000050: 8331 bdbf db89 55bf ef38 b1bf fc10 8dbf
00000060: c530 3dbf 675e b1bf 6487 83bf c581 ffbf
00000070: 02ac c6bf e6dd 28c0 0a85 883d 1ec6 e83e
00000080: ca1c eebf 909f 42bf a4db 89bf 811b 5bbf
00000090: d06f 01c0 044f ccbf 326f 9dbf 1701 7cbf
000000a0: 2fc6 a1bf 3ccc abbe d187 7bbf 1b1b a7bf
000000b0: ebce 39bf b4b0 02c0 d9d0 18bf 0234 30bf
000000c0: 98af e0bf ab87 7bbf 5520 c2bf 3193 bbbf
000000d0: 7fd9 a6be c852 ffbf e9b3 9dbf 78a9 1cbf
000000e0: b414 d1bf 10a6 90bf 51af cabe 73ff edbe
000000f0: 0d88 bbbe 038c d1bf cdc3 0ebf 1c25 4bbf
00000100: 7f0f e1bf 3753 f4be f8a0 c7bf 84a1 4fbf
00000110: eafa 2dbe aabf 73bf 5dd5 e4bf 7923 d4bf
00000120: 5007 74bf 01c4 b3bf a0bf a6bf fd1f a4bf
00000130: a408 e8bf 09ea a6bf 8cc4 bfbf 5a78 bfbf
00000140: bf98 52bf dd25 9dbf 7155 01c0 3c88 82bf
00000150: 70d0 86bf c4f2 01c0 84d0 6abf bdf3 5fbf
00000160: a784 0dc0 3ef0 bfbf 15c8 95bf 5893 adbf
00000170: f330 b7bf ee71 96bf bd84 86bf 0b15 c5bf
00000180: 1e9c 4abf e1f8 2cbf aa59 10c0 43e5 9fbf

classifier.1.running_var f4 [100]
2.0572853 2.4305968 1.9112451 2.1297116 1.1192412 1.736528 1.8752351 1.6519679
1.1496978 1.7983712 1.1856537 2.935089 2.4885895 1.4184421 2.2264297 1.2178016
1.6747974 1.6855642 1.8409274 0.88949865 1.4628408 2.6143045 2.3325894 1.3630182
2.5792027 2.2390301 2.0713034 1.8940144 1.378915 2.990547 1.531414 1.3282657
2.3971653 2.4048815 1.9187293 2.3410196 1.6873173 1.9550962 1.8413262 2.5002081
1.4415609 2.782632 2.366613 1.4730558 1.8987987 1.7565918 1.9834841 1.97998
2.1578097 2.1164548 1.5097513 1.7807513 1.3932626 2.0814745 2.319294 1.9293964
2.7431157 1.4193951 1.644648 1.8492838 1.6498605 1.6655089 1.175402 1.952245
1.9307601 2.7065423 2.2749066 1.7916024 1.8944037 1.3463806 2.7580898 2.0641973
1.8868232 1.8801893 2.0730395 1.4248103 1.7941947 2.2073128 1.713532 2.3733592
1.3907938 1.7237977 2.8407524 1.4952866 2.4663506 1.741252 1.710289 1.9336616
2.1974692 2.241404 2.7766724 1.3287835 1.7892485 2.0065386 1.9661137 1.3050785
2.2204962 2.3502076 1.7592342 2.1448083
00000000: 90aa 0340 e68e 1b40 aea3 f43f 324d 0840
00000010: 4c43 8f3f 8d46 de3f b407 f03f af73 d33f
00000020: 4c29 933f 0731 e63f 80c3 973f 80d8 3b40
00000030: 0d45 1f40 838f b53f d37d 0e40 ece0 9b3f
00000040: c35f d63f 91c0 d73f 82a3 eb3f 2fb6 633f
00000050: 5e3e bb3f c450 2740 2549 1540 6177 ae3f
00000060: a811 2540 454c 0f40 3c90 0440 106f f23f
00000070: 4980 b03f 1f65 3f40 6005 c43f 9c04 aa3f
00000080: 286b 1940 94e9 1940 ec98 f53f 44d3 1540
00000090: 03fa d73f 9840 fa3f 94b0 eb3f 6903 2040
000000a0: 1185 b83f a516 3240 9676 1740 188d bc3f
000000b0: d60b f33f 00d8 e03f cfe2 fd3f fc6f fd3f
000000c0: 8e19 0a40 ff73 0740 883f c13f a9ef e33f
000000d0: 6e56 b23f e136 0540 506f 1440 76f6 f63f
000000e0: 358f 2f40 bdae b53f d383 d23f 55b5 ec3f
000000f0: a12e d33f 652f d53f 9373 963f 2ae3 f93f
00000100: 2623 f73f fd37 2d40 1298 1140 3a53 e53f
00000110: d27b f23f 3356 ac3f 8b84 3040 cf1b 0440
00000120: 6c83 f13f 0baa f03f aeac 0440 2f60 b63f
00000130: 2ca8 e53f 9d44 0d40 0455 db3f 1ee5 1740
00000140: 8805 b23f 67a5 dc3f e3ce 3540 8d65 bf3f
00000150: b0d8 1d40 58e1 de3f c0ea da3f 3982 f73f
00000160: 56a3 0c40 2a73 0f40 00b5 3140 9415 aa3f
00000170: 1806 e53f 216b 0040 9da9 fb3f d00c a73f
00000180: 9c1c 0e40 cd69 1640 962e e13f 8a44 0940

classifier.3.weight f4 [100, 100]
-0.06828678 -0.104058705 0.09117157 -0.019104855 0.010455194 -0.025871672 -0.048916142 -0.023418115
0.04548353 0.00012012245 0.027807469 0.08785743 0.05922774 0.04081187 -0.08866195 -0.034272052
-0.003664938 -0.06466351 -0.027716331 -0.0112541225 0.1062878 -0.01682596 0.080780074 0.06860608
-0.08111474 0.05769278 0.062819265 -0.014820102 0.015176842 -0.010494809 0.056083146 0.08658752
-0.074796975 0.07239204 -0.07988491 0.024573587 0.03625731 0.0065767136 0.085056834 -0.10457608
-0.016014202 -0.0041119745 -0.017089443 0.054802608 -0.0528966 -0.040714286 0.06582732 -0.016430998
0.035940487 0.0009948217 -0.033358246 0.046747927 0.058002368 0.029308472 -0.028394017 0.07314898
0.10863321 0.010390621 -0.055371117 -0.017363632 0.026995275 -0.08691497 -0.0031198082 0.054700524
-0.008918014 0.09674689 0.0595166 -0.0045974357 0.018460145 0.007187591 -0.039865557 0.009357344
-0.086057015 -0.06505603 -0.048448205 -0.002322158 -0.008161055 -0.09469289 0.0011288188 -0.04221852
-0.029767413 -0.056309123 0.07498199 0.033353083 -0.06840528 0.07716107 0.053218976 0.07432156
-0.05952508 0.0058545517 -0.032825302 0.030776072 -0.057197955 -0.04765977 -0.039328743 -0.0165364
0.10464794 -0.018374741 0.046033587 0.098319404 -0.03241501 0.090613455 -0.016415229 -0.08620804
-0.005351746 0.06490088 -0.0071240854 0.020187197 -0.04615144 0.034674477 -0.06824997 0.023453869
-0.014036176 0.06100156 -0.022397272 0.073330596 0.13029864 0.0640255 -0.06316041 0.023472354
-0.05376045 -0.09890807 0.021832436 0.077080086 -0.08950808 0.027922563 0.00065314636 0.0046511577
-0.048918296 -0.062025193 -0.0429519 0.06994956 -0.010877189 -0.04545427 -0.064199895 -0.058508255
0.037600044 -0.03170733 -0.03408542 0.015616494 0.01581343 0.05922129 -0.05466216 0.07830972
-0.08159532 0.04004135 0.038990468 0.056962695 -0.045379683 0.10754842 0.08186425 0.036168233
0.01002983 0.043996654 0.05619339 0.07498479 -0.035686992 0.0379169 0.09433119 0.010527069
0.048476882 0.07251107 0.08219868 0.004306369 0.06262829 -0.06222039 -0.07392516 0.08978501
0.0051647513 0.07996544 -0.013029244 0.031500764 -0.029697673 -0.0027963417 -0.061932355 -0.08309091
0.046958867 0.02567295 -0.088790916 0.06791121 0.040530253 -0.05765502 0.032917935 0.026514715
-0.029279016 0.014691742 -0.08706096 -0.005370964 0.062913336 0.028806476 -0.061197683 0.032332845
-0.020873269 0.03424912 -0.03285775 0.010968151 -0.069808826 -0.06404232 0.06733478 -0.015111649
0.009604335 0.047563814 0.0541332 -0.12187382 -0.037669633 -0.041696567 -0.062235482 -0.037690785
0.018022737 -0.022335138 0.020234244 -0.10947593 -0.08779215 -0.032401685 -0.085401736 0.054475173
0.0579933 -0.019477034 0.057092093 0.032265693 -0.004175562 0.0841488 0.033439044 -0.017609376
-0.09512668 -0.034629717 0.046865918 -0.027175978 0.049805697 0.036443017 0.06794025 -0.071779825
-0.08317475 -0.018872257 -0.048134208 0.04235527 -0.05305607 0.015354097 0.0112589365 0.019662566
-0.03463614 -0.014189877 -0.0007831491 -0.021730741 0.013212923 0.056978144 0.030478112 0.10287973
-0.021393131 -0.045672175 -0.016223822 -0.017574057 -0.034218077 0.08727558 0.07631537 0.05566366
00000000: f0d9 8bbd bb1c d5bd 29b8 ba3d c981 9cbc
00000010: 434c 2b3c d4f0 d3bc 4b5c 48bd 59d7 bfbc
00000020: f04c 3a3d 40ea fb38 7dcc e33c 99ee b33d
00000030: c998 723d 592a 273d 6594 b5bd da60 0cbd
00000040: 752f 70bb 4d6e 84bd 5c0d e3bc 3663 38bc
00000050: 6bad d93d 98d6 89bc 0670 a53d 5881 8c3d
00000060: 7c1f a6bd 444f 6c3d 63a7 803d 03d0 72bc
00000070: 4aa8 783c 6bf2 2bbc 71b7 653d cc54 b13d
00000080: 282f 99bd 4742 943d b39a a3bd 8c4e c93c
00000090: 8c82 143d 7981 d73b 4732 ae3d fc2b d6bd
000000a0: 3730 83bc bebd 86bb 29ff 8bbc b378 603d
000000b0: 1baa 58bd 06c4 26bd 79d0 863d 4d9a 86bc
000000c0: 5536 133d ad64 823a a8a2 08bd c17a 3f3d
000000d0: e493 6d3d 5218 f03c 929a e8bc 22cf 953d
000000e0: 177b de3d 6c3d 2a3c d3cc 62bd 2d3e 8ebc
000000f0: 3225 dd3c 7a00 b2bd b275 4cbb a80d 603d
00000100: dd1c 12bc 3c23 c63d aec7 733d 16a6 96bb
00000110: bb39 973c e285 eb3b 114a 23bd 8c4f 193c
00000120: a93e b0bd 193c 85bd a071 46bd 592f 18bb
00000130: f2b5 05bc 59ee c1bd e0f4 933a 54ed 2cbd
00000140: cada f3bc 65a4 66bd 2890 993d 3e9d 083d
00000150: 1118 8cbd a006 9e3d 24fc 593d e735 983d
00000160: 92d0 73bd 8ad7 bf3b d373 06bd 1a1e fc3c
00000170: 6748 6abd e436 43bd 2d17 21bd 5877 87bc
00000180: a951 d63d a086 96bc b78d 3c3d af5b c93d
00000190: 9ac5 04bd 8c93 b93d 3b79 86bc d78d b0bd
000001a0: b35d afbb c1ea 843d 2971 e9bb 9f5f a53c
000001b0: 4b09 3dbd d306 0e3d a4c6 8bbd 5422 c03c
000001c0: fdf7 65bc c6dc 793d 7c7a b7bc 5a2e 963d
000001d0: 026d 053e cd1f 833d 3f5a 81bd 1849 c03c
000001e0: eb33 5cbd 5090 cabd f0d9 b23c 2adc 9d3d
000001f0: 0350 b7bd dcbd e43c e937 2b3a bd68 983b
00000200: 8d5e 48bd 210e 7ebd 55ee 2fbd b741 8f3d
00000210: 3d36 32bc 422e 3abd 3c7b 83bd 5aa6 6fbd
00000220: 8102 1a3d 8cdf 01bd 279d 0bbd 53dc 7f3c
00000230: 2b8b 813c 0692 723d 6ee5 5fbd d960 a03d
00000240: 721b a7bd 6602 243d 78b4 1f3d b751 693d
00000250: 0ce0 39bd 5942 dc3d 72a8 a73d 2425 143d
00000260: 2854 243c d635 343d 0a2b 663d a091 993d
00000270: 862c 12bd c04e 1b3d b630 c13d ba79 2c3c
00000280: b28f 463d af80 943d c857 a83d 711c 8d3b
00000290: 4343 803d cfda 7ebd 1366 97bd 34e1 b73d
000002a0: 133d a93b ecc4 a33d 9c78 55bc f206 013d
000002b0: 8948 f3bc d442 37bb c8ac 7dbd 912b aabd
000002c0: f157 403d 1450 d23c 03d8 b5bd 0815 8b3d
000002d0: 0d03 263d ac27 6cbd f5d4 063d 6335 d93c
000002e0: 8cda efbc a2b5 703c 044d b2bd e9fe afbb
000002f0: b5d8 803d 8ffb eb3c 6caa 7abd 726f 043d
00000300: 6bfe aabc ce48 0c3d d995 06bd c2b3 333c
00000310: eef7 8ebd 9f28 83bd d1e6 893d da96 77bc
00000320: 805b 1d3c 46d2 423d c6ba 5d3d fb98 f9bd
00000330: 794b 1abd 05ca 2abd a2ea 7ebd a761 1abd
00000340: 6ba4 933c 2ef8 b6bc 49c2 a53c eb34 e0bd
00000350: 5fcc b3bd a1b7 04bd 1be7 aebd 5c21 5f3d
00000360: 628a 6d3d 4d8e 9fbc 66d9 693d 0829 043d
00000370: 27d3 88bb 3556 ac3d 61f7 083d 8a41 90bc
00000380: c7d1 c2bd e4d7 0dbd 7af6 3f3d 28a0 debc
00000390: 0f01 4c3d 4645 153d 4224 8b3d 4d01 93bd
000003a0: 8657 aabd fe99 9abc 6028 45bd b87c 2d3d
000003b0: 5251 59bd c08f 7b3c 6777 383c 6413 a13c
000003c0: a0de 0dbd a87c 68bc 3f4c 4dba ab04 b2bc
000003d0: 047b 583c ea61 693d 3cad f93c 9cb2 d23d
000003e0: a640 afbc bf12 3bbd d2e7 84bc 78f7 8fbc
000003f0: 4128 0cbd 8abd b23d 3c4b 9c3d 94ff 633d

classifier.3.bias f4 [100]
-0.044701137 -0.021453038 -0.009472311 -0.025849879 0.06456552 -0.059970226 0.085969694 -0.017425478
-0.080209 -0.02057822 0.023585394 0.027402587 -0.0753483 -0.03494233 -0.0796214 -0.05341928
0.07360991 -0.04473443 0.08127669 -0.08862189 0.093179904 -0.058148563 0.016445972 -0.087165914
0.040365763 -0.08621659 0.07204089 0.06981904 0.08616901 -0.080166504 0.09579729 0.053961895
0.08532589 0.027437694 0.0017579844 -0.041141666 -0.09929284 -0.004902795 0.076071866 0.04633247
0.019316897 -0.017485693 -0.03325679 0.021790609 -0.084494494 -0.0061612874 0.021601006 0.037210025
-0.07066251 -0.053612817 -0.08804315 -0.054261636 0.023898862 -0.078334585 0.040392347 -0.0325125
-0.038491488 0.07360429 0.008201316 0.036693327 0.056377716 0.020752572 0.089616485 0.05218322
-0.048301745 -0.036202766 -0.04219842 0.011571147 -0.06106129 0.030189358 0.07049177 -0.04478413
-0.05633768 -0.047676813 0.05976317 0.07358105 0.07062445 -0.055520903 0.028569408 -0.020023622
0.057804294 0.024949692 0.033596836 0.031187706 0.09998547 -0.06396357 0.017437473 -0.09418936
0.022103108 0.08631996 -0.017334223 -0.007632097 -0.07478364 0.06741274 -0.071639076 0.035999484
-0.030557096 0.060105346 -0.036374167 0.056563698
00000000: 8a18 37bd 48be afbc c031 1bbc 20c3 d3bc
00000010: ed3a 843d 57a3 75bd e110 b03d e0bf 8ebc
00000020: 9e44 a4bd a893 a8bc 2836 c13c 647b e03c
00000030: 3650 9abd b01f 0fbd 8b10 a3bd 2dce 5abd
00000040: cbc0 963d 733b 37bd 6574 a63d 657f b5bd
00000050: 1bd5 be3d 302d 6ebd b4b9 863c 0b84 b2bd
00000060: 9256 253d 5392 b0bd 2d8a 933d 49fd 8e3d
00000070: 6179 b03d 562e a4bd 5f31 c43d 2607 5d3d
00000080: 57bf ae3d 04c5 e03c 2b6c e63a 2a84 28bd
00000090: 0b5a cbbd a0a7 a0bb 91cb 9b3d 1ec7 3d3d
000000a0: 783e 9e3c 283e 8fbc 4638 08bd 3882 b23c
000000b0: 730b adbd a0e4 c9bb 98f4 b03c 8a69 183d
000000c0: 82b7 90bd 1d99 5bbd f84f b4bd 7341 5ebd
000000d0: 8cc7 c33c e26d a0bd 7272 253d d42b 05bd
000000e0: 40a9 1dbd d9bd 963d d05e 063c be4b 163d
000000f0: 52ec 663d 4c01 aa3c d988 b73d 12be 553d
00000100: 0dd8 45bd 5a49 14bd 40d8 2cbd e894 3d3c
00000110: 671b 7abd ac4f f73c fd5d 903d 906f 37bd
00000120: 57c2 66bd c348 43bd 3aca 743d a9b1 963d
00000130: 8da3 903d e369 63bd 640a ea3c 9408 a4bc
00000140: 32c4 6c3d 4c63 cc3c d69c 093d 5c7d ff3c
00000150: 2fc5 cc3d 55ff 82bd 08d9 8e3c 5ae6 c0bd
00000160: 9411 b53c 85c8 b03d 8000 8ebc ac16 fabb
00000170: 2a28 99bd b10f 8a3d 82b7 92bd 3274 133d
00000180: e052 fabc 0631 763d 14fd 14bd 56af 673d
