trained_params/SVHN-MNIST-cnst-LR-v3_1000_model_last.pth (torch, 843111 bytes, 34 tensors)

feature.0.weight f4 [32, 3, 5, 5]
0	0xbd9281cc	-0.07153663
1	0x3da882f0	0.08228099
2	0x3dc8038f	0.09766304
3	0x3ba1460b	0.00492168
4	0x3da4dd1c	0.08049986
5	0x3e7c9d4d	0.2466938
6	0x3e6f25c9	0.23354258
7	0x3e2c4619	0.16823615
8	0x3ea9cf67	0.33166048
9	0x3e92585a	0.28583032
10	0xbcb18695	-0.021670619
11	0xbbafd3d8	-0.00536583
12	0x3d8b7794	0.06809917
13	0x3c9180d4	0.017761625
14	0xbaec1297	-0.0018010911
15	0xbde09c14	-0.109672695
16	0xbe483e89	-0.19555105
17	0xbe088140	-0.13330555
18	0xbe6910d1	-0.22760321
19	0xbe3af7ee	-0.1825864
20	0xbad854e0	-0.0016504787
21	0xbcdbde22	-0.02683932
22	0xbdf48988	-0.119402945
23	0xbe9b514f	-0.3033547
24	0xbdaac525	-0.083383836
25	0xbd5894aa	-0.052876152
26	0x3dcb13d8	0.09915894
27	0x3dd2ac1b	0.10286733
28	0x3dad93dd	0.08475468
29	0x3e4df036	0.20111164
30	0x3e43d933	0.19125824
31	0x3e9cc543	0.3061925
32	0x3e888717	0.26665565
33	0x3e899545	0.26871696
34	0x3e60faa4	0.21970612
35	0x3da8c91e	0.08241485
36	0xbca572e5	-0.020196388
37	0x3da378d3	0.0798203
38	0x3e30c21f	0.17261551
39	0x3e2127e5	0.15737875
40	0xbcd77868	-0.026302531
41	0xbe284e31	-0.16436078
42	0xbe68b951	-0.22726943
43	0xbe56fb34	-0.20994264
44	0xbe405689	-0.1878301
45	0xbe1e7784	-0.15475279
46	0xbe648274	-0.22315389
47	0xbeb08cc2	-0.3448239
48	0xbeb1b876	-0.34711045
49	0xbe8f63a6	-0.28005713
50	0xbd995db4	-0.074885756
51	0xbcb52b89	-0.022115486
52	0x3d1e31bd	0.038621653
53	0x3da38d8a	0.07985981
54	0xbd2867e3	-0.0411147
55	0x3d3ce5b8	0.046117514
56	0x3e28b2d7	0.16474472
57	0x3e5f6ff8	0.21820056
58	0x3e3b4972	0.18289736
59	0x3deba18b	0.11505421
60	0x3d20634b	0.039157193
61	0x3de5f6a8	0.112286866
62	0x3e411ead	0.18859358
63	0x3e4257f8	0.1897887
64	0xbbd6a1d5	-0.0065500536
65	0xbe0c4549	-0.13698305
66	0xbe1cef3a	-0.15325633
67	0xbde84621	-0.11341501
68	0xbdef5185	-0.116854705
69	0xbdfbf982	-0.12303449
70	0xbc9fbcb6	-0.019499164
71	0xbca22bc2	-0.019796256
72	0xbe554df9	-0.20830525
73	0xbe7a7710	-0.24459481
74	0xbe1042f9	-0.14088048
75	0x3d78759b	0.060659032
76	0x3e043f18	0.12914693
77	0xbd2474ee	-0.040150575
78	0x3dfb5923	0.12272861
79	0x3da8468a	0.08216579
80	0xbd89a4db	-0.06720897
81	0xbdb0dfd1	-0.086364396
82	0x3d8689ec	0.06569275
83	0x3d71a45e	0.058994643
84	0x3cd3571c	0.025798373
85	0x3d1e408d	0.03863578
86	0xbdd94f88	-0.106108725
87	0x3b2442b5	0.0025064175
88	0x3dae2a99	0.085042186
89	0x3d1bd222	0.038042195
90	0x3dab994c	0.083788484
91	0xbe26a81a	-0.16275063
92	0xbd896aee	-0.06709848
93	0x3d17b141	0.037034277
94	0xbcd948e6	-0.026524018
95	0xbdd42d1a	-0.10360165
96	0xbd44a995	-0.04801329
97	0x3ccbbade	0.024869379
98	0xbdaa0383	-0.08301451
99	0xbd3d8110	-0.04626566
100	0x3e23abd5	0.15983517
101	0x3e0e2055	0.13879521
102	0x3d4a8c07	0.049449947
103	0x3df42555	0.11921183
104	0x3da5b5db	0.08091327
105	0x3def013c	0.11670157
106	0xbcf2fc37	-0.029661281
107	0xbd24b6da	-0.040213443
108	0x3d83bfb4	0.06433049
109	0x3b9441c8	0.0045244433
110	0x3d8c06f2	0.06837262
111	0x3a9de091	0.0012045075
112	0xbd212647	-0.039343145
113	0x3d15e78a	0.036597766
114	0xbd863997	-0.06553953
115	0x3d02560e	0.03182035
116	0x3b92a67d	0.0044754134
117	0xbd777796	-0.06041678
118	0xbda66f8e	-0.08126746
119	0x3d719102	0.05897618
120	0xbdf511f0	-0.11966312
121	0xbe0e6442	-0.13905433
122	0xbc8f6aca	-0.017506976
123	0x3d70808f	0.058716353
124	0x3bff0069	0.0077820313
125	0x3e0aead3	0.13566141
126	0x3d8b5fdc	0.06805393
127	0x3dc6617f	0.09686565
128	0x3e0dc6da	0.13845387
129	0x3c2dc04a	0.010604927
130	0x3d5c71e7	0.053819563
131	0x3d75f07d	0.0600438
132	0xbc7f968e	-0.01559986
133	0xbdd2dd69	-0.10296137
134	0x3de0c51a	0.10975094
135	0x3d5725fe	0.052526467
136	0xbe1c971f	-0.15292023
137	0xbd62b9bc	-0.05535291
138	0x3daae527	0.083444886
139	0x3d330293	0.043703627
140	0xbe00d3d4	-0.12580806
141	0xbe0a6da7	-0.13518392
142	0xbd3a24ae	-0.045445137
143	0x3d5c47c3	0.053779375
144	0x3d0334b1	0.032032672
145	0xbe19dab6	-0.15024838
146	0xbcc875ac	-0.024470173
147	0xbdcd5cae	-0.10027443
148	0x3cee9dcf	0.029127983
149	0x3ce6ccb5	0.028173784
150	0xbd96b473	-0.07358637
151	0x3ceedd14	0.029158153
152	0x3c695e01	0.014243604
153	0x3d781522	0.06056703
154	0x3cd93384	0.026513822
155	0x3dbb183a	0.0913548
156	0x3d9cd1af	0.076571815
157	0x3c95607a	0.01823448
158	0x3d81662b	0.06318315
159	0x3dd2d958	0.10295361
160	0xbca52947	-0.020161284
161	0x3cd84de5	0.02640433
162	0x3da3dd5c	0.08001205
163	0x3dfc81f7	0.12329476
164	0x3db8b625	0.09019116
165	0xbdd32832	-0.10310401
166	0x3dc20f1e	0.094755396
167	0xbd0cd974	-0.034387067
168	0x3e024791	0.12722613
169	0x3d7c1754	0.061545685
170	0xbe588d26	-0.21147594
171	0xbe22fafa	-0.15916052
172	0xbc890b2e	-0.016728964
173	0xbd12ec56	-0.03586992
174	0xbd98ec3e	-0.074669346
175	0xbe0386e9	-0.12844433
176	0xbe1fc53a	-0.1560258
177	0xbdcd3285	-0.100194015
178	0x3dfc5cef	0.12322413
179	0x3d855a49	0.06511361
180	0xbdab698f	-0.08369743
181	0x3d82a82d	0.06379733
182	0x3c8675a4	0.016413517
183	0x3c5708ea	0.013124684
184	0x3df71f37	0.12066501
185	0x3dd0ee12	0.10201658
186	0x3e0c37ec	0.13693208
187	0x3ccc6f81	0.024955513
188	0x3e16748b	0.14692895
189	0x3e0d5e71	0.13805558
190	0x3d56a657	0.052404728
191	0xbd5a931c	-0.05336295
192	0x3e204fcc	0.1565544
193	0xbd1906ce	-0.037360005
194	0x3e2a5cdc	0.16636986
195	0xbe185652	-0.14876679
196	0xbc394023	-0.011306795
197	0xbcb904d5	-0.022585312
198	0x3dac9532	0.08426894
199	0xba959756	-0.00114129
200	0xbe0c79d8	-0.13718355
201	0xbdd9fc32	-0.106438056
202	0xbd68604d	-0.056732465
203	0xbc2aff6d	-0.010436875
204	0xbe07b755	-0.1325353
205	0xbccc3356	-0.024926823
206	0x3ce98975	0.028507927
207	0x3d6ee7b9	0.058326457
208	0xbd7e70ea	-0.062119402
209	0x3cd9ab54	0.026570953
210	0xbde986b1	-0.114026435
211	0xbdc2e600	-0.09516525
212	0x3e027b4e	0.1274235
213	0x3dde3bfb	0.10851284
214	0x3b7b7001	0.003836632
215	0x3bdfa6cb	0.006825303
216	0x3d68bd15	0.056820948
217	0x3ddbaa37	0.10725825
218	0xbd903606	-0.07041554
219	0xbd6faaa8	-0.05851236
220	0x3cc5d207	0.024148
221	0x3b8441c7	0.0040361616
222	0x3d9ccc53	0.07656159
223	0xbdcc0a98	-0.09962958
224	0xbe051434	-0.12995988
225	0xbc0b7204	-0.00851107
226	0xbe05e75d	-0.1307654
227	0x3e00c70a	0.12575927
228	0x3e41eeaa	0.189387
229	0x3c766ad0	0.0150401145
230	0xbe26b334	-0.16279298
231	0x3bde4b21	0.0067838584
232	0x3c4c985f	0.0124875
233	0x3db5096c	0.08839688
234	0xbdb4deb5	-0.088315405
235	0xbe47c6f8	-0.19509494
236	0xbcdddbf7	-0.027082426
237	0x3d4b7e59	0.04968104
238	0x3e417be6	0.1889492
239	0x3d0baafd	0.034098614
240	0xbe6de7c3	-0.23232941
241	0xbd1523e6	-0.03641119
242	0xbcccd507	-0.025003923
243	0x3e6cb02c	0.23114079
244	0x3d0d2b55	0.034465153
245	0xbe79e44e	-0.24403498
246	0xbe4ada4b	-0.19809835
247	0x3df0a6cc	0.11750564
248	0x3e03810e	0.12842199
249	0x3db204aa	0.08692296
250	0xbe1fc3d4	-0.15602046
251	0xbddd868d	-0.10816679
252	0x3d626277	0.055269685
253	0x3e7e4999	0.24832763
254	0xbc301feb	-0.010749797
255	0xbd3757ed	-0.044761587

feature.0.bias f4 [32]
0	0xbd49298c	-0.049111888
1	0xbdce45d5	-0.10071913
2	0xbcf1874d	-0.029483462
3	0xbdeae15b	-0.114687644
4	0xbd739db5	-0.059476573
5	0xbd21f5bf	-0.039541002
6	0x3d5b0dec	0.053480074
7	0x3c82e368	0.015977576
8	0xbdb61334	-0.088903815
9	0xbd84e7c2	-0.06489517
10	0xbc7b93db	-0.015355076
11	0x3cc140d6	0.023590486
12	0xbd5435c2	-0.05180908
13	0xbd778e7f	-0.06043863
14	0xbd7c7846	-0.06163814
15	0x3ddb3be2	0.10704781
16	0x3d4e3b5e	0.050349586
17	0xbc95bf98	-0.018279836
18	0x3da5cff8	0.080963075
19	0x3dcc6cfa	0.09981723
20	0xbb54b4ea	-0.0032456466
21	0x3c4e3b29	0.012587347
22	0x3c0cd945	0.008596723
23	0xbd18adc2	-0.037275083
24	0x3dec3f38	0.115354955
25	0xbc5a70ea	-0.013332585
26	0x3d87a06a	0.066223934
27	0xbd809d0d	-0.06279955
28	0x3d3f27c8	0.046668798
29	0x3ccfbc90	0.025358468
30	0x3d9f3bf8	0.0777511
31	0xbd5a481a	-0.053291418

feature.1.weight f4 [32]
0	0x3f78738c	0.9705131
1	0x3f29f217	0.66385025
2	0x3f3295e9	0.69759995
3	0x3f7efb58	0.9960227
4	0x3f8a3ebc	1.0800395
5	0x3f94e2ad	1.1631676
6	0x3f4cc4c7	0.7998776
7	0x3f5267eb	0.82189816
8	0x3f60c497	0.8779997
9	0x3f6f3f17	0.9345564
10	0x3f50a38f	0.8149957
11	0x3fa99d00	1.3251038
12	0x3f53a7ab	0.82677716
13	0x3fa0fed7	1.2577771
14	0x3f7ff795	0.99987155
15	0x3f68af63	0.9089262
16	0x3f947e1e	1.1600988
17	0x3f44eb9d	0.7692202
18	0x3f246b32	0.6422607
19	0x3f62957c	0.88509345
20	0x3f8c37e4	1.0954556
21	0x3f9f7116	1.2456386
22	0x3f7cd048	0.9875531
23	0x3f770c6e	0.9650334
24	0x3fa09574	1.254561
25	0x3f8320d4	1.0244393
26	0x3f9d8e2b	1.2309011
27	0x3f901a60	1.1258049
28	0x3f719958	0.9437461
29	0x3f5a626c	0.8530643
30	0x3f39b17b	0.7253644
31	0x3f8925d3	1.0714668

feature.1.bias f4 [32]
0	0xbd2cc5bd	-0.042180765
1	0xbed7f294	-0.4217726
2	0xbd9ce097	-0.076600246
3	0xbd1180db	-0.035523277
4	0xbe1d0690	-0.15334535
5	0xbd30b639	-0.04314253
6	0xbc9e16dd	-0.019298011
7	0xbca93c43	-0.020658618
8	0xbe40ebcb	-0.18839948
9	0xbda0f134	-0.07858506
10	0xbd6028b0	-0.054726303
11	0xbdb913c7	-0.09036975
12	0xbeb546b1	-0.35405496
13	0xbe370100	-0.17871475
14	0xbc7cb3bd	-0.015423712
15	0xbe420ed5	-0.1895097
16	0xbd425a53	-0.04744942
17	0xbec79a02	-0.38984686
18	0xbe71f988	-0.23630345
19	0xbdc4de3c	-0.096127
20	0xbde0bcf1	-0.10973538
21	0xbe50bab2	-0.20383719
22	0xbe35e05c	-0.17761368
23	0xbdd2a613	-0.102855824
24	0xbe338198	-0.17529905
25	0xbeaafa39	-0.3339403
26	0xbe10e3e3	-0.14149432
27	0xbd2aa67b	-0.041662674
28	0xbec83af1	-0.3910747
29	0xbf175b67	-0.59123844
30	0xbf00a640	-0.5025368
31	0xbd8a983b	-0.06767317

feature.1.running_mean f4 [32]
0	0xbd9279eb	-0.0715216
1	0xbea3c084	-0.31982815
2	0xbe8a100d	-0.2696537
3	0xbd88eaf7	-0.06685441
4	0xbd9274a6	-0.07151155
5	0xbd80c3ef	-0.06287371
6	0xbcdf3e87	-0.027251495
7	0x3c161faa	0.009162823
8	0xbcfc7bdf	-0.030820785
9	0xbd6c8557	-0.05774435
10	0xbd0e0712	-0.03467471
11	0x3d568777	0.052375283
12	0x3d29e57c	0.04147862
13	0xbd85b718	-0.06529063
14	0xbdad2897	-0.084550075
15	0x3dd68f8c	0.10476598
16	0x3cd160ae	0.025558796
17	0x3ea2b6c0	0.31780052
18	0x3e5994c8	0.21248162
19	0x3dc62d06	0.09676556
20	0x3cdeb72e	0.027186956
21	0xbd1a5cae	-0.037686042
22	0x39b61137	0.0003472657
23	0xbd3afd88	-0.045651942
24	0x3e1b3267	0.15155946
25	0xbd4059ca	-0.04696063
26	0x3dc49128	0.09597999
27	0x3c9af5c4	0.018916018
28	0x3dea6df0	0.1144675
29	0x3e5bed2d	0.21477194
30	0x3c42912c	0.011875432
31	0xbca43754	-0.020045914

feature.1.running_var f4 [32]
0	0x406da2d5	3.7130635
1	0x3effcd93	0.49961528
2	0x3efd224b	0.49440226
3	0x40175b54	2.3649492
4	0x4002db96	2.0446525
5	0x4005ddb8	2.0916576
6	0x3f924b8e	1.1429307
7	0x3fb4ed5d	1.4134938
8	0x3f85ed3b	1.0463022
9	0x3f5e53d8	0.86846685
10	0x4024574b	2.567828
11	0x40c1ed8a	6.0602465
12	0x3f14120c	0.5784004
13	0x403b262a	2.9242043
14	0x3fea1643	1.8288044
15	0x3fa50633	1.2892517
16	0x402de31c	2.7169867
17	0x3ed224b6	0.41043633
18	0x3eaa890d	0.33307686
19	0x402cab5e	2.6979594
20	0x3fb845ff	1.4396361
21	0x405a504d	3.4111512
22	0x3fb0f63e	1.3825147
23	0x3fd59639	1.6686469
24	0x409eb9b1	4.9601674
25	0x3f87dbca	1.0613949
26	0x4033baa0	2.8082657
27	0x4043cdf0	3.0594444
28	0x3f92b656	1.1461895
29	0x3f39670b	0.72422856
30	0x3ed49efa	0.4152754
31	0x402a67a9	2.662577

feature.4.weight f4 [48, 32, 5, 5]
0	0xbc8b912e	-0.017037
1	0xbd47919c	-0.04872285
2	0xbc994a2e	-0.01871213
3	0x3dc99a7b	0.09843918
4	0x3dfabfd9	0.12243623
5	0x3ca47ab5	0.020078043
6	0x3d17b5ca	0.037038602
7	0x3cac6d38	0.021048173
8	0x3d844601	0.06458665
9	0x3caa8f5d	0.020820314
10	0x3c0fcd41	0.008776964
11	0x3d19a3f4	0.037509874
12	0x3d9fcd57	0.07802837
13	0x3dcb7674	0.099347025
14	0x3d592680	0.053015232
15	0x3d3356fa	0.04378412
16	0x3d8b2091	0.06793321
17	0x3d0d900d	0.034561206
18	0x3c21ef2c	0.009883683
19	0x3ce7b5a6	0.028284859
20	0xbcfffe14	-0.031249084
21	0xbc3167b5	-0.010827948
22	0x3c994328	0.01870878
23	0xbd5e7582	-0.054311283
24	0x3d91a88c	0.07112226
25	0x3c0d3c30	0.008620307
26	0x3c8f9f3c	0.017531984
27	0x3c0912c5	0.008366291
28	0xbd27ad83	-0.040936958
29	0xbca26fc2	-0.01982868
30	0x3d225b17	0.03963765
31	0x3ce48199	0.027893828
32	0xbc23d007	-0.009998328
33	0xbd2a22bf	-0.041537043
34	0xbcbd3a37	-0.023099048
35	0x3c3ccbd1	0.011523203
36	0xbcb14b98	-0.021642491
37	0x3c9ff22c	0.019524656
38	0x3c3465b8	0.01101058
39	0x3cbada32	0.022809122
40	0x3ca44192	0.020050798
41	0xbcac2003	-0.021011358
42	0xba99adf2	-0.0011724813
43	0xbc70fd38	-0.01470881
44	0xbcac85b0	-0.02105984
45	0xbc82a043	-0.01594556
46	0xbb0503c0	-0.0020296425
47	0x3bd318ed	0.0064421804
48	0x3c89856c	0.016787253
49	0x3c2951cd	0.010334444
50	0x3cac3708	0.021022335
51	0x3d3a8ab8	0.04554245
52	0x3d19cc09	0.0375481
53	0xbab1a959	-0.0013554498
54	0xbb470915	-0.0030370404
55	0x3d463728	0.048392445
56	0x3d034de1	0.032056693
57	0x3d837545	0.06418852
58	0xbc767663	-0.015042874
59	0x3bdf6cba	0.006818381
60	0xbc3d8de8	-0.011569478
61	0x3c61b27b	0.013775463
62	0x3b85100a	0.00406075
63	0xbcba2a10	-0.022725135
64	0xbcfe3791	-0.031032356
65	0xbcbd5d89	-0.02311589
66	0x3cae637e	0.021287676
67	0xbab29836	-0.0013625685
68	0x3a8731c6	0.0010314516
69	0x3d1e2dfe	0.03861808
70	0x3d237b2a	0.03991238
71	0x3ceffec1	0.02929628
72	0x3c812bdf	0.01576799
73	0xbb52543c	-0.0032093665
74	0x3b98786b	0.004653027
75	0x3d2329ff	0.039834972
76	0x3d70d138	0.058793277
77	0x3a36bcc4	0.00069708773
78	0xbe2ca82b	-0.16861026
79	0xbe25d8f6	-0.16196045
80	0xbbc9974f	-0.0061520706
81	0x3c8ed0f2	0.017433617
82	0xbd290c78	-0.041271657
83	0xbe042ff6	-0.1290892
84	0xbdf1c837	-0.11805766
85	0xbca09ca1	-0.019605936
86	0xbd6d0d7e	-0.057874195
87	0xbddb4ac4	-0.1070762
88	0xbda73548	-0.081644595
89	0xbca50326	-0.020143103
90	0x3a9874e5	0.0011631517
91	0xbd6a38c7	-0.057183053
92	0xbd7daa9f	-0.061930295
93	0xbc9a8dcd	-0.018866444
94	0x3d002a04	0.03129007
95	0xbd34d8d4	-0.044152096
96	0x3c8485ae	0.016177025
97	0x3c0bffcf	0.008544876
98	0x3d841e70	0.06451118
99	0x3d2eadee	0.04264634
100	0x3d543504	0.051808372
101	0xbd157a8b	-0.03649382
102	0x3ca9249b	0.020647338
103	0x3ba59dd0	0.005054213
104	0xbd7b96b9	-0.061423037
105	0x3d84845b	0.06470557
106	0xbc583f26	-0.0131986495
107	0x3c910cc2	0.017706279
108	0x3bbc9bc7	0.005755875
109	0xbd6f5609	-0.05843166
110	0x3d42c871	0.047554437
111	0x3c8abaf4	0.01693485
112	0xbc635ac9	-0.013876625
113	0xbd532a19	-0.05155382
114	0xbd96f16f	-0.073702686
115	0x3cade6ac	0.021228157
116	0x3d36641c	0.044529065
117	0x3d4d5b65	0.05013599
118	0xbd127368	-0.03575459
119	0xbcf1bb79	-0.02950834
120	0x3c2fb038	0.010723166
121	0xbbbbb8a0	-0.005728796
122	0x3c1f0db9	0.009707862
123	0x3d528474	0.05139585
124	0x3dfce598	0.12348479
125	0x3cb7e546	0.022448193
126	0x3daf105b	0.085480414
127	0x3dddccb7	0.10830062
128	0x3ca5874a	0.020206112
129	0xbcd579d4	-0.026059069
130	0xbcf9ea6d	-0.03050729
131	0x3c742d51	0.014903382
132	0xbd74c0a1	-0.059754018
133	0xbe423c22	-0.18968251
134	0xbd86f2d7	-0.06589287
135	0x3c7d95de	0.015477626
136	0xbd0fae89	-0.03507856
137	0xbda1b638	-0.078960836
138	0xbe0ea933	-0.13931732
139	0xbd4f3e00	-0.050596237
140	0xbc585b17	-0.013205311
141	0xbd85e294	-0.06537357
142	0xbdb73623	-0.08945873
143	0xbdf30aa5	-0.11867265
144	0x3ba8e104	0.005153777
145	0xbb8c3617	-0.004278909
146	0xbc6c3bf2	-0.014418589
147	0xbc1c60c3	-0.009544554
148	0x3cdf2ec1	0.027243974
149	0x3d0dc8cc	0.034615323
150	0xbd42c952	-0.047555275
151	0x3d7a4bfb	0.061107617
152	0x3c5cb9f5	0.01347207
153	0xbc257702	-0.010099174
154	0xbd44789a	-0.047966577
155	0x3cef55a7	0.029215647
156	0xbcc04172	-0.023468707
157	0xbcb0e2a8	-0.021592453
158	0xbd9b4cc4	-0.07583001
159	0xbdb502bd	-0.08838413
160	0xbd16c25d	-0.036806453
161	0x3cb9895b	0.022648504
162	0xbd68738d	-0.056750823
163	0xbd4d3d23	-0.050107133
164	0xbccf6b0e	-0.025319602
165	0xbd347e7e	-0.044065945
166	0xbc221ccb	-0.00989456
167	0xbd391fda	-0.04519639
168	0xbd25ac4a	-0.04044751
169	0x3c19fe9b	0.009399082
170	0x3c6afbd1	0.014342264
171	0xbbd79db2	-0.006580078
172	0x3d847216	0.06467073
173	0x3d4cdedc	0.050017223
174	0xbcc501b4	-0.024048664
175	0xbd219547	-0.039449003
176	0x3d0f2250	0.034944832
177	0x3c8c2087	0.017105354
178	0xbbe8659b	-0.0070921904
179	0x3c3a93cb	0.011387776
180	0xbc9f913f	-0.019478438
181	0x3c803db2	0.015654419
182	0xbd22cdfb	-0.03974722
183	0xbd89feb1	-0.06738032
184	0xbc67a2e2	-0.014137955
185	0xbcb21a34	-0.02174101
186	0xbca8a7f0	-0.020587891
187	0xbc57037f	-0.013123392
188	0xbcd4bc88	-0.025968805
189	0xbc078927	-0.008272446
190	0xbcd2a47e	-0.025713202
191	0xbce1e655	-0.027575651
192	0xbc553627	-0.013013399
193	0x3cc5fce4	0.02416844
194	0xbc47a617	-0.012185595
195	0xbbcfe032	-0.006343865
196	0x3d18c9a4	0.037301674
197	0x3c994366	0.018708896
198	0x3cfcea9b	0.030873587
199	0xbc185c9f	-0.009299426
200	0x3c3b85bb	0.011445458
201	0x3d276404	0.040866867
202	0x3cf3d449	0.029764311
203	0xbd4c4d3f	-0.049878355
204	0xbdaed516	-0.08536737
205	0x3d4621ff	0.048372265
206	0x3c12e986	0.008966809
207	0xbd507481	-0.050892357
208	0xbdd4558a	-0.10367878
209	0xbdd3a6e9	-0.1033457
210	0x3c7a32a0	0.015270859
211	0xbbaa2c3d	-0.005193262
212	0xbd87265b	-0.065991126
213	0xbdb76215	-0.089542545
214	0xbd8cb5ad	-0.068705894
215	0xbd3d9178	-0.046281308
216	0xbc3b2e77	-0.011424652
217	0xbd145c47	-0.036220815
218	0xbb5a3699	-0.0033296703
219	0x3ab72d48	0.0013975287
220	0xbc5e6713	-0.0135743795
221	0x3c9b407d	0.018951649
222	0x3d1db0ba	0.038498618
223	0xbca7122c	-0.020394407
224	0xbcc89854	-0.024486698
225	0xbcedf777	-0.029048664
226	0x3d48f45a	0.049061157
227	0x3da16b69	0.07881815
228	0x3c27805d	0.010223475
229	0xbdc9c059	-0.098511405
230	0xbb89e54c	-0.0042082425
231	0x3d30d5bb	0.04317258
232	0xbd805b42	-0.06267406
233	0xbd9162a4	-0.07098892
234	0xbda03b2b	-0.078237854
235	0xbc056f78	-0.008144252
236	0xbb80d8af	-0.0039320807
237	0xbd3908d0	-0.04517442
238	0xbde90a2a	-0.11378892
239	0xbd67ce96	-0.0565935
240	0xbc2c1bff	-0.010504722
241	0xbcf6aa73	-0.030110573
242	0xbdb4e9c7	-0.08833652
243	0xbce3aa5a	-0.02779119
244	0xbce9b1cb	-0.028527161
245	0xbcf1090d	-0.029423261
246	0xbd26a71a	-0.040686704
247	0xbba5ed42	-0.0050636837
248	0x3cdb1c20	0.02674681
249	0x3d0d29c7	0.03446367
250	0xbd336482	-0.043797024
251	0xbd81508e	-0.06314193
252	0xbd172649	-0.036901746
253	0xbc346dac	-0.011012476
254	0x3de660a6	0.11248903
255	0x3d35589b	0.044273954

feature.4.bias f4 [48]
0	0x3d0bdb9d	0.034144986
1	0x3bfa7b70	0.0076441094
2	0x3bf49648	0.007464204
3	0x3c5d67ec	0.013513546
4	0x3cb714ec	0.022348844
5	0xbc303570	-0.010754928
6	0xbd0fc339	-0.03509829
7	0x3d08a971	0.033364717
8	0x3b68acfb	0.0035503495
9	0xbbfebf94	-0.0077743027
10	0xbcb326b4	-0.021869041
11	0xbb777d3e	-0.003776386
12	0x3cde3004	0.027122505
13	0x3c9ced1c	0.019156031
14	0xbcd7b1d0	-0.026329905
15	0xbca650a0	-0.020302117
16	0xbbbf6614	-0.005841026
17	0x3cb2e0f4	0.021835782
18	0x3c6f6bd8	0.014613114
19	0xbc57e488	-0.013177045
20	0x3b9b12e0	0.0047324747
21	0x3cc7cd98	0.024390027
22	0x3bf245b0	0.0073935613
23	0xbca1b270	-0.019738406
24	0xbc82990e	-0.015942123
25	0x3cdeba7e	0.027188536
26	0xbb230ab1	-0.0024878199
27	0x3caa3738	0.020778283
28	0x3c2e9cc8	0.010657497
29	0x3ca8ef7e	0.020622011
30	0x3cb0e2ce	0.021592524
31	0xba93fc5b	-0.0011290418
32	0xbca16375	-0.019700745
33	0xbacc8382	-0.0015603157
34	0x3c406dac	0.011744898
35	0xbca7fc8a	-0.020506162
36	0xbcc0a1ee	-0.023514714
37	0xbc3a1370	-0.011357173
38	0x3c8cfe5e	0.017211135
39	0xbc8546f2	-0.01626918
40	0xbc8cfb08	-0.017209545
41	0x3d069d55	0.032864887
42	0xbc7411d0	-0.014896825
43	0x39bb8351	0.00035765258
44	0x3c28864c	0.010285925
45	0x3cd60802	0.026126865
46	0xbcfdc4d0	-0.030977637
47	0x3b03c4cd	0.0020106316

feature.5.weight f4 [48]
0	0x3f61f8fa	0.88270533
1	0x3f7ed8bd	0.99549466
2	0x3f863051	1.0483495
3	0x3f74b0c3	0.95582217
4	0x3f5f93f1	0.87335116
5	0x3f894011	1.0722677
6	0x3f37b99f	0.7176761
7	0x3f6e608b	0.9311606
8	0x3f6128e7	0.8795304
9	0x3f8079e1	1.0037194
10	0x3f560258	0.83597326
11	0x3f80c383	1.0059665
12	0x3f5c4d51	0.86055475
13	0x3f80d021	1.0063516
14	0x3f5c7c45	0.8612712
15	0x3f76ed40	0.96455765
16	0x3f73ec5f	0.9528255
17	0x3f8bcd1b	1.0921968
18	0x3f3de143	0.7417185
19	0x3f7a1e58	0.9770255
20	0x3f86651f	1.049961
21	0x3f59a276	0.8501352
22	0x3f5fb8af	0.8739118
23	0x3f5c4dcc	0.8605621
24	0x3f5c25e7	0.85995334
25	0x3f5a3b17	0.85246414
26	0x3f6c166e	0.92221725
27	0x3f65ce3c	0.89767814
28	0x3f5b7998	0.8573241
29	0x3f80f2ee	1.0074136
30	0x3f6c5294	0.92313504
31	0x3f6f6598	0.93514395
32	0x3f69cbbf	0.91326517
33	0x3f817409	1.0113536
34	0x3f522ea3	0.8210241
35	0x3f5b6d3c	0.85713553
36	0x3f69f6e2	0.9139234
37	0x3f4e6761	0.80626494
38	0x3f71cba2	0.94451344
39	0x3f69a558	0.9126792
40	0x3f632bcf	0.8873872
41	0x3f670935	0.90248424
42	0x3f5ff94b	0.87489766
43	0x3f72dfff	0.9487304
44	0x3f6b0fb9	0.91820866
45	0x3f622b0d	0.8834694
46	0x3f842b11	1.0325643
47	0x3f5a7db1	0.8534804

feature.5.bias f4 [48]
0	0xbed482e7	-0.4150612
1	0xbeb2bb4b	-0.34908518
2	0xbf29835a	-0.6621605
3	0xbf17a2fd	-0.59233075
4	0xbe721017	-0.2363895
5	0xbf1b6a11	-0.6070872
6	0xbeacf0d7	-0.33777496
7	0xbee527b0	-0.44756842
8	0xbe982477	-0.2971532
9	0xbef3fcf2	-0.4765392
10	0xbef3a43f	-0.47586247
11	0xbed2e316	-0.41188878
12	0xbef17e43	-0.47166643
13	0xbef23be2	-0.47311312
14	0xbe968883	-0.29401025
15	0xbed1c8a6	-0.40973395
16	0xbe8fb792	-0.2806974
17	0xbebbdf38	-0.3669374
18	0xbea83a83	-0.3285714
19	0xbf177c65	-0.59174186
20	0xbed2f4a9	-0.41202286
21	0xbed002b3	-0.4062706
22	0xbeafa34c	-0.34304273
23	0xbe9418f6	-0.28925294
24	0xbeb46a51	-0.35237363
25	0xbea83d25	-0.3285915
26	0xbeeb9c3f	-0.46017644
27	0xbeca99e7	-0.39570543
28	0xbed055f5	-0.4069058
29	0xbec3df3d	-0.38256255
30	0xbf023254	-0.50858045
31	0xbed1e2d9	-0.40993384
32	0xbe3dfedd	-0.18554254
33	0xbee8e6f8	-0.45488715
34	0xbe80860e	-0.25102276
35	0xbe4962c2	-0.1966658
36	0xbe9e8b93	-0.30965862
37	0xbe89ca77	-0.2691228
38	0xbf0b435b	-0.5439965
39	0xbeb22e91	-0.34801152
40	0xbf044dec	-0.516814
41	0xbe824ac4	-0.25447667
42	0xbe984298	-0.29738307
43	0xbedca8ad	-0.4309744
44	0xbe81e280	-0.25368118
45	0xbed6364e	-0.41838306
46	0xbeff4b8e	-0.4986233
47	0xbea1f737	-0.31633922

feature.5.running_mean f4 [48]
0	0xbfb2fc63	-1.3983272
1	0xbf9e662f	-1.2374934
2	0xc00c51d0	-2.1924934
3	0xbfd518ee	-1.6648233
4	0xbf66d77e	-0.90172565
5	0xc04eadf8	-3.2293682
6	0xbf807224	-1.0034833
7	0xbfe99051	-1.8247167
8	0xbf9baf0a	-1.2162793
9	0xbfea88f0	-1.832304
10	0xbfb04428	-1.37708
11	0xbff26b8d	-1.8939072
12	0xbf1cbe7f	-0.61228174
13	0xbff59188	-1.9185038
14	0xbf751cad	-0.9574688
15	0xbfcb9d31	-1.5907346
16	0xbfaa0eab	-1.3285726
17	0xbfc3215f	-1.5244559
18	0xbf396f36	-0.7243532
19	0xbfda636f	-1.7061595
20	0xc000e0ac	-2.013713
21	0xbf8b86a6	-1.0900466
22	0xbf64abf0	-0.89324856
23	0xbf301e8c	-0.6879661
24	0xbe9a0dd7	-0.30088684
25	0xbee9a808	-0.4563601
26	0xbfa1a838	-1.2629461
27	0xbf9a2322	-1.2041972
28	0xbf9ac792	-1.2092154
29	0xbf8fc49a	-1.1231873
30	0xbfad7676	-1.3551776
31	0xbfb8ef32	-1.4447997
32	0xbf0a3f5e	-0.5400294
33	0xbfedc056	-1.8574321
34	0xbf3e5867	-0.7435364
35	0xbf380e29	-0.71896607
36	0xbfbb3033	-1.4624084
37	0xbf89a13c	-1.075233
38	0xbfebbaea	-1.8416417
39	0xbf1137f6	-0.56726015
40	0xbf92bbd7	-1.1463574
41	0xbf77487c	-0.9659498
42	0xbf2a6657	-0.6656241
43	0xbf3e8678	-0.74423933
44	0xbf82ea61	-1.0227777
45	0xbf8e3330	-1.1109371
46	0xc009c092	-2.1523786
47	0xbf89561a	-1.0729401

feature.5.running_var f4 [48]
0	0x40869a93	4.206369
1	0x408b8bb4	4.3608036
2	0x40371eae	2.8612475
3	0x405a56ec	3.4115553
4	0x40959594	4.674509
5	0x40b4b6d5	5.6473184
6	0x401253e6	2.2863708
7	0x407ac3fd	3.9182122
8	0x4063b614	3.5579882
9	0x40941fd7	4.6288867
10	0x406a3bbe	3.6598964
11	0x4094810f	4.640754
12	0x4030e512	2.7639813
13	0x407cf7e7	3.9526308
14	0x404c302c	3.1904402
15	0x408a1474	4.3149967
16	0x40946d17	4.6383166
17	0x40df844c	6.9848995
18	0x403063a8	2.7560825
19	0x40567fff	3.3515623
20	0x40c18987	6.048038
21	0x4046f5fa	3.1087632
22	0x40513821	3.2690508
23	0x40459a8c	3.0875578
24	0x402369d3	2.553334
25	0x40115794	2.2709703
26	0x402abf20	2.6679153
27	0x403fc71b	2.9965274
28	0x4074950f	3.8215978
29	0x408c6c20	4.388199
30	0x40485de0	3.1307297
31	0x40545faf	3.31834
32	0x406998ef	3.6499593
33	0x409d880c	4.9228573
34	0x4045fdc8	3.0936146
35	0x40861192	4.189645
36	0x406ef066	3.7334228
37	0x40277dd3	2.6170547
38	0x408ac11a	4.336072
39	0x403a5a55	2.9117634
40	0x403d25e2	2.9554372
41	0x408ff25d	4.4983354
42	0x40367184	2.8506784
43	0x40627600	3.5384521
44	0x40401d0c	3.0017729
45	0x4020f919	2.5152037
46	0x40ab4b47	5.352939
47	0x4069a2e4	3.650567

classifier.0.weight f4 [100, 768]
0	0xba4660fa	-0.0007567551
1	0x3be0f42e	0.006865046
2	0xbc1f7190	-0.009731665
3	0x3d06cb72	0.032908864
4	0xbdb17168	-0.08664209
5	0xbc1ca89b	-0.009561683
6	0x3b9597c3	0.0045652105
7	0xbae8ed49	-0.0017770912
8	0xb99eb90a	-0.00030273973
9	0x3d56a954	0.052407578
10	0x3d0f1453	0.034931492
11	0x3c01c8d9	0.007921421
12	0xbc12b256	-0.008953651
13	0xbd2e3484	-0.04253055
14	0xbd084bb3	-0.033275317
15	0x3c4deaa1	0.012568147
16	0x3d3f7591	0.04674298
17	0x3d57a7af	0.05265015
18	0x3c5e3978	0.013563506
19	0xbc79eec9	-0.015254685
20	0x3d13a8b7	0.03604957
21	0x3d4cf139	0.050034735
22	0xbc897c4d	-0.016782904
23	0x3bedf51e	0.0072618863
24	0x3c28ab0d	0.010294688
25	0xbd58edf7	-0.052961316
26	0xbd2faa5d	-0.04288708
27	0xbca3ac29	-0.019979553
28	0x3c79880a	0.015230188
29	0xbc86f6e7	-0.016475154
30	0xbc77ea9a	-0.015131617
31	0x3c0c95db	0.00858065
32	0xbc741993	-0.0148986755
33	0xbd1a606f	-0.037689622
34	0xbab42d39	-0.0013746388
35	0x3d46bba3	0.048518788
36	0xbcadf3ac	-0.021234356
37	0xbd5f1df5	-0.05447193
38	0xbd83c6a7	-0.06434374
39	0xbd257216	-0.040392004
40	0xbd47dd6a	-0.04879514
41	0x3d429194	0.047502115
42	0xbd49744d	-0.04918318
43	0xbcc1b90b	-0.023647806
44	0x3dd1eb0e	0.10249911
45	0x3db09078	0.08621305
46	0x3c53a61a	0.01291802
47	0xbb7693c8	-0.0037624706
48	0xbb1f0cb8	-0.0024269056
49	0xbc0f605e	-0.008751003
50	0x3c945b78	0.018110022
51	0x3c201bd8	0.0097722635
52	0xbc06fed1	-0.008239464
53	0xbcdb1745	-0.026744494
54	0x3d4807a4	0.04883541
55	0xbd62218b	-0.05520777
56	0x3cbae5d7	0.022814674
57	0x3916cc2a	0.00014381172
58	0xbda3546f	-0.07975089
59	0xbcb00319	-0.021485852
60	0xbd18608b	-0.037201446
61	0x3c4f3103	0.012645963
62	0x3ca73c9d	0.020414645
63	0xbccaa191	-0.024735244
64	0xbdf6de6f	-0.120541446
65	0xbdb2a048	-0.087219775
66	0x3bca397f	0.006171405
67	0xbc909207	-0.017647756
68	0xbcc80598	-0.02441673
69	0x3d9716ef	0.07377421
70	0x3c921163	0.017830556
71	0xbd1cda5c	-0.03829418
72	0x3ccceb83	0.025014644
73	0x3d18f833	0.037346076
74	0xbd3b0442	-0.045658357
75	0xbbb8e174	-0.0056421105
76	0xbc6569ac	-0.014002245
77	0xbd57234a	-0.05252389
78	0x3bc84b7a	0.006112513
79	0x3c5b4907	0.01338411
80	0xbd5a7c62	-0.053341277
81	0xbd4e3ae8	-0.050349146
82	0xbd376f7c	-0.044784054
83	0xbc2155a4	-0.0098470785
84	0xbdba3bae	-0.09093414
85	0x3ca24fba	0.019813407
86	0x3cf1daf0	0.029523343
87	0x3b278c67	0.0025565864
88	0xbb3b340e	-0.0028564963
89	0x3d881b20	0.06645799
90	0x3b611d0c	0.0034349589
91	0xbd06e09c	-0.032929048
92	0x3d855873	0.06511011
93	0x3d21442d	0.039371658
94	0xbd505fa9	-0.05087248
95	0xbdb0ad2f	-0.08626782
96	0xbaa1c311	-0.001234146
97	0xbd239342	-0.039935358
98	0x3cea020e	0.028565433
99	0xbcb03fc1	-0.021514775
100	0xbd87a096	-0.06622426
101	0xbddee4c1	-0.10883475
102	0x3bb3b0c6	0.0054837195
103	0x3d1d5ad0	0.038416684
104	0x3c8d7a54	0.017270245
105	0x3d1c85de	0.038213603
106	0x3cdd86af	0.027041761
107	0x3d24ab42	0.040202387
108	0x3c877213	0.016533887
109	0x3cb041ac	0.02151569
110	0x39ae1adb	0.00033207875
111	0x3ca1608c	0.019699357
112	0xbd152f4b	-0.036422055
113	0xbd5ec20d	-0.05438428
114	0x3d1c3fd3	0.038146805
115	0x3c49e7a4	0.012323294
116	0x3c8242d9	0.015901016
117	0x3ca246fa	0.019809235
118	0xbd278e12	-0.040906973
119	0x3c82df63	0.01597566
120	0xbc2a1b6c	-0.010382514
121	0x3d082938	0.033242434
122	0xbc187e40	-0.009307444
123	0xbc550dd7	-0.013003788
124	0xbd427a10	-0.04747969
125	0x3d07f655	0.033193905
126	0xbcdfdf3b	-0.027328124
127	0xba963657	-0.0011460286
128	0x3d2759d7	0.040857162
129	0x3c360c06	0.011111265
130	0xbd94bf73	-0.072630785
131	0x3c38a9c5	0.011270945
132	0xbcc7d763	-0.024394697
133	0xbd865f40	-0.06561136
134	0x3ce15b3a	0.02750932
135	0xbc956d5a	-0.01824062
136	0xbc5c7d89	-0.013457664
137	0xb9859495	-0.0002547844
138	0x3d828d7e	0.06374644
139	0xbbae7077	-0.0053234654
140	0xbd33c572	-0.04388947
141	0xbd807186	-0.06271653
142	0x3d101ae0	0.03518188
143	0x3ba28e06	0.004960778
144	0x3cfb980a	0.030712146
145	0xbcf40264	-0.029786296
146	0xbddf58f1	-0.10905636
147	0xbc85ad17	-0.016317887
148	0xbd8af2f3	-0.0678462
149	0xbdaf3985	-0.08555893
150	0xbcc32b24	-0.023824282
151	0xbd8f995d	-0.070116736
152	0xbd510752	-0.05103237
153	0xbd52e06e	-0.051483564
154	0xbcde1ede	-0.027114328
155	0xbd850eb3	-0.06496944
156	0xbb3ccc8e	-0.0028808448
157	0xbd67b2d0	-0.056567013
158	0x3dbe2d34	0.092859656
159	0xbcc9ea13	-0.024647748
160	0xbd292fbe	-0.041305296
161	0xbcf13bfe	-0.029447552
162	0x3d5b4fc6	0.053542875
163	0x3cfc917a	0.030831087
164	0x3c8ef109	0.017448919
165	0xbcf7712a	-0.030205328
166	0x3c833164	0.016014762
167	0x3b83e056	0.0040245457
168	0x3cd45608	0.02591993
169	0x39578edb	0.00020557216
170	0xbd6856c6	-0.05672338
171	0xbd558c14	-0.052135542
172	0xbc3c04ce	-0.011475755
173	0x3d7994bb	0.060932856
174	0xbd2c4126	-0.042054318
175	0xbd7d45c4	-0.06183411
176	0xbd717c0b	-0.058956187
177	0xbcb53447	-0.022119654
178	0x3d747507	0.05968192
179	0x3d04888b	0.03235678
180	0xbba042fc	-0.0048907977
181	0x3d822fc8	0.0635677
182	0xbd512857	-0.05106386
183	0xbd7c3dff	-0.06158256
184	0xbaef3bbe	-0.0018252057
185	0x3d0c7e76	0.03430029
186	0xbd29d3cf	-0.041461762
187	0xbd8c9bb8	-0.068656385
188	0x3cc84fa1	0.024452033
189	0x3d952a53	0.07283463
190	0xbceaa9b5	-0.028645376
191	0xbd3e9687	-0.046530273
192	0xbcc11c3b	-0.023573032
193	0xbdf639bd	-0.120227315
194	0xbb94c9ed	-0.004540673
195	0x3c1dbf7e	0.009628175
196	0x3c6aeec3	0.014339152
197	0xbc214db0	-0.009845182
198	0x3c83284e	0.01601043
199	0x3a01659d	0.0004936101
200	0xbccc3a87	-0.024930252
201	0x3d12276d	0.03568213
202	0x3c9654da	0.018351007
203	0xbb59559c	-0.00331626
204	0xbcd5fe72	-0.026122306
205	0x3d90f00d	0.07077036
206	0x3c5a051b	0.013306881
207	0x3d0e52a6	0.03474679
208	0x3c6f07d8	0.014589272
209	0xbc2f32b7	-0.010693244
210	0x3d872dc7	0.06600528
211	0x3c0552b2	0.008137392
212	0xbc5268ca	-0.0128423665
213	0xbceb0ba6	-0.028692078
214	0xbb3d70ac	-0.002890627
215	0xbcb27be9	-0.0217876
216	0x3b15ab13	0.0022837564
217	0xbce854fd	-0.028360838
218	0xbd968c60	-0.07350993
219	0xbb8da58e	-0.004322714
220	0x3c6e35a8	0.01453916
221	0x3d38e57a	0.04514072
222	0xbbbd3fb1	-0.005775415
223	0xbbeb38f0	-0.0071784183
224	0xbd8861fc	-0.06659314
225	0xbd87fd3c	-0.066400975
226	0xbccfd7ec	-0.025371514
227	0x3bcfacc9	0.0063377363
228	0xbdc38c66	-0.09548263
229	0x3dcb66c1	0.09931708
230	0x3dcf2894	0.101151615
231	0xbd03519e	-0.032060258
232	0xbcc6cb7a	-0.024266947
233	0xbc8dd9b8	-0.01731573
234	0xbcdb92ca	-0.026803393
235	0xbc1ba774	-0.009500373
236	0x3bcf197d	0.006320177
237	0x3d058d44	0.032605425
238	0x3cb3066e	0.021853652
239	0xbd3b4ce0	-0.04572761
240	0x3c99b977	0.018765194
241	0x3d7c6a9c	0.061625108
242	0xbd2c8f8a	-0.042129077
243	0xbc15749f	-0.009122043
244	0xbcd61d0f	-0.026136903
245	0x3d37efdb	0.04490648
246	0xbb611411	-0.0034344236
247	0xbc438b1e	-0.011935024
248	0xbc98aa17	-0.018635793
249	0xbd740040	-0.05957055
250	0xbc7b31e6	-0.015331721
251	0xbd2d643b	-0.042331915
252	0xbda300eb	-0.079591595
253	0xbda325bf	-0.07966184
254	0x3ce6c6d1	0.028170975
255	0x3d58be67	0.052915957

classifier.0.bias f4 [100]
0	0xbbeed118	-0.0072881095
1	0xbc14e7bc	-0.009088453
2	0xbd027220	-0.03184712
3	0xbd10d1b6	-0.035356246
4	0xbcd230e2	-0.025658075
5	0xbc3b34de	-0.011426179
6	0x3c6055c4	0.013692323
7	0x3bb55860	0.0055342168
8	0x3b733de0	0.0037115738
9	0x3d0ce830	0.03440112
10	0x3d06592e	0.032799892
11	0x3cd0c06c	0.025482379
12	0x3cfb40b0	0.030670494
13	0x3cf24f1c	0.029578738
14	0x3cd88f60	0.026435554
15	0xbcd9b954	-0.02657763
16	0xbbfb75b0	-0.0076739416
17	0x3cb90622	0.022585932
18	0xbccf4cd8	-0.025305197
19	0xbcd7922e	-0.026314821
20	0xbceca8fb	-0.02888917
21	0x3c97baf6	0.018521767
22	0x3ac27e00	0.0014838576
23	0xbce9e0d4	-0.02854959
24	0xbc4992b4	-0.012303043
25	0xbc1c701a	-0.0095482115
26	0x3c726f18	0.014796995
27	0x3ce77f34	0.028258897
28	0xbbd85994	-0.0066024754
29	0x3ccead00	0.025228977
30	0x3b8878d8	0.0041647963
31	0xbc82681b	-0.015918782
32	0x3be4eb68	0.0069860704
33	0xbc29c434	-0.01036172
34	0xbc85e5ca	-0.016344924
35	0xbc9dc2cc	-0.019257925
36	0x3d012a0c	0.03153424
37	0xbd0e21f5	-0.034700353
38	0xbc67b428	-0.014142074
39	0x3c6fe1e0	0.014641255
40	0xbc8170f7	-0.015800936
41	0xbc763770	-0.015027866
42	0xbcd2f2b3	-0.025750494
43	0x3ce30034	0.027710058
44	0x3c8e4436	0.01736651
45	0x3ce11ccc	0.027479552
46	0x3c063b38	0.00819283
47	0xbbb4cce0	-0.005517587
48	0xbce5a2b2	-0.02803168
49	0xbcf2e802	-0.029651646
50	0xbcfbf4b7	-0.030756338
51	0x3c4f5300	0.012654066
52	0xbcffeac6	-0.031239878
53	0xbcc92e7c	-0.024558298
54	0x3a0b4204	0.00053122663
55	0x3c79bd10	0.01524283
56	0xbbd186a0	-0.0063942224
57	0x3cf46d1c	0.029837184
58	0x3b39eb00	0.002836883
59	0x3ced68bc	0.028980605
60	0xbcdc7248	-0.026909962
61	0xbca8bcdc	-0.020597868
62	0xbcab899a	-0.020939637
63	0xbc93d054	-0.018043675
64	0x3c4c854c	0.012482952
65	0x3d031b82	0.032008655
66	0x3c10dfdc	0.008842435
67	0x3b892c58	0.0041861944
68	0x3d052cee	0.03251355
69	0x3c2a3f18	0.010391019
70	0x3cb2426c	0.021760188
71	0xbc5f8d08	-0.013644464
72	0xbd0386c2	-0.032110937
73	0xbcade97e	-0.021229502
74	0xbc1815b0	-0.009282514
75	0x3c89c9cc	0.016819857
76	0x3d0d8686	0.03455212
77	0x3c2138f4	0.009840239
78	0xbb087400	-0.0020821095
79	0xbcf2ebb4	-0.029653408
80	0x3c7904d0	0.015198901
81	0x3cfe2ec8	0.031028166
82	0x3be3b760	0.0069493502
83	0x3cb82146	0.022476804
84	0xbb71d0e0	-0.003689818
85	0x3c817556	0.01580302
86	0x3cfc2668	0.030780032
87	0xbd08c2d2	-0.03338892
88	0xb9ab1b05	-0.00032635793
89	0x3c3b9c0c	0.011450779
90	0xbb1dc550	-0.0024073906
91	0x3c168df0	0.009189114
92	0xbc058606	-0.008149629
93	0x3bdad788	0.0066785254
94	0x3c468a44	0.012117926
95	0x3cf75758	0.030193016
96	0xbca20e9a	-0.019782353
97	0x3c9a1bf6	0.018812161
98	0x3c91fda2	0.017821137
99	0xbcbdcf37	-0.023170097

classifier.1.weight f4 [100]
0	0x3f77674a	0.9664198
1	0x3f759ca8	0.95942163
2	0x3f6f6d67	0.9352631
3	0x3f771b57	0.9652609
4	0x3f778c08	0.96698046
5	0x3f7830e1	0.96949583
6	0x3f6d7a02	0.92764294
7	0x3f887269	1.0659915
8	0x3f83d210	1.0298481
9	0x3f83000a	1.0234387
10	0x3f7900ce	0.9726685
11	0x3f8a9256	1.0825908
12	0x3f7bf38e	0.9841851
13	0x3f796871	0.9742499
14	0x3f853d95	1.0409418
15	0x3f77873b	0.9669072
16	0x3f838d96	1.0277584
17	0x3f7d857d	0.9903181
18	0x3f7997a4	0.9749701
19	0x3f674979	0.90346485
20	0x3f7d5109	0.98951775
21	0x3f7d66a5	0.9898475
22	0x3f72db83	0.948662
23	0x3f73f587	0.9529652
24	0x3f7dcf73	0.9914467
25	0x3f6cb649	0.92465645
26	0x3f7e594a	0.99354994
27	0x3f7ea6a9	0.99473053
28	0x3f7fb8e4	0.99891496
29	0x3f770e98	0.96506643
30	0x3f848fc5	1.0356375
31	0x3f772ba7	0.96550983
32	0x3f71b5f7	0.9441828
33	0x3f802ae6	1.0013092
34	0x3f79f8b6	0.9764513
35	0x3f7b3a04	0.981354
36	0x3f7bf031	0.9841338
37	0x3f8115ac	1.0084739
38	0x3f876dc2	1.058037
39	0x3f67a65b	0.90488213
40	0x3f85cca3	1.0453075
41	0x3f7ce775	0.98790675
42	0x3f833639	1.0250922
43	0x3f84c1bb	1.0371622
44	0x3f84a9b5	1.036429
45	0x3f795a2a	0.97403204
46	0x3f6f978a	0.93590605
47	0x3f6d023d	0.9258154
48	0x3f80f9bb	1.0076212
49	0x3f7a8333	0.97856444
50	0x3f80a0c8	1.0049067
51	0x3f7ae244	0.98001504
52	0x3f81a0f0	1.0127239
53	0x3f70d1c5	0.9407008
54	0x3f7d463c	0.98935294
55	0x3f778ce7	0.96699375
56	0x3f722b2b	0.9459712
57	0x3f8b5375	1.0884844
58	0x3f6bc69a	0.92099917
59	0x3f760d83	0.9611437
60	0x3f82833a	1.0196297
61	0x3f7e0448	0.9922528
62	0x3f79c23f	0.9756202
63	0x3f7e8ced	0.99433786
64	0x3f844884	1.033463
65	0x3f81f3d2	1.0152533
66	0x3f77fce0	0.9687023
67	0x3f7829a9	0.9693857
68	0x3f809270	1.0044689
69	0x3f8395bd	1.0280071
70	0x3f82dbea	1.0223362
71	0x3f5f9963	0.87343425
72	0x3f6636af	0.8992719
73	0x3f74c77d	0.95616895
74	0x3f837167	1.0268983
75	0x3f7259d5	0.9466832
76	0x3f794bf4	0.9738152
77	0x3f840119	1.0312835
78	0x3f6b98da	0.9203011
79	0x3f6735c9	0.90316445
80	0x3f6c75c5	0.923672
81	0x3f81df53	1.0146278
82	0x3f79b4be	0.97541416
83	0x3f70b549	0.9402662
84	0x3f842e9b	1.0326723
85	0x3f7b8863	0.98254985
86	0x3f76036b	0.96098965
87	0x3f86ea16	1.0540187
88	0x3f7ca67e	0.98691547
89	0x3f7d6784	0.9898608
90	0x3f83e743	1.030495
91	0x3f81ffa7	1.0156144
92	0x3f7ee797	0.9957213
93	0x3f6fd06c	0.936774
94	0x3f8c3179	1.0952598
95	0x3f83bb25	1.0291487
96	0x3f773b9d	0.9657534
97	0x3f7df574	0.99202657
98	0x3f70bfc2	0.940426
99	0x3f6f5b54	0.9349873

classifier.1.bias f4 [100]
0	0xbe6bde82	-0.23034099
1	0xbd3f888a	-0.046761073
2	0xbdcc82bb	-0.09985872
3	0xbcbb6d5c	-0.022879295
4	0xbe20f899	-0.15719832
5	0xbe5a2042	-0.21301368
6	0xbe80f493	-0.25186595
7	0xbe86c70c	-0.26323736
8	0xbde002ca	-0.10938032
9	0xbce2ca23	-0.027684277
10	0xbea27faa	-0.31738025
11	0xbdc31a69	-0.09526522
12	0xbe41790d	-0.18893833
13	0xbe348c14	-0.1763156
14	0xbe9fdb15	-0.31221834
15	0xbe5ab11f	-0.21356629
16	0xbe8804b6	-0.26566094
17	0xbe26441e	-0.16236922
18	0xbe077435	-0.13227923
19	0xbe7739d9	-0.24143161
20	0xbdce2a43	-0.100666545
21	0xbe43474c	-0.19070166
22	0xbe38fbbb	-0.18064778
23	0xbe2740df	-0.1633334
24	0xbdfb1164	-0.122591764
25	0xbe282d0d	-0.16423436
26	0xbbe2870c	-0.0069130715
27	0xbde12a21	-0.109943636
28	0xbd4fd380	-0.05073881
29	0x3ce7291d	0.028217847
30	0xbe27d34f	-0.16389202
31	0xbd1519fc	-0.036401734
32	0xbd83ee3b	-0.06441923
33	0xbe677972	-0.22604921
34	0xbe2cb0bb	-0.16864292
35	0xbe722ac0	-0.2364912
36	0xbe332da1	-0.17497875
37	0xbe6d4583	-0.23171048
38	0xbe9424cc	-0.28934324
39	0xbea90a7c	-0.3301581
40	0xbea22cf2	-0.31674916
41	0xbe1d6adf	-0.153728
42	0xbe279fd6	-0.16369566
43	0xbeb6c603	-0.35697946
44	0xbe34824b	-0.17627828
45	0xbe6f78e3	-0.23385958
46	0xbe12e9d6	-0.14347014
47	0xbe945f41	-0.28978923
48	0xbe5bc54d	-0.21461983
49	0xbe633b09	-0.22190489
50	0xbe0dd07c	-0.13849062
51	0xbe3f7923	-0.18698554
52	0xbe2fc287	-0.1716405
53	0xbdaf57ef	-0.08561694
54	0xbdd53b38	-0.10411686
55	0xbe4a22a1	-0.19739772
56	0xbe8561e9	-0.26051262
57	0xbe9e93b1	-0.30972055
58	0xbe2bacbd	-0.16765113
59	0xbdf222ae	-0.11823021
60	0xbdbea5d2	-0.093089715
61	0xbe0aef36	-0.13567814
62	0xbe197114	-0.14984542
63	0xbe5b36ba	-0.21407595
64	0xbcddc896	-0.027073186
65	0xbe00fb1f	-0.12595795
66	0xbde96539	-0.1139626
67	0xbe295675	-0.16536887
68	0xbe6ad01a	-0.22930947
69	0xbe5628b8	-0.2091397
70	0xbdec05a8	-0.11524516
71	0xbe56413e	-0.20923325
72	0xbe1483e5	-0.14503439
73	0xbd4e7bf4	-0.05041118
74	0xbe54b3b1	-0.20771672
75	0xbe122b15	-0.14274247
76	0xbdd40bec	-0.103538364
77	0xbdff1bcd	-0.124564745
78	0xbdc0641b	-0.093940936
79	0xbe741c06	-0.23838815
80	0xbd5d0b85	-0.053966064
81	0xbe5cb2bc	-0.21552557
82	0xbdfa3dba	-0.12218805
83	0xbe750ac2	-0.23929885
84	0xbe365f19	-0.17809714
85	0xbe0bfa79	-0.13669766
86	0xbe54f763	-0.20797496
87	0xbe971f98	-0.29516292
88	0xbe0a822f	-0.13526224
89	0xbe6c82b8	-0.2309674
90	0xbe830249	-0.2558768
91	0xbd932a63	-0.07185819
92	0xbe00c08f	-0.12573455
93	0xbdc887c4	-0.0979152
94	0xbe8b2995	-0.27180162
95	0xbe9cc845	-0.30621544
96	0xbe0636fb	-0.13106911
97	0xbe8a8143	-0.27051744
98	0xbe4e5786	-0.20150575
99	0xbe45e818	-0.19326818

classifier.1.running_mean f4 [100]
0	0xbfecb243	-1.8491901
1	0xc012f36c	-2.2961073
2	0x3e32fadc	0.17478508
3	0xbf894b9a	-1.0726197
4	0xc0028289	-2.0392172
5	0xbfceb599	-1.6149169
6	0xbf955922	-1.1667826
7	0xbf42997d	-0.76015455
8	0xbf30ffa8	-0.691401
9	0xbff9cc59	-1.9515487
10	0xbff89148	-1.9419336
11	0xbf11329f	-0.56717867
12	0xbf6ad83a	-0.91736186
13	0xc00a7076	-2.163114
14	0xbff86f2b	-1.9408926
15	0xbf7f6d09	-0.9977575
16	0xbfb556f7	-1.4167165
17	0xbfbf00e8	-1.4922152
18	0xbf52b14a	-0.8230177
19	0xbfc28279	-1.5196067
20	0xbed799d5	-0.42109552
21	0xbf61e038	-0.88232756
22	0xbfd135a6	-1.6344497
23	0xc03ac168	-2.9180546
24	0xbfa01445	-1.2506186
25	0xbf33dec5	-0.70261794
26	0xc0592182	-3.3926702
27	0xbfc57e88	-1.5429239
28	0xbfbb5cca	-1.4637692
29	0xbf7c73d1	-0.9861422
30	0xbfbf4476	-1.4942768
31	0xbf3daf4d	-0.7409561
32	0xbf5b4ea3	-0.85666865
33	0xbf9cb2d8	-1.2242079
34	0xbf678f13	-0.9045269
35	0xbfd02909	-1.6262523
36	0xbf38c8db	-0.7218148
37	0xbf73d031	-0.9523955
38	0xbf8e928a	-1.113847
39	0xbfba6414	-1.4561791
40	0xbf750797	-0.95714706
41	0xbff82eca	-1.9389279
42	0xbfc38a07	-1.5276498
43	0xbf903b06	-1.1268013
44	0xbf4059c1	-0.75136954
45	0xbf3f4cb0	-0.7472639
46	0xbfa21ca5	-1.2664992
47	0xbfca0350	-1.5782261
48	0xbf8e5bc4	-1.1121755
49	0xc02e9e73	-2.728421
50	0xbf98cb3f	-1.1937026
51	0xbf1aa323	-0.60405177
52	0xbfed5c66	-1.8543823
53	0xbf2f3000	-0.6843262
54	0xbfe092f7	-1.754485
55	0xbf532c49	-0.8248945
56	0xbf56a1a7	-0.8384041
57	0xbfde5b8d	-1.7371689
58	0xbfa8e04f	-1.3193454
59	0xbfb05b2e	-1.3777826
60	0xbf4b5d10	-0.7943888
61	0xbfcd3387	-1.603135
62	0xbfaac6fb	-1.3341974
63	0xbfff795d	-1.9958912
64	0xbf48ed69	-0.7848726
65	0xc00d3850	-2.206562
66	0xbfe6ad43	-1.8021625
67	0xbf0c1f2f	-0.5473508
68	0xbfbd09ef	-1.4768656
69	0xbfbd1de3	-1.4774746
70	0xc04a559f	-3.161476
71	0xc00a2626	-2.1585784
72	0xbf229495	-0.6350797
73	0xbf9a6387	-1.2061623
74	0xbf0786ee	-0.5294026
75	0xbfaf0a1c	-1.367496
76	0xbf8c6624	-1.0968671
77	0xbfd362ff	-1.6514586
78	0xbe9392c8	-0.28822923
79	0xbf2f5170	-0.6848364
80	0xbf725221	-0.9465657
81	0xc018aa7b	-2.3854053
82	0xc02b9184	-2.6807566
83	0xbfd776d5	-1.683314
84	0xbfe2d770	-1.7721996
85	0xbfac6eb3	-1.3471283
86	0xbfb01f4e	-1.3759553
87	0xbfcd316b	-1.6030706
88	0xbf934351	-1.1504918
89	0xc028049f	-2.625282
90	0xbfae2d4c	-1.3607574
91	0xbf977af5	-1.1834399
92	0xbfb948a1	-1.447529
93	0xbf6ab69b	-0.91684884
94	0xbfb24c4b	-1.3929533
95	0xbfc66241	-1.5498735
96	0xbf928257	-1.1446027
97	0xbf2e45dd	-0.6807535
98	0xbf8bc698	-1.0919981
99	0xbf352127	-0.7075371

classifier.1.running_var f4 [100]
0	0x406a626a	3.6622567
1	0x4024b9bb	2.573836
2	0x3fe2acd5	1.7708994
3	0x405f418d	3.488376
4	0x400b0735	2.172315
5	0x4027c1c9	2.6212027
6	0x4022420c	2.5352812
7	0x404a6d65	3.162927
8	0x3fedc665	1.857617
9	0x405a5afc	3.4118032
10	0x40609dba	3.5096269
11	0x40505981	3.255463
12	0x3ffe068c	1.9845748
13	0x4052cba0	3.2936783
14	0x40345146	2.8174605
15	0x40029ac0	2.0406952
16	0x405efaa6	3.4840484
17	0x400fb228	2.2452488
18	0x4044d3c6	3.0754256
19	0x3ff15f83	1.8857273
20	0x4023a5bc	2.5569906
21	0x404f67e9	3.2407172
22	0x403c5db9	2.9432204
23	0x3fec62aa	1.846761
24	0x402bb205	2.6827404
25	0x3fb7c748	1.4357691
26	0x404b52f0	3.176937
27	0x3fe5378a	1.7907574
28	0x406281e0	3.539177
29	0x403c0bd5	2.9382222
30	0x40441baf	3.0641897
31	0x4019d6bd	2.4037316
32	0x3fe645c1	1.7990037
33	0x40896d09	4.29456
34	0x403307ef	2.7973592
35	0x402b4b60	2.6764755
36	0x40456318	3.0841732
37	0x404c75f3	3.194699
38	0x40619214	3.524541
39	0x400e6f28	2.2255344
40	0x40478fbc	3.1181479
41	0x40456c80	3.0847473
42	0x401a2e2a	2.4090676
43	0x3ff06034	1.8779359
44	0x400a5541	2.1614535
45	0x400c87f2	2.1957974
46	0x401813e6	2.3762145
47	0x3fc770c5	1.558129
48	0x405b4ffa	3.4267564
49	0x40850554	4.1569004
50	0x405c71eb	3.444453
51	0x4058e40c	3.3889189
52	0x405298c2	3.2905736
53	0x404718fd	3.1109002
54	0x40586163	3.380944
55	0x401a8f70	2.4150047
56	0x40047e8e	2.0702243
57	0x40596f54	3.39742
58	0x3fef6de2	1.8705409
59	0x40118e2a	2.274302
60	0x40631f79	3.548796
61	0x40070b20	2.110054
62	0x4007b755	2.1205647
63	0x406e74c6	3.7258773
64	0x406cfbe7	3.702875
65	0x40593ae1	3.3942187
66	0x4016b82b	2.3549907
67	0x3fe37cf6	1.777251
68	0x403c026a	2.9376473
69	0x406b3d5c	3.67562
70	0x40592824	3.393075
71	0x3fc6905c	1.5512805
72	0x3f9b9a57	1.2156476
73	0x4053a663	3.3070304
74	0x40492551	3.1429026
75	0x40133486	2.3000808
76	0x404a792a	3.1636453
77	0x40812307	4.035526
78	0x400e471a	2.2230897
79	0x3fdd5d5c	1.7294116
80	0x40319f4c	2.7753477
81	0x409350d6	4.6036177
82	0x402e1a65	2.720361
83	0x3ff291de	1.8950765
84	0x407916ff	3.8920286
85	0x40286547	2.6311815
86	0x401a4bef	2.4108846
87	0x407896f0	3.8842125
88	0x400f787b	2.2417285
89	0x4052e318	3.2951107
90	0x401c8c4f	2.4460638
91	0x4038d723	2.888131
92	0x4058bc47	3.3864915
93	0x40068fe2	2.102532
94	0x405618e4	3.3452692
95	0x406f9bcb	3.7438838
96	0x400a93e2	2.165276
97	0x40555600	3.333374
98	0x402d0128	2.7031956
99	0x3fb82bed	1.4388405

classifier.3.weight f4 [100, 100]
0	0xbd985e6d	-0.07439885
1	0xb90b58bc	-0.00013289129
2	0xbd5922e3	-0.053011786
3	0x3e0fb29b	0.14032976
4	0x3ddb89ff	0.1071968
5	0x3d9d33bf	0.076758854
6	0x3df0dce4	0.117608815
7	0x3cfc23bf	0.030778764
8	0xbdf5a862	-0.11995007
9	0x3d88b64b	0.066753946
10	0x3c664be0	0.014056176
11	0xbdb807be	-0.08985852
12	0x3cf7e057	0.03025834
13	0xbd9e6a1c	-0.077350825
14	0x3de453f6	0.11148827
15	0xba08df6a	-0.00052212796
16	0x3e0324c1	0.12806989
17	0x3d0dfbf0	0.034664094
18	0xbcb20239	-0.021729575
19	0x3e0f8da0	0.1401887
20	0x3db119cb	0.08647498
21	0xbd4cc2dd	-0.049990524
22	0xbcb143cf	-0.021638779
23	0x3d48deb3	0.049040508
24	0x3d13cf75	0.03608652
25	0x3cb8f5ad	0.022578085
26	0x3cca8dbf	0.024725793
27	0xbe069e27	-0.13146268
28	0xbd709aea	-0.058741488
29	0x3da64804	0.08119205
30	0xbcbabc45	-0.022794852
31	0x3d92f0b3	0.07174816
32	0xbd1da94f	-0.038491543
33	0x3da29988	0.0793944
34	0xbd01ab17	-0.031657305
35	0xbe0c8784	-0.1372357
36	0xbd071a0f	-0.032983836
37	0xbca16ff6	-0.019706707
38	0xbe34b100	-0.17645645
39	0xbd80890d	-0.0627614
40	0xbdbc7a17	-0.09202974
41	0xbe10097f	-0.14066122
42	0xbce3f5f2	-0.027827237
43	0xbcc40f8f	-0.0239332
44	0xbe0d15f2	-0.13777903
45	0xbd17cdfe	-0.037061684
46	0xbddedb6f	-0.108816974
47	0x3c6f4d38	0.014605813
48	0x3d322511	0.04349238
49	0xbdf5a802	-0.119949356
50	0xbde86d8e	-0.11349021
51	0x3d7e53ab	0.06209151
52	0x3df2c860	0.11854625
53	0x3db4818b	0.08813771
54	0xbcb96bb8	-0.022634372
55	0x3ce7a98d	0.02827909
56	0xbd7f8610	-0.06238371
57	0xbda3a586	-0.079905555
58	0x3d9d441b	0.07679006
59	0xba8e786d	-0.001086963
60	0xbe857bdf	-0.2607107
61	0x3d82854b	0.0637308
62	0x3d0d7eb2	0.034544654
63	0x3cee00d3	0.029053127
64	0x3c3dc342	0.011582198
65	0xbd54db23	-0.051966798
66	0xbcc97a3d	-0.02459442
67	0xbdf08804	-0.11744693
68	0x3d776480	0.06039858
69	0xbdd092cf	-0.101842515
70	0x3d88dcdb	0.0668275
71	0x3da71c2b	0.081596695
72	0x3d2cd4b1	0.042195026
73	0xbe355d29	-0.17711319
74	0xbbcc353a	-0.006231931
75	0xbc2ac90a	-0.010423908
76	0xbd6ce7d8	-0.05783829
77	0xbc3e39e3	-0.011610481
78	0xbd0275e5	-0.031850714
79	0x3d14a27b	0.036287766
80	0x3c4f0982	0.012636544
81	0xbd752fca	-0.05986003
82	0xbd46a0ee	-0.04849332
83	0x3d8ada03	0.06779864
84	0xbd7c6933	-0.061623763
85	0xbcbc9d98	-0.023024365
86	0xbd12490f	-0.035714205
87	0x3d99bd69	0.0750683
88	0x3dc2cf91	0.095122464
89	0xbdb7424f	-0.08948194
90	0xbdba135a	-0.09085722
91	0xbd5006ef	-0.050787862
92	0xbd949a07	-0.07255941
93	0x3d1f15a8	0.038839012
94	0xbb464734	-0.0030254843
95	0x3df8a04e	0.12139951
96	0x3d1eb52f	0.03874701
97	0xbe1bfda6	-0.15233478
98	0xbdb0750d	-0.08616076
99	0xbd64eb65	-0.055888552
100	0xbcaf023e	-0.021363374
101	0x3c4b3da1	0.01240483
102	0xbdd908cc	-0.10597381
103	0x3c67f987	0.014158613
104	0xbda90faf	-0.082549445
105	0x3d65c072	0.056091733
106	0x3ca61be1	0.020276966
107	0x3e539869	0.20663609
108	0xbdeedf84	-0.11663726
109	0x3d58a511	0.052891795
110	0xbdc49cc9	-0.09600217
111	0xbb95d63e	-0.004572659
112	0xbca64716	-0.020297568
113	0x3dd1a100	0.102357864
114	0x3df5811c	0.11987516
115	0xbd1c7db9	-0.038205836
116	0x3c8d8920	0.0172773
117	0xbdac6ace	-0.08418809
118	0x3b5636ca	0.0032686465
119	0xbd5fece0	-0.05466926
120	0xbdaed89c	-0.08537409
121	0x3db13a52	0.08653702
122	0x3a7a76f8	0.0009554471
123	0x3de21ee6	0.1104105
124	0xbcadce48	-0.021216527
125	0xbd6db648	-0.058035165
126	0xbd250961	-0.040292148
127	0xbc249875	-0.010046114
128	0xbd9be523	-0.07612064
129	0xbda868ac	-0.082230896
130	0x3dcffee5	0.10156039
131	0xbc388e92	-0.01126446
132	0xbd9231c1	-0.07138396
133	0xbde47c7c	-0.11156556
134	0x3d0b58da	0.034020282
135	0xbe037417	-0.12837254
136	0xbd5f2079	-0.054474328
137	0xbc97d36f	-0.018533437
138	0xbdc39283	-0.09549429
139	0xbcc33ce9	-0.023832755
140	0xbd9b2692	-0.07575716
141	0x3e0b6a69	0.13614811
142	0xbd78411b	-0.060608964
143	0xbd1c1bc7	-0.038112428
144	0xbbfca22e	-0.007709763
145	0xbada0107	-0.0016632386
146	0x3d85da0d	0.065357305
147	0xbd630926	-0.055428647
148	0x3db6a3aa	0.08917935
149	0x3c6f2be8	0.01459787
150	0x3ba840d1	0.00513468
151	0x3d809da8	0.062800705
152	0xbd904dd5	-0.07046095
153	0x3c9c125e	0.019051727
154	0x3ce14f98	0.027503774
155	0x3df15106	0.11783032
156	0xbd1cf874	-0.03832288
157	0xbc232642	-0.009957852
158	0xbda3e87b	-0.080033265
159	0xbd217d11	-0.039425913
160	0xbdc07660	-0.09397578
161	0x3de4cdc2	0.11172058
162	0xbd76769d	-0.060171712
163	0x3cfb948d	0.030710483
164	0xbd874dc7	-0.06606632
165	0x3d97ce83	0.07412436
166	0xbd2924e1	-0.041294936
167	0x3d890f92	0.06692423
168	0x3dad3949	0.08458192
169	0xbd7424c0	-0.05960536
170	0x3e3d6f44	0.18499476
171	0xbc837cfa	-0.016050804
172	0xbd4262f2	-0.047457643
173	0xbd433497	-0.047657575
174	0xbe244fcf	-0.1604607
175	0x3cc64375	0.024202088
176	0xbc9cb736	-0.01913033
177	0x3da003d1	0.07813228
178	0x3b991f8f	0.0046729515
179	0x3b4fcab2	0.003170651
180	0xbdd1aef7	-0.1023845
181	0x3d00ea88	0.031473666
182	0x3cbfd2b6	0.023415904
183	0x3cf21a44	0.02955354
184	0xbd5d9d4f	-0.0541051
185	0xbc7f4b2f	-0.01558189
186	0xbb8bf3c8	-0.0042710043
187	0xbca38c14	-0.019964255
188	0xbd3fa59e	-0.046788804
189	0x3d90a5c9	0.07062871
190	0x3d9dafee	0.076995715
191	0x3d0a1d19	0.033719156
192	0xbdd2120f	-0.10257351
193	0xbd0afb9f	-0.03393137
194	0x3c0550e6	0.0081369635
195	0x3cec212a	0.028824408
196	0x3d1ea341	0.03872991
197	0xbdc4e8af	-0.096146934
198	0x3df456f1	0.11930645
199	0x3cee73ad	0.029107893
200	0xbdb28753	-0.08717217
201	0x3e0da914	0.1383403
202	0xbdf651f2	-0.120273486
203	0xbda95cb7	-0.08269637
204	0x3c9e5861	0.019329252
205	0xbe0c163c	-0.13680357
206	0xbc7a3e59	-0.015273654
207	0xbd16f405	-0.03685381
208	0xbc418248	-0.011810847
209	0x3dbb67cc	0.09150657
210	0xbd4246fb	-0.047430974
211	0xbd7bb5ec	-0.06145279
212	0xbb0a1650	-0.0021070428
213	0xbcd70afb	-0.026250353
214	0x3cbc6703	0.022998339
215	0xbd1ab407	-0.037769344
216	0xbd95b4eb	-0.07309898
217	0x3d3a4dae	0.045484237
218	0xbda11cb7	-0.07866805
219	0x3ce5d3ec	0.028055154
220	0xbd5cb372	-0.05388207
221	0x3d16abd9	0.03678498
222	0xbd6bb6e6	-0.057547472
223	0x3d88216e	0.06647001
224	0xbad0b884	-0.001592413
225	0xbde50599	-0.11182708
226	0x3e32762d	0.17427893
227	0x3c88545e	0.016641792
228	0x3c8f1155	0.01746432
229	0x3d972734	0.07380524
230	0xbd10cd1d	-0.03535186
231	0xbdc567a8	-0.096389115
232	0xbdc81dad	-0.09771285
233	0x3cf8199b	0.030285647
234	0xbda65827	-0.081222825
235	0x3d55708b	0.052109282
236	0x3d9c14e0	0.07621169
237	0x3e1e2f42	0.15447715
238	0xbd83e474	-0.06440058
239	0x3d8ddc81	0.069268234
240	0xbcfea491	-0.03108433
241	0xbd89ae31	-0.067226775
242	0xbd03589b	-0.032066923
243	0xbdebde78	-0.11517042
244	0x3cfaac9c	0.030599885
245	0xbd8e41af	-0.06946122
246	0xbb8c385b	-0.004279179
247	0x3d708079	0.05871627
248	0xbdbca62f	-0.092113845
249	0xbc8d8136	-0.017273527
250	0x3e1757c2	0.1477957
251	0xbce94ef3	-0.028480029
252	0x3d0faf17	0.035079088
253	0xbd1404d8	-0.03613743
254	0xbbfd159f	-0.0077235247
255	0xbdb35d90	-0.0875808
