trained_params/SVHN-cnst-LR_100_model_last.pth (torch, 843111 bytes, 34 tensors)

feature.0.weight f4 [32, 3, 5, 5]
0.06671571 0.11966181 -0.012017828 -0.031395737 0.062476262 -0.133929 0.087506406 0.09206759
0.06977412 0.055983305 -4.837705e-05 0.09508614 -0.036130853 -0.08422674 0.11599872 -0.1335791
-0.0035813064 -0.068958424 0.08043756 0.1636206 -0.020376423 0.047746558 0.05268279 -0.027323347
0.07225979 -0.13655746 -0.10072099 -0.08347763 -0.0766742 -0.06268192 0.022333255 -0.063862875
0.055696443 -0.041320004 -0.061606407 -0.04923938 -0.052619442 0.020207405 -0.01762775 0.091602
-0.06479678 -0.054101013 -0.051427856 -0.12240133 0.13808797 -0.12715933 0.03540919 -0.10779632
-0.098421745 -0.048966486 -0.0016092326 0.048979547 -0.06684053 0.00090367993 -0.10551846 0.007980519
-0.08870594 -0.05085412 -0.12109017 0.028227607 -0.027775183 -0.0008863208 -0.046472054 0.06663132
0.115948424 -0.0470105 0.15814555 0.056982495 0.009616929 0.20674506 -0.03380955 -0.059161555
-0.14703113 -0.043368258 0.14112428 -0.14476144 -0.09539027 -0.16112255 0.014889686 0.120604135
-0.13473599 -0.08297628 -0.011489931 0.11882309 0.1225671 0.0045094136 -0.14542736 0.14247362
0.082663335 0.034112483 -0.12874 -0.047900144 0.066514045 -0.04623198 0.16446593 -0.22855672
0.015417236 0.1258498 -0.0027148072 0.21128169 -0.23595822 -0.28037792 -0.0031077294 0.014583187
0.0071583358 -0.25794023 -0.06022378 0.021692397 -0.04100689 0.18814799 -0.25061473 -0.16085929
-0.061372183 0.15464056 0.13343266 -0.24844325 -0.023970434 0.22672321 0.17739004 0.13697045
-0.23245941 0.091169104 0.23486924 0.22562534 0.30121598 -0.04316066 -0.10514078 -0.02875844
-0.07939793 0.14932539 0.0337213 -0.13942829 0.09080862 0.03954927 0.060093224 -0.012578068
-0.08729482 0.14676057 0.101685114 -0.053652197 -0.03764756 -0.12662242 0.07989473 0.02422597
-0.06413559 -0.12851904 -0.046364684 0.24107315 0.042185098 -0.11259499 -0.03535881 -0.14404158
-0.023801645 0.20980138 0.18370236 -0.10022942 -0.017230766 0.037061695 -0.0017131781 0.13589871
-0.08173963 -0.11899877 -0.064651676 -0.06027773 -0.14027189 -0.043492865 -0.030485721 -0.015355864
-0.036090348 -0.11816274 0.15512227 0.1644008 0.14792188 0.0047884504 -0.04190826 -0.23212662
-0.054476667 0.043811254 0.24921328 0.25741148 -0.0925101 -0.15416363 -0.13439609 -0.086926125
-0.020368656 0.033997588 0.0119163 -0.17319065 -0.072876185 -0.15127732 -0.047375247 0.09674421
-0.0029904784 -0.047107164 -0.14388025 0.051513687 0.09866032 0.2156785 0.11881288 -0.058857214
0.016768003 -0.053749558 0.074101426 0.22765036 0.036214586 -0.031621516 -0.10468392 0.021627422
0.021785432 0.040862978 0.033143405 -0.104045846 -0.050512817 -0.061773054 -0.08720476 0.014861173
-0.05418921 -0.07719329 -0.075153 -0.12162545 0.17681247 0.08186296 0.16245052 0.1719492
-0.061428666 -0.2012891 -0.07235053 0.021656845 -0.04341283 -0.2014505 -0.24651457 -0.240156
-0.20669068 -0.26655966 -0.21832265 0.012285372 -0.041495107 -0.03727602 -0.05219528 -0.10401702
0.21051995 0.12518305 0.054411136 0.10013083 0.25568414 0.22318342 0.16608559 0.32366723
0.23068838 0.2062979 -0.12172772 -0.18991697 -0.07521176 -0.10878612 -0.3427025 -0.3710171
00000000: 3fa2 883d 4011 f53d 6de6 44bc d198 00bd
00000010: 1ce7 7f3d af24 09be 8f36 b33d ef8d bc3d
00000020: bce5 8e3d c04e 653d 76e8 4ab8 86bc c23d
00000030: f2fd 13bd 127f acbd bd90 ed3d f6c8 08be
00000040: 5ab4 6abb 133a 8dbd 73bc a43d 298c 273e
00000050: 75ec a6bc e591 433d e9c9 573d 36d5 dfbc
00000060: f1fc 933d b8d5 0bbe ce46 cebd 52f6 aabd
00000070: 5d07 9dbd 615f 80bd 3bf4 b63c 8aca 82bd
00000080: f421 643d 2a3f 29bd 0057 7cbd 3baf 49bd
00000090: 7c87 57bd 008a a53c 1268 90bc d499 bb3d
000000a0: 2db4 84bd 0699 5dbd 04a6 52bd 8cad fabd
000000b0: ef66 0d3e 0e36 02be 3a09 113d 51c4 dcbd
000000c0: 5791 c9bd 1591 48bd e3ec d2ba c79e 483d
000000d0: b0e3 88bd efe4 6c3a 101a d8bd b9c0 023c
000000e0: 76ab b5bd 694c 50bd 20fe f7bd 953d e73c
000000f0: c888 e3bc fb57 68ba 7b59 3ebd 0076 883d
00000100: 5e76 ed3d 158e 40bd e8f0 213e 7a66 693d
00000110: 5390 1d3c fab4 533e e27b 0abd 6353 72bd
00000120: 548f 16be eaa2 31bd e282 103e 583c 14be
00000130: f95b c3bd 4ffd 24be dff3 733c 4dff f63d
00000140: 3bf8 09be 78ef a9bd 4340 3cbc 8559 f33d
00000150: 7604 fb3d b4c3 933b e9ea 14be 9be4 113e
00000160: 654b a93d 88b9 0b3d 6bd4 03be f132 44bd
00000170: 8438 883d bf5d 3dbd c269 283e c60a 6abe
00000180: 9398 7c3c c5de 003e e8ea 31bb 3a5a 583e
00000190: 089f 71be b28d 8fbe 0cab 4bbb 52ee 6e3c
000001a0: 7990 ea3b be10 84be 36ad 76bd 41b4 b13c
000001b0: d7f6 27bd dea9 403e 9350 80be 4cb8 24be
000001c0: 6661 7bbd 185a 1e3e 92a2 083e e867 7ebe
000001d0: a55d c4bc 212a 683e bca5 353e fb41 0c3e
000001e0: d709 6ebe deb6 ba3d 9081 703e 540a 673e
000001f0: fb38 9a3e 3bc9 30bd 0d54 d7bd d296 ebbc
00000200: 629b a2bd c1e8 183e 591f 0a3d 4ac6 0ebe
00000210: dff9 b93d 6afe 213d 5024 763d 3e14 4ebc
00000220: a0c7 b2bd 6748 163e 4940 d03d 68c2 5bbd
00000230: 5434 1abd 4fa9 01be d99f a33d 8b75 c63c
00000240: 8559 83bd 7f9a 03be e5e8 3dbd e1db 763e
00000250: 48ca 2c3d 3498 e6bd 66d4 10bd a37f 13be
00000260: abfb c2bc 2cd6 563e 791c 3c3e 1545 cdbd
00000270: 8927 8dbc 01ce 173d b88c e0ba 0829 0b3e
00000280: 1b67 a7bd a1b5 f3bd 1968 84bd c8e5 76bd
00000290: 6fa3 0fbe 9325 32bd 31bd f9bc 2997 7bbc
000002a0: 79d3 13bd 4eff f1bd 5fd8 1e3e af58 283e
000002b0: d578 173e 6fe8 9c3b ffa7 2bbd 9ab2 6dbe
000002c0: ed22 5fbd 6e73 333d c431 7f3e 70cb 833e
000002d0: ef75 bdbd 12dd 1dbe 219f 09be 5306 b2bd
000002e0: 2bdc a6bc 0e41 0b3d 963c 433c e458 31be
000002f0: 1c40 95bd 71e8 1abe 8c0c 42bd d421 c63d
00000300: e7fb 43bb 71f3 40bd 5855 13be 0400 533d
00000310: 6c0e ca3d d3da 5c3e 2b54 f33d 4314 71bd
00000320: 0d5d 893c 7f28 5cbd 7dc2 973d 2d1d 693e
00000330: bf55 143d 9085 01bd 8664 d6bd fe2b b13c
00000340: 5d77 b23c f05f 273d 61c1 073d fd15 d5bd
00000350: 87e6 4ebd be05 7dbd 6998 b2bd 477c 733c
00000360: 81f5 5dbd 8417 9ebd d1e9 99bd c416 f9bd
00000370: 540e 353e c4a7 a73d 6e59 263e 7313 303e
00000380: a09c 7bbd bb1e 4ebe 842c 94bd b269 b13c
00000390: a7d1 31bd 0a49 4ebe 516e 7cbe 74eb 75be
000003a0: b9a6 53be 827a 88be f98f 5fbe 9648 493c
000003b0: c6f6 29bd bdae 18bd b8ca 55bd e006 d5bd
000003c0: 8b92 573e fc2f 003e 36de 5e3d 6511 cd3d
000003d0: 08e9 823e 328a 643e 5712 2a3e b6b7 a53e
000003e0: 9339 6c3e c23f 533e 624c f9bd 9879 42be
000003f0: a008 9abd 42cb debd b476 afbe f4f5 bdbe

feature.0.bias f4 [32]
-0.06012418 -0.011319328 0.060033157 0.05623438 -0.0052579963 -0.09278198 -0.046697944 -0.042996854
-0.056648355 0.021391906 -0.009392733 -0.1115556 -0.087976776 -0.0062367725 -0.06523917 0.10192147
-0.02938818 -0.096826985 0.043114737 0.021811862 -0.03614142 0.06279509 -0.054052915 -0.06426374
0.00372634 0.02955533 0.047081884 -0.10114896 -0.043221347 -0.014817389 0.07217409 0.07562266
00000000: c644 76bd b474 39bc 54e5 753d 0556 663d
00000010: 454b acbb 7b04 bebd 5846 3fbd 781d 30bd
00000020: 1b08 68bd 143e af3c fae3 19bc 4377 e4bd
00000030: 2b2d b4bd d75d ccbb 1d9c 85bd 34bc d03d
00000040: 7bbf f0bc 3a4d c6bd 1499 303d caae b23c
00000050: 0709 14bd b69a 803d 9766 5dbd b59c 83bd
00000060: 9c35 743b 051e f23c efd8 403d 3027 cfbd
00000070: de08 31bd a2c4 72bc 02d0 933d 0ee0 9a3d

feature.1.weight f4 [32]
0.6668748 0.8978156 0.83311564 1.0264789 1.0086435 0.69257075 1.0650133 1.2068187
0.99254644 1.126007 0.577048 0.9216079 1.0406244 1.0537872 1.1652426 0.92645043
1.055617 1.022077 0.9705724 1.2572584 1.094412 0.96496993 1.149609 1.1630663
0.7842043 0.96140355 0.97129726 0.8232301 0.56351674 1.0751069 1.1600949 1.0156908
00000000: 4fb8 2a3f 3ed7 653f 1147 553f a963 833f
00000010: 3b1b 813f 514c 313f 5b52 883f 0979 9a3f
00000020: 8617 7e3f ff20 903f 6bb9 133f 7fee 6b3f
00000030: 2e33 853f 80e2 863f ab26 953f db2b 6d3f
00000040: 751e 873f 6bd3 823f 6f77 783f d8ed a03f
00000050: b115 8c3f 4508 773f 6326 933f 5bdf 943f
00000060: 9dc1 483f 8b1e 763f f0a6 783f 35bf 523f
00000070: a242 103f 1a9d 893f fd7d 943f 2802 823f

feature.1.bias f4 [32]
-0.38805723 -0.10570495 -0.5214153 -0.080009 -0.032320373 -0.42317945 -0.10873159 -0.10417663
-0.2721853 -0.13860561 0.06115219 -0.053715203 -0.2180166 -0.051421072 -0.054143008 -0.04489565
-0.83709556 -0.062119264 -0.041251138 -0.16457424 -0.12586273 -0.05321693 -0.0773238 -0.17870706
-0.49679786 -0.1482346 -0.057024855 -0.6234052 -0.22794467 -0.32074416 -0.11469231 -0.054424856
00000000: 70af c6be d67b d8bd 797b 05bf c2db a3bd
00000010: 5e62 04bd faaa d8be abae debd 8f5a d5bd
00000020: df5b 8bbe a1ee 0dbe b87a 7a3d 7904 5cbd
00000030: be3f 5fbe e79e 52bd 0fc5 5dbd 80e4 37bd
00000040: e54b 56bf c570 7ebd f4f6 28bd 2686 28be
00000050: 29e2 00be fff9 59bd f15b 9ebd fcfe 36be
00000060: 4a5c febe d0ca 17be e592 69bd 7c97 1fbf
00000070: 546a 69be 9438 a4be cde3 eabd 99ec 5ebd

feature.1.running_mean f4 [32]
0.0032879582 -0.011471082 0.10155578 0.050032403 -0.030165927 -0.15719354 -0.05316887 -0.020324955
-0.06313783 0.025228437 -0.13883838 -0.109302446 -0.059229467 -0.03345782 -0.08912414 0.089324184
-0.030411553 -0.108058445 0.03952354 0.020779245 -0.012578304 0.0700913 -0.058770444 -0.049160782
0.15433761 0.06106659 0.044961914 -0.05885872 0.05787459 -0.003836869 0.06861274 0.0611752
00000000: c97a 573b 35f1 3bbc 7afc cf3d c7ee 4c3d
00000010: 891e f7bc 58f7 20be 9ac7 59bd 8580 a6bc
00000020: 684e 81bd deab ce3c a62b 0ebe f6d9 dfbd
00000030: 999a 72bd 110b 09bd b886 b6bd 99ef b63d
00000040: a621 f9bc bf4d ddbd 6fe3 213d 3c39 aa3c
00000050: 3b15 4ebc 078c 8f3d 47b9 70bd d15c 49bd
00000060: ae0a 1e3e f620 7a3d fc29 383d d715 71bd
00000070: e80d 6d3d fb73 7bbb d684 8c3d d992 7a3d

feature.1.running_var f4 [32]
0.08302344 0.74004084 0.08036261 0.8042901 0.9104441 0.09192264 0.37468714 1.3086231
0.231016 0.27928784 0.10695489 0.57584584 0.33519393 0.75932384 0.7521681 0.2525864
0.23589046 0.640896 0.90929675 0.98070365 0.40383458 0.4200984 0.5008236 0.3254547
0.17601271 0.472103 0.39292133 0.091524646 0.12276692 0.5148891 0.915219 0.32849902
00000000: 3108 aa3d 5173 3d3f 2795 a43d f5e5 4d3f
00000010: dd12 693f f041 bc3d fed6 bf3e f680 a73f
00000020: 758f 6c3e d1fe 8e3e 2a0b db3d a26a 133f
00000030: 8a9e ab3e 0c63 423f 178e 403f 0153 813e
00000040: 458d 713e c311 243f acc7 683f 650f 7b3f
00000050: 68c3 ce3e 2317 d73e fa35 003f 00a2 a63e
00000060: ad3c 343e 7cb7 f13e fc2c c93e 4671 bb3d
00000070: 396d fb3d c6cf 033f cb4b 6a3f 0631 a83e

feature.4.weight f4 [48, 32, 5, 5]
-0.019723283 0.018017527 0.00480575 -0.059624754 -0.018027514 -0.08454731 -0.03624533 0.005224455
-0.017676434 -0.0092497915 -0.05584854 0.0040105656 0.021604434 0.01595973 0.023162935 -0.028378554
0.0115672825 -0.0056348126 0.012721209 0.011276086 -0.017760664 0.0046475874 -0.039146937 -0.037868544
0.056551058 -0.021424433 -0.008207071 -0.025406452 -0.07972946 -0.055657096 -0.07468692 -0.09729871
0.0024118398 -0.012284191 0.010021704 -0.06527221 -0.07163607 -0.016759481 0.018522887 -0.018099496
-0.020412352 -0.04899032 -0.06339417 0.029432401 -0.046635263 -0.0029757426 -0.07328488 -0.10360225
-0.04470142 -0.03343692 0.06293702 0.03634329 -0.016693717 -0.047775693 0.020137655 0.07264135
-0.0063768458 -0.084249996 -0.043539613 -0.010544198 -0.052494034 -0.028593324 -0.0055615334 -0.026915247
-0.011025167 -0.022487996 0.0052047884 -0.0015313906 -0.05046262 -0.023177791 -0.007570799 0.022566801
0.011751662 0.0007637917 0.043439556 0.07082126 -0.032073174 -0.053121977 -0.045120526 0.07316521
0.043444205 -0.016516525 0.00973341 -0.014931174 0.0071191923 0.07406254 0.07400444 0.056376055
0.040506735 0.011102074 0.09296437 0.015717993 -0.020058064 0.0112865055 0.002651482 0.14560181
0.070072986 0.12600707 0.10611442 0.04514063 0.04297765 -0.043938693 -0.058807284 -0.06138359
-0.012745949 0.083727546 0.07120179 -0.010120064 -0.10284434 0.029259583 0.109772995 0.13187093
0.068593666 -0.024098877 0.030130433 0.1522746 0.16477568 0.100903794 -0.03454253 0.030317776
0.18774587 0.13692328 0.14023618 0.064952545 -0.026463604 0.034275766 0.0013223705 0.0011414548
-0.041984912 -0.043273337 0.05689132 0.035072125 0.01237478 -0.0033423007 -0.077416874 0.0037178127
-0.0044674203 0.0390549 0.019471113 0.018796058 0.0062854053 0.01014425 0.047568407 0.0622938
0.006295496 -0.0019637824 0.04842048 0.045861922 0.042447053 0.045763873 -0.0393588 -0.0037550791
0.054257065 0.07153535 0.11644527 -0.025715588 -0.08189493 -0.03169799 -0.090685286 -0.012382101
0.0055591958 -0.083107285 -0.079240784 -0.11371027 -0.012050175 0.04927303 -0.032109685 0.031010568
-0.07422216 -0.040044114 0.059524994 0.038097043 0.018872464 -0.023071157 -0.08884541 0.031976055
-0.014845069 -0.06043194 -0.06546467 -0.006477135 -0.07048952 -0.07182987 -0.022551611 -0.039851956
-0.030476134 -0.03616644 -0.09373349 -0.09537776 -0.035871297 -0.02352774 -0.05942552 -0.108888954
-0.13088739 -0.03592403 0.036249135 -0.029420761 -0.11028254 -0.17251232 -0.0063030864 -0.02007138
0.013675304 0.027670722 -0.05380941 -0.021348162 0.040340774 -0.07133578 -0.05220009 -0.051393606
-0.069614254 -0.016149163 -0.042564526 -0.046745036 0.0014177068 -0.019633522 -0.049980223 -0.0040575704
0.0021864595 -0.042635 -0.0015121307 -0.050568648 -0.017095748 0.014762504 -0.031375445 -0.036074933
-0.0061392593 0.018827438 0.041219804 0.104921184 -0.05891468 -0.15523468 0.0097363535 0.060023088
0.12494521 -0.004887159 -0.097466744 0.0046125054 0.05876233 0.08529952 -0.03508367 -0.04617461
0.01016175 -0.0018358217 0.0346716 -0.059898503 -0.07632486 0.09689183 0.03286472 0.013616464
-0.08908779 -0.07343312 0.0032938186 -0.022755677 0.00056925305 -0.04134983 0.04235714 -0.028910499
00000000: b992 a1bc 7e99 933c 8e79 9d3b 1639 74bd
00000010: 70ae 93bc 2427 adbd fc75 14bd e831 ab3b
00000020: 2bce 90bc 708c 17bc 70c1 64bd 106b 833b
00000030: c8fb b03c fbbd 823c 32c0 bd3c 247a e8bc
00000040: b384 3d3c 3ca4 b8bb 9e6c 503c 55bf 383c
00000050: d07e 91bc ca4a 983b 8a58 20bd 0c1c 1bbd
00000060: 15a2 673d 4b82 afbc f376 06bc 3121 d0bc
00000070: 3349 a3bd b2f8 63bd 75f5 98bd 8c44 c7bd
00000080: f50f 1e3b a243 49bc 1332 243c 70ad 85bd
00000090: efb5 92bd 2e4b 89bc 4fbd 973c 6545 94bc
000000a0: ce37 a7bc 13aa 48bd cdd4 81bd 381c f13c
000000b0: 9e04 3fbd ad04 43bb 6216 96bd 6b2d d4bd
000000c0: d618 37bd 27f5 08bd 20e5 803d b4dc 143d
000000d0: 43c1 88bc 72b0 43bd b9f7 a43c fdc4 943d
000000e0: dcf4 d0bb 438b acbd 9856 32bd 92c1 2cbc
000000f0: fc03 57bd 8c3c eabc 863d b6bb 5d7d dcbc
00000100: e7a2 34bc bf38 b8bc ee8c aa3b f1b8 c8ba
00000110: e4b1 4ebd 5adf bdbc 7714 f8bb 03de b83c
00000120: 0b8a 403c 3139 483a aded 313d bd0a 913d
00000130: 295f 03bd 6e96 59bd 4dd0 38bd a4d7 953d
00000140: 8df2 313d aa4d 87bc e178 1f3c e2a1 74bc
00000150: 1d48 e93b 1aae 973d a48f 973d 94ea 663d
00000160: 64ea 253d 79e5 353c 1b64 be3d 05c3 803c
00000170: cf50 a4bc 09eb 383c 7cc4 2d3b a418 153e
00000180: 6d82 8f3d ff07 013e 8452 d93d 62e5 383d
00000190: 5509 303d 0ff9 33bd e8df 70bd 5c6d 7bbd
000001a0: 63d4 50bc 5979 ab3d 3ed2 913d a0ce 25bc
000001b0: 0ea0 d2bd cbb1 ef3c aad0 e03d 2c09 073e
000001c0: d67a 8c3d 026b c5bc 19d4 f63c dfed 1b3e
000001d0: f5ba 283e a6a6 ce3d 787c 0dbd fc5c f83c
000001e0: 7440 403e 9e35 0c3e 139a 0f3e d705 853d
000001f0: 33ca d8bc bf64 0c3d 6453 ad3a de9c 953a
00000200: 5ff8 2bbd 623f 31bd df06 693d caa7 0f3d
00000210: 97bf 4a3c 800a 5bbb bd8c 9ebd 8ca6 733b
00000220: 7063 92bb 08f8 1f3d e281 9f3c 31fa 993c
00000230: cdf5 cd3b 1134 263c 17d7 423d c927 7f3d
00000240: 734a ce3b cdb2 00bb 8e54 463d b6d9 3b3d
00000250: f6dc 2d3d e672 3b3d b136 21bd c617 76bb
00000260: a83c 5e3d 2081 923d dc7a ee3d 7fa9 d2bc
00000270: 87b8 a7bd c0d5 01bd 35b9 b9bd 4cde 4abc
00000280: ea29 b63b 2734 aabd fe48 a2bd eee0 e8bd
00000290: 196e 45bc 84d2 493d 7285 03bd e009 fe3c
000002a0: ca01 98bd 4c05 24bd 7bd0 733d a50b 1c3d
000002b0: 6d9a 9a3c b9ff bcbc 95f4 b5bd 53f9 023d
000002c0: bb38 73bc 7b87 77bd 5712 86bd 253e d4bb
000002d0: cf5c 90bd 8a1b 93bd 28be b8bc ce3b 23bd
000002e0: 16a9 f9bc 4323 14bd 58f7 bfbd 6a55 c3bd
000002f0: c8ed 12bd 3fbd c0bc 2d68 73bd 2c01 dfbd
00000300: 5807 06be 1325 13bd f979 143d cf03 f1bc
00000310: d0db e1bd 12a7 30be 1f8a cebb bc6c a4bc
00000320: 620e 603c b6ad e23c 4267 5cbd 57e2 aebc
00000330: 5e3c 253d 7e18 92bd c3cf 55bd 1a82 52bd
00000340: eb91 8ebd 404b 84bc 2458 2ebd b977 3fbd
00000350: 59d2 b93a 7bd6 a0bc 10b8 4cbd 5ef5 84bb
00000360: b44a 0f3b 0aa2 2ebd b032 c6ba 1221 4fbd
00000370: 620c 8cbc 6ede 713c 8a83 00bd 4fc3 13bd
00000380: d72b c9bb 003c 9a3c 19d6 283d ebe0 d63d
00000390: 8550 71bd d7f5 1ebe 3a85 1f3c c5da 753d
000003a0: 46e3 ff3d 7624 a0bb a59c c7bd 8024 973b
000003b0: c5b0 703d 84b1 ae3d e5b3 0fbd 9621 3dbd
000003c0: 787d 263c f49f f0ba cf03 0e3d 2258 75bd
000003d0: 3550 9cbd 396f c63d 289d 063d 9717 5f3c
000003e0: a973 b6bd 1b64 96bd 1bdd 573b 1d6a babc
000003f0: ed39 153a 705e 29bd ae7e 2d3d b6d5 ecbc

feature.4.bias f4 [48]
0.026183523 -0.03294483 0.021035694 -0.03006005 0.01570991 0.010115679 0.031161655 -0.020778174
-0.029017491 0.019186612 0.016151424 -0.0045339093 0.019414838 -0.015014259 -0.035301223 -0.03469591
0.024962466 0.030873645 0.023543712 -0.009719225 -0.007873988 0.0223995 0.0043989085 0.022527259
0.032064054 -0.0010863995 0.028776374 -0.024330482 0.009789366 -0.003849016 -0.02017021 -0.027408093
-0.0143121425 0.018723771 -0.019521156 0.01853628 0.021577764 -0.033549674 0.025829937 0.0031284473
-0.011212023 0.02961218 -0.003770098 -0.00057653873 0.03396089 0.0036197924 0.0072534718 0.019839022
00000000: d47e d63c 28f1 06bd 0c53 ac3c 7e40 f6bc
00000010: 12b2 803c 3cbc 253c ba46 ff3c fd36 aabc
00000020: 17b6 edbc 3e2d 9d3c fe4f 843c 3091 94bb
00000030: de0b 9f3c 5efe 75bc 0498 10bd 4c1d 0ebd
00000040: 167e cc3c baea fc3c bede c03c 623d 1fbc
00000050: e601 01bc 287f b73c b824 903b 168b b83c
00000060: 9955 033d 8565 8eba 6ebc eb3c b850 c7bc
00000070: 9463 203c c63f 7cbb ff3b a5bc f086 e0bc
00000080: 7a7d 6abc 9862 993c d5ea 9fbc 66d9 973c
00000090: dac3 b03c 626b 09bd 4e99 d33c a306 4d3b
000000a0: a2b2 37bc 3e95 f23c c013 77bb dc22 17ba
000000b0: 931a 0b3d 0a3a 6d3b 88ae ed3b 7285 a23c

feature.5.weight f4 [48]
0.76437134 0.9505859 0.7797602 0.84166557 0.90194166 0.76854724 0.8126875 0.9567237
0.9086109 0.92389065 0.8895257 0.86148053 0.7402742 0.91069454 1.014985 0.600095
0.8640717 0.94675094 0.77579516 0.9856395 0.8534075 0.9776098 0.7971348 1.0636758
0.88492256 1.0654821 0.7849665 0.75428843 1.0859188 0.9155743 1.0269364 1.0268159
0.8505508 0.8077211 0.90005827 1.1113508 1.006045 0.8470661 0.77621156 0.7184912
0.73550624 0.87093437 0.78431827 0.7405516 1.145025 0.95675474 0.8477073 0.9895526
00000000: d7ad 433f 9959 733f 5d9e 473f 6577 573f
00000010: a6e5 663f 83bf 443f 4a0c 503f d8eb 743f
00000020: b99a 683f 1984 6c3f f5b7 633f fd89 5c3f
00000030: 9c82 3d3f 4723 693f 07eb 813f d39f 193f
00000040: ce33 5d3f 455e 723f 839a 463f df52 7c3f
00000050: ea78 5a3f a344 7a3f 0711 4c3f 8726 883f
00000060: 498a 623f b861 883f 91f3 483f 0c19 413f
00000070: 63ff 8a3f 1463 6a3f a772 833f b46e 833f
00000080: b2bd 593f cfc6 4e3f 386a 663f be40 8e3f
00000090: 15c6 803f 53d9 583f cdb5 463f 0aef 373f
000000a0: 234a 3c3f 8ef5 5e3f 15c9 483f ca94 3d3f
000000b0: 2e90 923f e1ed 743f 5803 593f 5253 7d3f

feature.5.bias f4 [48]
-0.30938947 -0.5532562 -0.3012244 -0.49186808 -0.5478449 -0.24872407 -0.28972235 -0.43529043
-0.553896 -0.59391505 -0.45692852 -0.57122684 -0.27516687 -0.6229631 -0.48987824 -0.30699354
-0.369415 -0.49880925 -0.38732842 -0.58343923 -0.45069554 -0.6027863 -0.5107526 -0.6988036
-0.52166516 -0.8180623 -0.31881467 -0.39908785 -0.67083263 -0.7119356 -0.35059035 -0.57187706
-0.40464228 -0.44555643 -0.43254253 -0.55903226 -0.6802065 -0.33010575 -0.2285392 -0.14133167
-0.11878435 -0.42479062 -0.31251216 -0.31346032 -0.4235789 -0.4758522 -0.4889448 -0.5444412
00000000: 4c68 9ebe 33a2 0dbf 163a 9abe 22d6 fbbe
00000010: 903f 0cbf 86b1 7ebe 7d56 94be 63de debe
00000020: 21cc 0dbf d10a 18bf 89f2 e9be ec3b 12bf
00000030: ace2 8cbe 827a 1fbf 52d1 fabe 422e 9dbe
00000040: f623 bdbe ed63 ffbe e94f c6be 465c 15bf
00000050: 91c1 e6be 3450 1abf afc0 02bf cbe4 32bf
00000060: d98b 05bf 886c 51bf ad3b a3be 3e55 ccbe
00000070: b0bb 2bbf 6941 36bf 9480 b3be 8966 12bf
00000080: 462d cfbe f91f e4be 3776 ddbe bd1c 0fbf
00000090: 0322 2ebf 9f03 a9be 2e06 6abe 40b9 10be
000000a0: 3645 f3bd 287e d9be 9801 a0be df7d a0be
000000b0: 55df d8be e6a2 f3be f956 fabe 8060 0bbf

feature.5.running_mean f4 [48]
-0.9404922 -1.5369272 -1.2464557 -1.0951816 -1.5809635 -0.28232542 -0.8048467 -1.2786924
-1.8405861 -0.9919209 -1.4834412 -1.7199335 -0.4937011 -1.5297713 -2.0620298 -0.7953022
-0.91460425 -1.3431687 -0.9376626 -2.3634026 -0.8873918 -2.7189434 -1.5766889 -2.038113
-1.0149887 -2.2136993 -0.5954916 -0.9246117 -2.7393653 -1.7408137 -1.6646963 -2.2669952
-1.4865295 -1.3848685 -0.7548934 -1.7767609 -1.7345139 -1.2838233 -0.83955556 -0.4213772
0.037716452 -1.3109946 -1.1826825 -0.4591821 -1.8756968 -1.2295417 -1.5967201 -1.5924519
00000000: 19c4 70bf 08ba c4bf dc8b 9fbf e92e 8cbf
00000010: 035d cabf f58c 90be 6f0a 4ebf 31ac a3bf
00000020: 5398 ebbf 87ee 7dbf 67e1 bdbf c826 dcbf
00000030: 64c6 fcbe 8ccf c3bf 4cf8 03c0 ed98 4bbf
00000040: 8123 6abf f4ec abbf a80a 70bf fd41 17c0
00000050: 1c2c 63bf 2b03 2ec0 f1d0 c9bf 7270 02c0
00000060: 26eb 81bf 40ad 0dc0 2372 18bf 5ab3 6cbf
00000070: c351 2fc0 fcd2 debf c514 d5bf 7316 11c0
00000080: 9946 bebf 5f43 b1bf b240 41bf e76c e3bf
00000090: 8d04 debf 5254 a4bf 1ded 56bf c1be d7be
000000a0: 917c 1a3d acce a7bf 2462 97bf eb19 ebbe
000000b0: d516 f0bf 9f61 9dbf 5361 ccbf 77d5 cbbf

feature.5.running_var f4 [48]
3.323376 3.699447 3.101324 2.975157 3.7191787 2.7940536 4.035228 4.760332
3.9731736 3.062763 2.6918414 4.054685 2.191221 3.1080928 4.9352803 2.7075794
2.8594565 3.8430474 2.3651946 4.794417 2.8109503 5.6576977 4.449179 4.6068845
2.2652001 6.0134473 3.183068 3.6483514 5.866833 3.824638 6.082185 5.4682755
4.3503976 3.299382 3.3604605 5.2897487 3.1560137 3.8034995 4.0570455 3.0901854
3.1341658 3.6899757 3.8641412 1.9290107 6.7161794 3.1070895 3.5063133 3.639272
00000000: 31b2 5440 bdc3 6c40 187c 4640 f968 3e40
00000010: 0607 6e40 c6d1 3240 9620 8140 a454 9840
00000020: 7a48 7e40 4f04 4440 2147 2c40 fbbf 8140
00000030: f73c 0c40 feea 4640 d1ed 9d40 fb48 2d40
00000040: 5601 3740 7df4 7540 595f 1740 dd6b 9940
00000050: 9ce6 3340 dc0b b540 ad5f 8e40 996b 9340
00000060: 0af9 1040 296e c040 63b7 4b40 977e 6940
00000070: 19bd bb40 dec6 7440 42a1 c240 1dfc ae40
00000080: 7536 8b40 1329 5340 c911 5740 9f45 a940
00000090: 21fc 4940 896c 7340 51d3 8140 99c5 4540
000000a0: 2c96 4840 9028 6c40 174e 7740 d3e9 f63f
000000b0: f1ea d640 8eda 4640 7067 6040 d5e9 6840

classifier.0.weight f4 [100, 768]
-0.04461324 -0.09709441 -0.012131923 0.055887885 -0.07221128 -0.029392779 -0.005964611 0.02958638
0.0028617843 0.11168317 -0.026307177 -0.037983224 -0.044770353 0.037514705 0.0039532227 0.012926356
0.02155741 0.017099148 0.017043361 -0.019735845 -0.0009949069 0.0014650531 -0.054438435 -0.030777259
-0.07648213 0.00992863 -0.029992038 -0.0015459527 0.021428302 -0.015612104 0.038988814 0.02443502
0.0037521522 -0.024642972 0.008108456 0.047643427 -0.0052541886 0.02902148 -0.007001201 -0.042800993
0.024465762 -0.062814 -0.030458 0.0020354695 -0.050521076 -0.014976739 0.06032734 -0.0035638374
-0.08988293 -0.08639711 -0.0167798 -0.035931483 -0.003391547 0.052130666 0.092658 0.058911845
0.014769363 0.04596223 -0.06808787 -0.05718764 -0.060210556 -0.09616452 -0.10242516 -0.0072898883
-0.04728089 -0.06652067 -0.023125514 -0.018701905 0.023856064 0.025127629 0.016568966 0.026259193
-0.020038795 0.008521255 -0.0014679735 0.026674958 0.0041388376 -0.029734615 -0.049033344 -0.047436293
0.0048093055 -0.080444574 0.0031658204 0.027249297 -0.013277751 -0.021293359 0.02276394 0.01076423
-0.0059851687 0.05226508 0.003265725 0.021468217 -0.073140904 -0.05620014 0.0669534 -0.06427559
-0.054697778 -0.055435 -0.044163 -0.0047904965 -0.06713176 0.030430783 0.012606679 0.043186456
-0.0113829225 0.016634203 0.026971845 0.020928616 -0.0054793917 -0.02307773 -0.0051185247 -0.03544792
-0.031483047 -0.009103344 -0.016485186 0.04492334 0.013432933 -0.055068497 -0.0061644786 0.004414421
-0.0043467376 0.0056187883 0.04112754 -0.0068198354 0.012297524 -0.050449494 -0.034399357 -0.017020332
-0.020662261 -0.0840772 -0.034432124 0.037244152 -0.016155312 0.06338887 0.122004025 0.029799892
-0.0046623806 0.005720605 0.03165733 -0.0428988 0.016102599 -0.04597436 0.019246245 0.0047996645
-0.09551525 -0.09206947 -0.049599454 -0.008839543 0.058792625 0.097451136 0.07852088 -0.014010727
0.002865755 0.014631177 -0.09528476 -0.030990817 -0.053782053 0.010419331 -0.018402727 0.019440807
-0.010176508 -0.15375718 -0.020850727 -0.011508864 -0.07013166 -0.073617 -0.006511494 -0.036826853
0.044046707 0.00858042 0.10557437 0.024601804 0.03269314 0.026499616 -0.0644187 -0.06087287
-0.028599981 0.005396417 0.011616246 0.06200465 -0.041285206 0.035356976 -0.008467622 0.020645147
0.0074644173 0.055675823 -0.011599403 -0.033184856 0.011098346 -0.05093324 -0.0065555014 0.013420795
-0.023646826 0.016127048 0.07332396 0.059261836 -0.041790508 -0.00013415294 0.014946791 -0.021479035
-0.11338891 -0.06958473 -0.084285684 -0.053358685 -0.056369573 -0.034046393 -0.11014067 -0.016883573
0.045460004 0.101132415 0.096907526 0.018073387 -0.077565424 -0.108533695 -0.035332203 -0.026092265
-0.07668208 0.024917431 0.02198699 0.002526056 -0.045487788 -0.00094511296 0.053960435 -0.004233966
-0.033167247 -0.00037778096 0.049449872 0.047611758 -0.014306594 -0.018119501 0.036586147 -0.007614875
-0.006320972 -0.07695563 -0.028611315 -0.018717885 0.014143011 0.017639123 0.032092486 0.03030962
-0.02471347 -0.0044848695 0.004563387 -0.029530017 0.030910483 0.02795326 -0.034280635 0.020696837
0.08020419 -0.026427578 -0.058393635 0.022969067 -0.024854017 -0.08855523 -0.006607066 0.026085882
00000000: 5fbc 36bd 6fd9 c6bd f9c4 46bc b2ea 643d
00000010: 82e3 93bd 20c9 f0bc c972 c3bb 235f f23c
00000020: c68c 3b3b 25ba e43d 2682 d7bc 4c94 1bbd
00000030: 1e61 37bd 05a9 193d 098a 813b 11c9 533c
00000040: 2a99 b03c 8313 8c3c 859e 8b3c 11ad a1bc
00000050: 8967 82ba 0607 c03a d6fa 5ebd 9720 fcbc
00000060: aaa2 9cbd b1ab 223c ddb1 f5bc 91a1 caba
00000070: 688a af3c e9c9 7fbc bcb2 1f3d f32b c83c
00000080: abe6 753b 0fe0 c9bc 54d9 043c c125 433d
00000090: 542b acbb 74be ed3c 556a e5bb 1850 2fbd
000000a0: 6c6c c83c a0a4 80bd 0e83 f9bc 8365 053b
000000b0: 30ef 4ebd ff60 75bc cd19 773d 458f 69bb
000000c0: 8b14 b8bd f8f0 b0bd cb75 89bc e42c 13bd
000000d0: b744 5ebb f786 553d 7ac3 bd3d 8c4d 713d
000000e0: 33fb 713c e442 3c3d a771 8bbd 963d 6abd
000000f0: 589f 76bd e7f1 c4bd 48c4 d1bd 04e0 eebb
00000100: 9ba9 41bd fd3b 88bd b871 bdbc bd34 99bc
00000110: cb6d c33c 75d8 cd3c a4bb 873c 851d d73c
00000120: 6628 a4bc bc9c 0b3c 0469 c0ba 7185 da3c
00000130: 169f 873b 0296 f3bc 30d7 48bd 8f4c 42bd
00000140: 6197 9d3b 20c0 a4bd a779 4f3b eb39 df3c
00000150: ed8a 59bc 696f aebc 717b ba3c 745c 303c
00000160: 3c1f c4bb e913 563d c605 563b 1dde af3c
00000170: e6ca 95bd 1e32 66bd dd1e 893d eca2 83bd
00000180: c70a 60bd d00f 63bd 43e4 34bd 99f9 9cbb
00000190: 607c 89bd fa49 f93c 3f8c 4e3c 48e4 303d
000001a0: 707f 3abc 7444 883c 0ff4 dc3c 7d72 ab3c
000001b0: 788c b3bb 820d bdbc 4cb9 a7bb d731 11bd
000001c0: 5ef4 00bd 3126 15bc f10b 87bc 8901 383d
000001d0: ce15 5c3c 818f 61bd 65ff c9bb d9a6 903b
000001e0: 146f 8ebb d01d b83b 5a75 283d ed78 dfbb
000001f0: 8e7b 493c 21a4 4ebd 57e6 0cbd 396e 8bbc
00000200: e743 a9bc ab30 acbd b308 0dbd 538d 183d
00000210: 2558 84bc 06d2 813d 3fdd f93d e71e f43c
00000220: e2c6 98bb ea73 bb3b 1eab 013d a7b6 2fbd
00000230: 99e9 833c 9c4f 3cbd 4daa 9d3c 8146 9d3b
00000240: 809d c3bd eb8e bcbd cc28 4bbd bbd3 10bc
00000250: 89d0 703d 7694 c73d 8ecf a03d 408d 65bc
00000260: 64cf 3b3b 9bb7 6f3c a824 c3bd 74e0 fdbc
00000270: 924a 5cbd d7b5 2a3c 51c1 96bc 5442 9f3c
00000280: 5ebb 26bc 8672 1dbe 25cf aabc ad8f 3cbc
00000290: 30a1 8fbd 82c4 96bd 5f5e d5bb c1d7 16bd
000002a0: 526a 343d e494 0c3c 6037 d83d b989 c93c
000002b0: 3ee9 053d b915 d93c f4ed 83bd d555 79bd
000002c0: 824a eabc 6dd4 b03b 1152 3e3c 96f8 7d3d
000002d0: ad1a 29bd 7ad2 103d c8bb 0abc 0320 a93c
000002e0: 1298 f43b 550c 643d 6c0b 3ebc d8ec 07bd
000002f0: d6d5 353c 609f 50bd 88cf d6bb e5e2 5b3c
00000300: fdb6 c1bc df1c 843c df2a 963d 8abc 723d
00000310: 862c 2bbd 68ab 0cb9 63e3 743c cdf4 afbc
00000320: 7238 e8bd 7082 8ebd f99d acbd a38e 5abd
00000330: c8e3 66bd 3b74 0bbd 6e91 e1bd 6b4f 8abc
00000340: 4534 3a3d 831e cf3d 7477 c63d a40e 943c
00000350: 9fda 9ebd ea46 debd 80b8 10bd 72bf d5bc
00000360: 7f0b 9dbd a41f cc3c 0f1e b43c 308c 253b
00000370: 6751 3abd 75c1 77ba 9e05 5d3d 15bd 8abb
00000380: 61da 07bd e710 c6b9 f38b 4a3d 8c04 433d
00000390: 3466 6abc 596f 94bc 5bdb 153d 3486 f9bb
000003a0: 2820 cfbb ea9a 9dbd 4762 eabc 4056 99bc
000003b0: 16b8 673c ec7f 903c 6973 033d e14b f83c
000003c0: e773 cabc d0f5 92bb 7788 953b efe8 f1bc
000003d0: fb37 fd3c 3cfe e43c da69 0cbd 6a8c a93c
000003e0: 1842 a43d a67e d8bc 2a2e 6fbd a029 bc3c
000003f0: a79a cbbc 725c b5bd 1680 d8bb 0fb2 d53c

classifier.0.bias f4 [100]
0.016795088 0.031143717 -0.009237533 -0.027772225 -0.002730623 -0.017300915 0.007991884 0.028936937
0.028793015 0.034372002 0.026460215 -0.03141729 0.02477824 -0.0046948753 -0.029564124 -0.032583702
0.013530698 -0.009286802 -0.0030788071 0.013584841 -0.033829294 0.00095761917 -0.0016935761 -0.0245602
0.027864546 -0.023473535 0.019992873 -0.006862739 0.028347157 0.0146496 0.009213705 0.013115171
0.03350191 -0.030411229 0.015133746 0.023555849 0.017876301 -0.016579155 0.03298694 0.0023041144
-0.021764059 -0.030763421 -0.00855918 -0.035977144 0.0152492225 0.015609972 -0.008295376 -0.029619541
-0.020560272 -0.032920897 -0.032198433 0.009975381 -0.009682365 0.03245838 0.018839061 0.011211593
0.029399484 -0.02317918 0.0030380897 -0.016177984 -0.030722914 -0.034547064 0.02686724 -0.026799412
0.023669377 0.031160027 0.004367154 0.026108954 0.021726288 -0.021701742 0.0063291937 0.0044174083
-0.017041089 0.010247707 -0.0052770115 0.026202314 -0.03051453 0.0055666342 -0.019443044 0.033704795
0.0028514527 0.0196382 -0.014463242 -0.007853124 -0.013457548 0.0013865534 0.020181123 -0.035530515
-0.03500127 -0.014994899 0.009449877 -0.0065038856 0.028897017 0.0319617 0.030304946 0.0023375154
-0.006527666 0.024381012 -0.029772244 -0.018418998
00000000: da95 893c 1c21 ff3c 0659 17bc 9482 e3bc
00000010: 40f4 32bb a6ba 8dbc 64f0 023c 280d ed3c
00000020: 54df eb3c a8c9 0c3d 18c3 d83c 6baf 00bd
00000030: bcfb ca3c 78d7 99bb 7630 f2bc 7d76 05bd
00000040: dcaf 5d3c ac27 18bc d0c5 49bb f492 5e3c
00000050: 9690 0abd bc08 7b3a fcfa ddba 7932 c9bc
00000060: 3044 e43c 924b c0bc 18c8 a33c d4e0 e0bb
00000070: 4c38 e83c e004 703c 14f5 163c 04e1 563c
00000080: 4c39 093d f820 f9bc 88f3 773c 32f8 c03c
00000090: 5271 923c 02d1 87bc 501d 073d a000 173b
000000a0: 8a4a b2bc 9203 fcbc ce3b 0cbc c55c 13bd
000000b0: e0d7 793c f8c0 7f3c 54e9 07bc aea4 f2bc
000000c0: 046e a8bc 10d8 06bd 81e2 03bd c86f 233c
000000d0: c8a2 1ebc 14f3 043d 6054 9a3c d4b0 373c
000000e0: 30d7 f03c 44e2 bdbc b01a 473b b187 84bc
000000f0: 9fae fbbc 3981 0dbd b018 dc3c 718a dbbc
00000100: 48e6 c13c 5043 ff3c 581a 8f3b 72e2 d53c
00000110: 54fb b13c dac7 b1bc 2065 cf3b e8bf 903b
00000120: c199 8bbc 00e6 273c c8ea acbb 3ca6 d63c
00000130: 9cf9 f9bc 5068 b63b 0547 9fbc 0a0e 0a3d
00000140: 70df 3a3b 4ae0 a03c 3cf7 6cbc 64aa 00bc
00000150: 0c7d 5cbc 03bd b53a e252 a53c 7288 11bd
00000160: 7e5d 0fbd 2aad 75bc a8d3 1a3c 8c1e d5bb
00000170: 70b9 ec3c 46ea 023d 1442 f83c 0031 193b
00000180: 08e6 d5bb b0ba c73c ece4 f3bc 70e3 96bc

classifier.1.weight f4 [100]
0.94307685 0.97638816 1.0378289 0.97181934 0.9412294 1.0067196 0.9601923 0.9118016
0.99318004 0.9627677 0.9432703 1.0647889 0.909353 1.1802076 0.94570816 0.9120943
0.94364697 0.9300465 0.9552157 1.056442 0.9648656 1.0640037 1.0148017 0.9161097
0.98040515 0.9956039 1.0251712 0.94646925 0.95985925 0.89976066 1.0003694 1.0241293
0.9970053 0.98839176 0.8882097 1.0505564 1.0425158 0.9686884 0.9765234 0.9020434
0.95598173 0.988121 0.96020895 0.9559569 1.0642022 1.0124617 0.97209007 1.0586811
1.0248123 0.9279419 0.93792415 1.1028942 1.0081815 0.96247065 1.0692668 0.96706045
0.9330292 0.95350415 0.9699549 0.95001173 1.0117203 0.9877482 0.9653355 0.9356279
0.9589893 0.9991076 0.9400244 1.0022807 1.044321 1.0388072 1.0701536 1.0693707
0.97556555 0.96950185 1.000468 1.026234 0.9693434 1.0412179 0.91382253 0.9079369
1.0182949 1.0392998 0.9851917 1.0653281 0.9542209 1.0063711 0.9284619 0.9955654
1.0376413 0.949314 0.9175471 0.9594147 0.95368093 0.95804137 0.9117114 0.93386334
0.9973832 0.9245462 0.97297996 0.99181455
00000000: 7c6d 713f 93f4 793f 94d7 843f 27c9 783f
00000010: 69f4 703f 30dc 803f 2acf 753f d46b 693f
00000020: 0c41 7e3f f277 763f 2a7a 713f 014b 883f
00000030: 5ccb 683f 0b11 973f ee19 723f 037f 693f
00000040: d992 713f 8717 6e3f 0489 743f 7e39 873f
00000050: 6f01 773f 4631 883f 06e5 813f 2a86 6a3f
00000060: d5fb 7a3f e6df 7e3f cf38 833f cf4b 723f
00000070: 56b9 753f b756 663f 1b0c 803f ab16 833f
00000080: bd3b 7f3f 3e07 7d3f b661 633f a278 863f
00000090: 2871 853f f7fb 773f 70fd 793f 51ec 663f
000000a0: 38bb 743f 7ff5 7c3f 41d0 753f 97b9 743f
000000b0: c737 883f 5898 813f e5da 783f dd82 873f
000000c0: 0d2d 833f 9a8d 6d3f cc1b 703f a32b 8d3f
000000d0: 170c 813f 7a64 763f bcdd 883f 4691 773f
000000e0: 00db 6e3f d918 743f f74e 783f f833 733f
000000f0: 0d80 813f 11dd 7c3f 3a20 773f 4f85 6f3f
00000100: 5380 753f 84c5 7f3f 70a5 703f bc4a 803f
00000110: 4fac 853f a2f7 843f cbfa 883f 24e1 883f
00000120: aabe 793f 4631 783f 560f 803f a35b 833f
00000130: e426 783f a146 853f 46f0 693f 8d6e 683f
00000140: 7d57 823f c707 853f 8635 7c3f ac5c 883f
00000150: d247 743f c5d0 803f aeaf 6d3f 60dd 7e3f
00000160: 6ed1 843f 3e06 733f 5ee4 6a3f 349c 753f
00000170: 6f24 743f 3342 753f eb65 693f ab11 6f3f
00000180: 8154 7f3f 0faf 6c3f 3715 793f 8fe7 7d3f

classifier.1.bias f4 [100]
-0.14257817 -0.1607953 -0.19162816 -0.22317755 -0.29778776 -0.28407726 -0.14862098 -0.0011224806
-0.1307812 -0.2353416 -0.052901693 -0.38489687 -0.16344428 -0.47296682 -0.21669032 -0.115398176
-0.4239126 -0.23366266 -0.37760645 -0.10715371 -0.12898071 -0.2680194 -0.2582791 -0.11702347
-0.29842523 -0.12464309 -0.16828625 -0.28254598 -0.23124975 0.07958484 -0.27422124 -0.097670525
-0.16201226 -0.20771445 -0.23798199 -0.24507037 -0.20331725 -0.079989366 -0.3413098 -0.23097022
-0.22412536 -0.26477736 -0.08801143 -0.113568075 -0.36775786 -0.26998314 -0.23522109 -0.24723803
-0.2307808 -0.06417421 0.04202612 -0.22223844 -0.012096211 -0.17225188 -0.092592716 -0.13145849
-0.16378585 -0.10488694 -0.1868179 -0.17841458 -0.12397747 -0.17813092 -0.15138675 -0.22179188
-0.20204061 -0.08446852 -0.1303283 -0.2753523 -0.19926968 -0.06724655 -0.16083467 -0.14073724
-0.16807212 -0.068156235 -0.18534596 -0.22500177 -0.23908505 -0.17132519 -0.12870882 -0.21753888
-0.3125862 -0.24669097 -0.08966884 -0.25201786 -0.26168123 -0.28710577 -0.033558857 -0.103171445
-0.15931001 -0.11863583 -0.03050243 -0.2509301 -0.1939203 -0.19042927 -0.23087172 -0.21310472
-0.24788557 -0.09598428 -0.29737166 -0.22083923
00000000: 0300 12be 86a7 24be 2c3a 44be a888 64be
00000010: a377 98be 9372 91be 1930 18be 3320 93ba
00000020: 82eb 05be 63fd 70be 72af 58bd 3411 c5be
00000030: f05d 27be b528 f2be 11e4 5dbe e155 ecbd
00000040: 130b d9be 4445 6fbe a255 c1be 6873 dbbd
00000050: 8513 04be d739 89be 283d 84be 00aa efbd
00000060: 31cb 98be e044 ffbd 3b53 2cbe dea9 90be
00000070: bccc 6cbe 60fd a23d ba66 8cbe 7c07 c8bd
00000080: 8be6 25be 19b3 54be 8db1 73be baf3 7abe
00000090: 6632 50be 77d1 a3bd 28c0 aebe 7583 6cbe
000000a0: 1e81 65be e690 87be 563f b4bd 6196 e8bd
000000b0: c24a bcbe 3b3b 8abe ccdd 70be f72b 7dbe
000000c0: cd51 6cbe c56d 83bd 9523 2c3d 7992 63be
000000d0: 302f 46bc cc62 30be 40a1 bdbd 0e9d 06be
000000e0: 7ab7 27be f7ce d6bd 314d 3fbe 50b2 36be
000000f0: e6e7 fdbd f467 36be 2105 1bbe 691d 63be
00000100: bce3 4ebe d5fd acbd c874 05be fafa 8cbe
00000110: 5a0d 4cbe 8fb8 89bd d8b1 24be 6c1d 10be
00000120: 191b 2cbe 7f95 8bbd 55cb 3dbe dd66 66be
00000130: b6d2 74be df6f 2fbe 3fcc 03be 83c2 5ebe
00000140: 4c0b a0be 8f9c 7cbe 4ca4 b7bd 7c08 81be
00000150: 15fb 85be 87ff 92be 0375 09bd 8d4b d3bd
00000160: 2a22 23be 58f7 f2bd 3be0 f9bc e979 80be
00000170: 0b93 46be e4ff 42be a369 6cbe 2038 5abe
00000180: b7d5 7dbe 6893 c4bd 1941 98be ae23 62be

classifier.1.running_mean f4 [100]
-0.7534285 -1.0796132 -1.1434962 -1.2234601 -1.312061 -1.457966 -1.1426971 0.39660418
-1.8303715 -1.6051275 -1.397874 -1.0420147 -1.3008018 -1.2034483 -1.3800608 -0.33443725
-1.2348691 -1.7679563 -1.063999 -1.288672 -1.8909494 -1.186368 -0.8089704 -0.39394522
-1.1467562 -0.5866097 -0.9502192 -1.1789398 -0.7887365 -0.003059971 -1.2337316 -1.4389637
-0.78852165 -1.0929273 -0.8219558 -0.91122776 -1.1341674 -1.0382309 -1.2087224 -1.343663
-0.79553694 -1.056319 -1.4094487 -0.73773617 -1.0354993 -0.88345027 -1.3240075 -1.0091941
-1.2104851 -1.2081522 -0.3263337 -0.80580944 -2.6753905 -0.82360387 -0.049795058 -0.9817464
-1.5465052 -1.1925169 -1.0243142 -0.85400325 -0.89422154 -1.648669 -1.1126395 -1.0462443
-1.35546 -2.038733 -0.74519885 -1.6078987 -0.8112259 -0.29513827 -1.2421272 -0.6265455
-0.76036894 -0.11693292 -0.85195017 -1.8279792 -1.3032413 -0.055596042 -1.1468533 -0.28356186
-1.1673219 -0.92678803 -0.7287529 -1.0528092 -0.9925397 -1.6216955 -0.21459988 -0.39918143
-0.9545458 -0.7234093 -0.5705392 -1.4530591 -0.2924361 -0.98269075 -0.94293773 -0.9701428
-0.69702214 -0.559285 -1.4729413 -1.4499186
00000000: b1e0 40bf c430 8abf 155e 92bf 579a 9cbf
00000010: 9df1 a7bf a19e babf e643 92bf b40f cb3e
00000020: 9d49 eabf d174 cdbf 89ed b2bf bd60 85bf
00000030: ac80 a6bf 980a 9abf d5a5 b0bf 5c3b abbe
00000040: 3110 9ebf 644c e2bf 1f31 88bf 34f3 a4bf
00000050: a10a f2bf e8da 97bf af18 4fbf 30b3 c9be
00000060: e8c8 92bf 0e2c 16bf 9141 73bf 80e7 96bf
00000070: a3ea 49bf cb89 48bb ebea 9dbf f62f b8bf
00000080: 8edc 49bf 0be5 8bbf b26b 52bf 3946 69bf
00000090: 662c 91bf c0e4 84bf 6ab7 9abf 26fd abbf
000000a0: 4fa8 4bbf 7635 87bf d168 b4bf 47dc 3cbf
000000b0: 3e8b 84bf cc29 62bf 1479 a9bf 462d 81bf
000000c0: 2df1 9abf bba4 9abf 3615 a7be 8749 4ebf
000000d0: 9939 2bc0 b4d7 52bf e7f5 4bbd bb53 7bbf
000000e0: e2f3 c5bf 65a4 98bf ba1c 83bf f59f 5abf
000000f0: b4eb 64bf 9607 d3bf f96a 8ebf 55eb 85bf
00000100: b77f adbf 9a7a 02c0 5ac5 3ebf a0cf cdbf
00000110: 80ac 4fbf 5d1c 97be 06fe 9ebf 4965 20bf
00000120: 8aa7 42bf 877a efbd 6819 5abf 39fb e9bf
00000130: 9cd0 a6bf adb8 63bd 17cc 92bf 052f 91be
00000140: ce6a 95bf fb41 6dbf 8d8f 3abf 74c2 86bf
00000150: 1517 7ebf b893 cfbf 12c0 5bbe 8261 ccbe
00000160: 1d5d 74bf 5a31 39bf db0e 12bf d7fd b9bf
00000170: 2fba 95be 9f91 7bbf 5e64 71bf 475b 78bf
00000180: 0b70 32bf 4d2d 0fbf 5789 bcbf ef96 b9bf

classifier.1.running_var f4 [100]
2.4816146 1.8484565 2.8755016 2.6468248 1.8525108 3.1845818 2.2276382 1.5327463
2.5353189 2.3476381 1.7567123 2.63809 1.4659851 3.455337 2.1685205 1.4679047
2.087594 3.2135658 2.5098164 3.781695 1.9350022 2.0016541 2.2275896 1.7279333
2.1446862 2.312353 2.3585024 2.1461833 1.5071279 2.0503652 2.128883 3.4937327
2.3605008 1.6873978 1.5711066 2.8104284 2.7241838 2.2303596 2.6983833 1.7927343
2.563401 2.8117437 3.0699875 1.5210155 2.3023117 2.5948725 2.3720913 2.5521994
1.9506056 2.2397382 2.6517296 3.3259497 4.7084126 1.9735478 3.9355474 2.09947
2.0319214 1.6401137 1.5368167 2.203953 2.3443487 1.9268222 1.9082824 3.1292834
2.9968162 2.2780817 1.9581052 2.9747422 3.6641893 3.259716 3.1056962 4.7917356
2.2554908 2.3220427 2.399158 3.2300751 2.454061 2.6828744 2.399491 1.759433
2.3825104 2.089411 2.4758892 2.537067 1.6590656 2.9914467 2.3881762 2.3857327
2.342622 2.55679 2.0136087 2.560171 2.5042648 2.0219731 1.3429997 1.9846172
2.4608176 1.9636638 1.8572549 2.5334806
00000000: c6d2 1e40 399a ec3f 3808 3840 9465 2940
00000010: 131f ed3f 30d0 4b40 a091 0e40 0831 c43f
00000020: aa42 2240 b43f 1640 f3db e03f 77d6 2840
00000030: 66a5 bb3f 3e24 5d40 0ac9 0a40 4de4 bb3f
00000040: 249b 0540 10ab 4d40 d5a0 2040 4a07 7240
00000050: 27ae f73f 1a1b 0040 d490 0e40 eb2c dd3f
00000060: 8a42 0940 97fd 1340 b4f1 1640 115b 0940
00000070: 91e9 c03f 2f39 0340 9e3f 0840 5199 5f40
00000080: 7212 1740 a7fc d73f 051a c93f 0fde 3340
00000090: 0759 2e40 36be 0e40 50b2 2c40 5178 e53f
000000a0: c30e 2440 9cf3 3340 ad7a 4440 a3b0 c23f
000000b0: 1359 1340 6412 2640 58d0 1740 3c57 2340
000000c0: 72ad f93f df57 0f40 f0b5 2940 5cdc 5440
000000d0: 51ab 9640 379d fc3f 02e0 7b40 b75d 0640
000000e0: 000b 0240 3fef d13f 69b6 c43f 910d 0d40
000000f0: cf09 1640 1ca2 f63f 9942 f43f 2e46 4840
00000100: d6cb 3f40 17cc 1140 31a3 fa3f 2d62 3e40
00000110: 1482 6a40 309f 5040 bac3 4640 e655 9940
00000120: f659 1040 599c 1440 ce8b 1940 8db9 4e40
00000130: 560f 1d40 37b4 2b40 4391 1940 1a35 e13f
00000140: 0d7b 1840 e9b8 0540 f874 1e40 4e5f 2240
00000150: 435c d43f dd73 3f40 e1d7 1840 d8af 1840
00000160: 85ed 1540 73a2 2340 f7de 0040 d7d9 2340
00000170: e045 2040 0268 0140 6ae7 ab3f f007 fe3f
00000180: 097e 1d40 5659 fb3f 87ba ed3f 8c24 2240

classifier.3.weight f4 [100, 100]
0.08865585 0.050955508 -0.11903524 0.027825685 -0.0025608037 -0.00466497 -0.1268224 -0.08393913
0.0028327547 0.08438347 0.08829922 -0.13723685 -0.09489177 0.03801139 -0.13193162 -0.06960884
0.14546187 -0.0047207023 0.01467945 0.059127837 0.10039619 0.0605214 0.056440968 -0.011731499
-0.0077137607 -0.0017376923 -0.018602591 -0.012843322 -0.021616168 -0.04721145 0.2204833 -0.020423837
-0.015706927 -0.0022182735 0.052954417 -0.10790022 -0.099876806 0.01960117 -0.08398021 0.0069749192
0.06499527 0.13231239 -0.03351203 -0.022323819 -0.16271628 0.14033253 0.18280822 0.11675001
-0.067730084 0.030221948 0.05164098 0.06488771 -0.041560553 0.06319928 0.19487152 -0.10334247
0.078425884 -0.056047466 -0.0030936191 0.010889045 0.013595451 -0.053307224 -0.023080394 0.07649014
-0.013140882 0.0047873585 0.0136341425 -0.054762736 -0.01993793 -0.18494885 0.05483311 -0.09294201
-0.13717173 -0.071438156 -0.023577401 0.036280353 -0.12134843 -0.18046114 -0.004442995 -0.07499479
-0.052323442 -0.04920923 -0.025739072 -0.0697616 -0.16509423 -0.03042245 0.016487602 -0.0038922327
-0.03969043 -0.016355935 -0.037948985 0.027019674 -0.06841366 0.07024724 0.06943458 0.011904245
0.05199094 0.056779057 -0.07951046 0.008506035 -0.021181466 -0.020738395 -0.0725927 0.06927433
0.08500367 -0.041182227 -0.095984936 0.088353455 0.115686476 0.029718798 0.10203909 0.066404
-0.071349636 -0.05684593 0.077633105 0.07193598 0.11322317 -0.06910519 0.00496106 -0.0054208105
0.075065054 -0.02861647 0.041200534 0.0419924 0.004175953 -0.14033563 0.18657061 0.08028323
-0.015812073 -0.059528667 0.03483535 -0.19227888 0.20369355 0.121828 -0.032406397 -0.12709257
-0.02488802 -0.008620608 0.088773005 0.07898967 -0.061896082 0.088502266 0.15913668 -0.087826654
-0.14209154 -0.11751801 0.13111109 -0.102797635 0.011808843 -0.10719887 -0.058237594 -0.035263177
-0.086524196 0.09473305 -0.070948906 -0.065929405 -0.016606236 -0.038269326 -0.029127866 0.010422822
0.017674237 0.069149174 -0.100714244 -0.06430724 0.07636439 -0.097667515 -0.15373933 -0.095770575
0.14660403 -0.006177389 -0.0177401 0.006386384 -0.06013153 -0.113325685 -0.050906736 -0.009783681
-0.014483429 -0.043523833 0.09773796 0.023794124 -0.11489884 -0.021199526 -0.0795046 -0.028261108
-0.0009334799 -0.1223509 -0.10814997 0.05957631 -0.002241246 0.010736787 -0.04679418 0.047907524
-0.07967454 -0.0071553094 0.03224122 -0.024114044 -0.06143427 -0.09211198 0.04699961 0.16342433
-0.016389055 0.07527175 -0.08191162 0.027387375 -0.032454636 -0.08684674 -0.018488288 -0.09003237
0.12061816 -0.15467733 0.00829465 0.032411028 0.14470305 -0.020130279 -0.14686382 0.017920863
-0.043263245 -0.015126756 0.075267866 0.13068786 -0.061005335 0.20449351 -0.086769626 -0.031645797
0.033310536 -0.042664826 -0.10655306 0.003255474 -0.10290975 -0.050153676 0.08402808 0.09286937
-0.082310185 -0.103386156 0.06890028 0.07424767 -0.1275134 0.0140564395 -0.072499506 0.094179474
-0.039988544 6.0766968e-05 -0.01603022 -0.0759194 0.102426454 0.048347283 -0.054297384 -0.00086485466
0.17872187 -0.0061036358 0.058521148 -0.008035047 0.087437145 0.089249775 -0.10344731 -0.09346813
00000000: 3391 b53d b9b6 503d bfc8 f3bd b1f2 e33c
00000010: 28d3 27bb 9bdc 98bb bbdd 01be 47e8 abbd
00000020: bda5 393b 3ed1 ac3d 39d6 b43d d187 0cbe
00000030: 9e56 c2bd d5b1 1b3d 1519 07be 148f 8ebd
00000040: f5f3 143e 1fb0 9abb 1382 703c 0830 723d
00000050: 859c cd3d 4ae5 773d a52e 673d 7935 40bc
00000060: b7c3 fcbb 47c3 e3ba 7664 98bc cc6c 52bc
00000070: 6414 b1bc cb60 41bd 60c6 613e e44f a7bc
00000080: d0ab 80bc 7460 11bb bbe6 583d cafa dcbd
00000090: 368c ccbd a292 a03c d1fd abbd dd8d e43b
000000a0: 3d1c 853d e67c 073e e943 09bd 71e0 b6bc
000000b0: 199f 26be 55b3 0f3e 1432 3b3e a11a ef3d
000000c0: 12b6 8abd 0594 f73c 7e85 533d d9e3 843d
000000d0: 663b 2abd a06e 813d 668c 473e 38a5 d3bd
000000e0: c09d a03d 0792 65bd 51be 4abb f767 323c
000000f0: 74bf 5e3c ad58 5abd 1813 bdbc dda6 9c3d
00000100: db4c 57bc 46df 9c3b bd61 5f3c e44e 60bd
00000110: df54 a3bc 3b63 3dbe af98 603d 6158 bebd
00000120: bf76 0cbe 2b4e 92bd 6525 c1bc b59a 143d
00000130: 8785 f8bd ceca 38be 8b96 91bb de96 99bd
00000140: 1b51 56bd 9e8f 49bd bfda d2bc 2bdf 8ebd
00000150: 760e 29be 8038 f9bc 0211 873c d414 7fbb
00000160: 6f92 22bd e2fc 85bc 6570 1bbd 5d58 dd3c
00000170: 761c 8cbd c9dd 8f3d b833 8e3d 060a 433c
00000180: 74f4 543d 2891 683d 61d6 a2bd e65c 0b3c
00000190: c184 adbc 91e3 a9bc 7bab 94bd b3df 8d3d
000001a0: 6716 ae3d b2ae 28bd c093 c4bd a8f2 b43d
000001b0: 08ed ec3d d674 f33c dff9 d03d d2fe 873d
000001c0: c21f 92bd 47d7 68bd 1bfe 9e3d 2c53 933d
000001d0: 8de1 e73d 0687 8dbd 6390 a23b 0ea1 b1bb
000001e0: b5bb 993d 166d eabc e4c1 283d 3900 2c3d
000001f0: 6fd6 883b 25b4 0fbe 5e0c 3f3e 896b a43d
00000200: 5288 81bc 55d4 73bd 83af 0e3d c1e4 44be
00000210: 0b95 503e f580 f93d 92bc 04bd 8e24 02be
00000220: f6e1 cbbc 733d 0dbc 9fce b53d 56c5 a13d
00000230: bf86 7dbd ad40 b53d baf4 223e 76de b3bd
00000240: 7280 11be 48ad f0bd fc41 063e 9187 d2bd
00000250: e179 413c 158b dbbd 8b8a 6ebd 1f70 10bd
00000260: 9933 b1bd 6703 c23d a94d 91bd ff05 87bd
00000270: cd09 88bc 4cc0 1cbd 909d eebc 7cc4 2a3c
00000280: 90c9 903c 159e 8d3d 4543 cebd 84b3 83bd
00000290: ef64 9c3d e805 c8bd d86d 1dbe 5d23 c4bd
000002a0: 5e1f 163e b26b cabb b053 91bc df44 d13b
000002b0: 7b4c 76bd 4c17 e8bd 9583 50bd bb4b 20bc
000002c0: e74b 6dbc 0c46 32bd d72a c83d e5eb c23c
000002d0: 1550 ebbd a1aa adbc 4fd3 a2bd d783 e7bc
000002e0: c7b4 74ba 1c93 fabd bb7d ddbd 4a06 743d
000002f0: dee1 12bb 59e9 2f3c 41ab 3fbd ae3a 443d
00000300: 682c a3bd 1677 eabb 5f0f 043d d18a c5bc
00000310: 80a2 7bbd 35a5 bcbd aa82 403d b558 273e
00000320: 5742 86bc 1328 9a3d 48c1 a7bd 7d5b e03c
00000330: 27ef 04bd b4dc b1bd c074 97bc e462 b8bd
00000340: a706 f73d bc63 1ebe 49e6 073c 6dc1 043d
00000350: 092d 143e 41e8 a4bc 7863 16be c6ce 923c
00000360: cd34 31bd 37d6 77bc 0a26 9a3d 0ad3 053e
00000370: bbe0 79bd bf66 513e 46b4 b1bd 069f 01bd
00000380: a170 083d 50c1 2ebd 7e38 dabd ca59 553b
00000390: 59c2 d2bd f16d 4dbd ea16 ac3d 4c32 be3d
000003a0: 3e92 a8bd 1fbc d3bd 971b 8d3d 2a0f 983d
000003b0: df92 02be fb4c 663c 9f7a 94bd 2be1 c03d
000003c0: 07cb 23bd 09e0 7e38 cf51 83bc a17b 9bbd
000003d0: f6c4 d13d cd07 463d ef66 5ebd 6ab7 62ba
000003e0: de02 373e 0201 c8bb dfb3 6f3d 6ea5 03bc
000003f0: 3f12 b33d 96c8 b63d 2fdc d3bd 386c bfbd

classifier.3.bias f4 [100]
-0.07461196 0.028219424 -0.04049939 0.017750978 0.03954848 0.05156847 -0.074694574 -0.024914667
0.020950176 0.071313106 0.05116243 0.009255692 -0.06270076 -0.033549763 0.099968486 0.07844516
-0.064835906 -0.067245364 -0.08055727 -0.03478416 -0.09783019 -0.046551954 -0.06862042 0.092457436
-0.014322937 0.084612615 -0.022876106 0.01611463 0.038425006 0.08006967 -0.070687115 -0.023977973
0.031641014 0.019881465 -0.0614298 0.061817504 -0.03568025 0.066584 0.07220698 -0.09063083
0.089183755 0.06307263 -0.04723666 -0.011033967 -0.039720226 0.09400157 0.037982427 0.056651123
0.03098949 0.016728714 -0.03994037 0.047837697 -0.056200173 0.06653587 0.021021768 -0.024591208
-0.07259525 -0.030319259 -0.084499024 -0.06640623 0.004151985 -0.082115605 0.048981927 -0.007891193
-0.006555617 0.064105086 0.08720838 0.03198824 -0.0354691 0.085064076 0.084918804 -0.039192427
0.09236444 0.07150591 -0.0862392 0.03099788 0.09101517 -0.04919629 -0.008580565 0.026431166
-0.032761827 0.08969129 -0.059445288 -0.08224809 0.03465659 -0.06731416 0.00946492 -0.018830165
-0.027884282 0.049167223 -0.03573954 -0.07376792 -0.01865127 -0.09579766 0.019983672 -0.066027045
0.040915824 0.070706196 -0.005548716 -0.07988103
00000000: 28ce 98bd 6c2c e73c b0e2 25bd 806a 913c
00000010: 96fd 213d 7639 533d 78f9 98bd d819 ccbc
00000020: b49f ab3c 9b0c 923d b28f 513d 30a5 173c
00000030: 4269 80bd 7a6b 09bd 47bc cc3d dba7 a03d
00000040: b0c8 84bd f0b7 89bd 36fb a4bd d679 0ebd
00000050: 325b c8bd 43ad 3ebd dd88 8cbd 535a bd3d
00000060: c0aa 6abc 6149 ad3d ac66 bbbc d402 843c
00000070: 8a63 1d3d 91fb a33d 68c4 90bd 746d c4bc
00000080: 029a 013d 74de a23c d09d 7bbd 5a34 7d3d
00000090: 7425 12bd 315d 883d 41e1 933d a89c b9bd
000000a0: f9a5 b63d 392c 813d 3a7b 41bd d0c7 34bc
000000b0: adb1 22bd e583 c03d 7693 1b3d 020b 683d
000000c0: acdd fd3c a80a 893c 8398 23bd 76f1 433d
000000d0: 2732 66bd f543 883d d835 ac3c 8073 c9bc
000000e0: d2ac 94bd 1860 f8bc d30d adbd fdff 87bd
000000f0: 600d 883b 3a2c a8bd 46a1 483d 104a 01bc
00000100: 80d0 d6bb 8749 833d 4f9a b23d 1a06 033d
00000110: 0c48 11bd 1336 ae3d e9e9 ad3d 3d88 20bd
00000120: 9129 bd3d b171 923d 2d9e b0bd 44ef fd3c
00000130: 2966 ba3d 0d82 49bd 8095 0cbc 2c86 d83c
00000140: 4431 06bd 11b0 b73d e77c 73bd b071 a8bd
00000150: 12f4 0d3d 02dc 89bd c012 1b3c b841 9abc
00000160: 946d e4bc 9263 493d a063 12bd a313 97bd
00000170: 8cca 98bc 9031 c4bd ccb4 a33c 3039 87bd
00000180: 5a97 273d 69ce 903d 01d2 b5bb aa98 a3bd
